1675852363.7558699_sentiment_model.pt (torch, 603211 bytes, 9 tensors)

GRU.weight_ih_l0 f4 [384, 2]
-0.209292 -0.24042378 -0.11737611 -0.086193 -0.18039484 -0.1523175 -0.21345763 -0.14810082
-0.15924874 -0.09336358 -0.1926841 -0.15313752 -0.18301174 0.035343703 -0.110551015 -0.12986375
-0.0829974 -0.15334354 -0.10317871 -0.083407894 -0.16743648 -0.058233675 -0.14333007 -0.13201435
-0.14149788 -0.012299571 -0.20563787 -0.12399968 -0.0013640041 -0.030852819 -0.15436332 -0.14572704
-0.13788415 -0.08462172 -0.15177633 -0.096505 -0.1295101 -0.14680055 -0.10229738 -0.057193037
-0.19770621 -0.21630086 0.008065156 -0.014905079 0.021042584 -0.07530065 -0.02827297 0.0023189662
-0.06751511 -0.04510565 -0.16009627 -0.13845797 -0.21457611 -0.2769223 -0.15467927 -0.06934252
-0.13657247 -0.18150006 -0.01057357 0.010363219 -0.03728904 -0.23789075 -0.1261296 -0.09932293
-0.09026375 -0.11100395 -0.06626374 -0.0054601002 -0.044824958 -0.08843861 -0.20212217 -0.15665449
-0.17621101 -0.10757558 -0.15408747 -0.16533646 -0.17399164 -0.09114012 -0.12271382 -0.14496279
-0.03025343 -0.04576576 -0.10835289 -0.107773826 -0.08188592 -0.076739945 -0.17247048 -0.15970913
-0.07957562 -0.057398845 -0.10065491 0.0029853648 0.029232321 -0.055437133 -0.20127816 -0.24021266
-0.35044363 -0.29153115 -0.18672433 -0.1746293 -0.20741487 -0.2398153 -0.07452429 0.04184172
-0.1732499 -0.14137797 -0.15725756 0.029906431 -0.16026054 -0.1888478 -0.12517203 -0.07209538
-0.25586957 -0.20067354 -0.22995552 -0.04590354 -0.19719885 -0.16592585 -0.08075007 -0.21511927
-0.16824201 -0.22772393 -0.23243077 -0.2993276 -0.10176661 -0.026711438 -0.055582173 -0.030342204
-0.18305963 -0.05796405 0.05628291 -0.08194387 0.013585327 -0.073828414 -0.13719407 0.051166985
-0.25104344 -0.2326937 -0.12208006 -0.048495587 -0.24144067 -0.21487466 -0.022001255 -0.049083162
-0.15432309 -0.10203805 -0.16231766 -0.060316537 0.013303252 -0.18547517 -0.21414371 -0.071919724
-0.1365119 -0.14990695 -0.052163623 -0.08253052 -0.12982541 -0.068798706 -0.05424309 -0.13300093
0.00474917 -0.043322306 -0.11941669 -0.0075767906 -0.07161345 -0.04396811 -0.14538367 0.064213164
-0.24057858 -0.08020722 -0.07423457 -0.0702759 0.13041525 -0.04346158 -0.06837764 -0.11592449
-0.12666965 -0.13894255 -0.1803053 -0.18107778 -0.22767262 -0.35996428 -0.14683901 0.030686624
-0.21499853 -0.20690382 -0.08816098 -0.17751361 -0.087958775 -0.11337579 0.004711046 0.052280802
-0.26275542 -0.18044959 -0.124183424 -0.05183264 -0.046354987 -0.05920021 -0.11664178 -0.11090636
-0.21005987 -0.10073315 -0.16453207 -0.20712118 -0.13729171 -0.060756095 -0.20172119 -0.10798752
0.023488322 -0.051048707 -0.22129022 -0.118757285 -0.03771411 0.03757035 -0.10253125 -0.16141196
-0.04839645 0.09461798 -0.273721 -0.1686859 -0.15702578 -0.05346387 -0.13185586 -0.1826953
-0.27593315 -0.16113317 -0.1385265 -0.048012372 -0.19849277 -0.18332589 -0.022404268 -0.12273878
-0.11765314 -0.003836806 -0.14685792 -0.05338308 -0.04147554 -0.03670991 -0.10530556 0.0020493458
-0.17243543 -0.0876911 -0.14768852 -0.0009652557 -0.14624947 -0.081294686 -0.098630115 -0.009028537
-0.29703194 -0.13699062 -0.1226173 -0.16417216 -0.18097779 -0.18631218 -0.21282993 -0.011387914
00000000: a450 56be a731 76be e362 f0bd f585 b0bd
00000010: 6db9 38be 1ef9 1bbe a394 5abe bea7 17be
00000020: 1a12 23be 6835 bfbd fb4e 45be 15d0 1cbe
00000030: 6e67 3bbe 8fc4 103d 9268 e2bd 01fb 04be
00000040: 8afa a9bd 1706 1dbe 5c4f d3bd c2d1 aabd
00000050: 7874 2bbe 6f86 6ebd 1ec5 12be c52e 07be
00000060: d2e4 10be 2484 49bc bc92 52be 8bf3 fdbd
00000070: 62c8 b2ba 0dbf fcbc 6b11 1ebe 7839 15be
00000080: 8131 0dbe 274e adbd 416b 1bbe 6aa4 c5bd
00000090: 4c9e 04be e252 16be 4a81 d1bd 3f43 6abd
000000a0: 7f73 4abe f97d 5dbe b723 043c 6f34 74bc
000000b0: 7f61 ac3c 3a37 9abd b79c e7bc ccf9 173b
000000c0: 5d45 8abd b4c0 38bd 47f0 23be edc7 0dbe
000000d0: d7b9 5bbe c2c8 8dbe 3e64 1ebe 7303 8ebd
000000e0: a7d9 0bbe 27db 39be c43c 2dbc 7eca 293c
000000f0: 64bc 18bd a299 73be 1e28 01be d269 cbbd
00000100: 33dc b8bd 0a56 e3bd 49b5 87bd a4ea b2bb
00000110: 609a 37bd 4d1f b5bd 1df9 4ebe 096a 20be
00000120: a970 34be 9650 dcbd 1bc9 1dbe f64d 29be
00000130: dd2a 32be aca7 babd 6251 fbbd 2071 14be
00000140: 0bd6 f7bc e174 3bbd 1fe8 ddbd 86b8 dcbd
00000150: ceb3 a7bd d529 9dbd 1a9c 30be ca8a 23be
00000160: 8bf8 a2bd 0d1b 6bbd 2924 cebd 1ca6 433b
00000170: 9f78 ef3c 0c12 63bd dd1b 4ebe 4ffa 75be
00000180: 596d b3be 9243 95be aa34 3fbe 06d2 32be
00000190: 9064 54be 2492 75be 31a0 98bd 3962 2b3d
000001a0: 6c68 31be 63c5 10be 2008 21be 55fe f43c
000001b0: 571b 24be 5161 41be 192d 00be bea6 93bd
000001c0: 5601 83be 5d7d 4dbe 7679 6bbe 5a05 3cbd
000001d0: 7fee 49be 77e8 29be 4b60 a5bd 3a48 5cbe
000001e0: a247 2cbe 7630 69be 5502 6ebe 7841 99be
000001f0: 036b d0bd f2d1 dabc 22aa 63bd 3790 f8bc
00000200: fc73 3bbe b66b 6dbd e988 663d 30d2 a7bd
00000210: fe94 5e3c 5a33 97bd 9a7c 0cbe 7994 513d
00000220: c488 80be 4247 6ebe 1c05 fabd 4fa3 46bd
00000230: 393c 77be 1a08 5cbe fa3b b4bc 6d0b 49bd
00000240: df06 1ebe 53f9 d0bd 9a36 26be 790e 77bd
00000250: e2f5 593c 34ed 3dbe 7d48 5bbe a64a 93bd
00000260: c7c9 0bbe 3581 19be 86a9 55bd c305 a9bd
00000270: f4f0 04be 56e6 8cbd 012e 5ebd 6531 08be
00000280: ed9e 9b3b bb72 31bd bd90 f4bd ba46 f8bb
00000290: 13aa 92bd e817 34bd 75df 14be 3182 833d
000002a0: 3b5a 76be af43 a4bd 4b08 98bd d0ec 8fbd
000002b0: 938b 053e c504 32bd 9309 8cbd d269 edbd
000002c0: b0b5 01be f546 0ebe f4a1 38be 746c 39be
000002d0: 0323 69be 3d4d b8be f75c 16be 8462 fb3c
000002e0: 9328 5cbe 98de 53be be8d b4bd 21c6 35be
000002f0: bb23 b4bd 9131 e8bd 1e5f 9a3b 6524 563d
00000300: e187 86be c7c7 38be e153 febd 764e 54bd
00000310: bade 3dbd eb7b 72bd e3e1 eebd e022 e3bd
00000320: ef19 57be 2f4d cebd 187b 28be 9317 54be
00000330: 3396 0cbe 62db 78bd 0090 4ebe 9028 ddbd
00000340: 956a c03c 7318 51bd e799 62be 0537 f3bd
00000350: 1c7a 1abd 5ee3 193d e7fb d1bd 2d49 25be
00000360: 5b3b 46bd 12c7 c13d 2925 8cbe ffbb 2cbe
00000370: 5ecb 20be eefc 5abd 3905 07be 7a14 3bbe
00000380: 1c47 8dbe 1800 25be e4d9 0dbe 9fa8 44bd
00000390: b041 4bbe c8b9 3bbe 2889 b7bc 785e fbbd
000003a0: 21f4 f0bd ec72 7bbb ec61 16be 37a8 5abd
000003b0: 41e2 29bd 215d 16bd 71aa d7bd 514e 063b
000003c0: ea92 30be 6497 b3bd a93b 17be 3709 7dba
000003d0: 6cc2 15be d47d a6bd 96fe c9bd 6eec 13bc
000003e0: 9214 98be 4547 0cbe c71e fbbd bf1c 28be
000003f0: 3e52 39be 9fc8 3ebe 17f0 59be 6094 3abc

GRU.weight_hh_l0 f4 [384, 128]
0.061127204 -0.003947579 0.06660841 -0.071128994 -0.09042739 -0.06616834 -0.016763365 -0.065581605
0.09622731 -0.010225185 0.13560759 -0.16810076 -0.1973988 -0.159367 -0.0033089756 -0.008707321
0.07016384 -0.08485524 -0.033979516 -0.093342364 -0.12942341 0.008507998 0.106769636 0.20486926
-0.06659193 0.108474575 0.14352575 -0.018426424 -0.07009204 -0.078268684 0.012838741 -0.035957254
0.09924618 0.011459591 0.13883516 0.12500605 0.15663469 -0.07316951 -0.07293705 0.13694943
-0.03694039 0.07996123 -0.033116966 0.07613921 0.012001846 -0.035116 -0.2536016 -0.029357633
0.09806374 0.07290855 -0.11330385 0.14416645 0.12990245 -0.047491033 -0.10772537 -0.059276063
-0.15668496 -0.004189854 0.10238678 -0.06211235 0.041022506 0.01939327 0.15194575 -0.013444317
-0.09362309 0.18050098 0.013055772 0.023813188 0.15711476 0.15921287 0.023305511 0.026173202
-0.16062975 0.094272815 -0.12409278 -0.23291928 -0.15458104 -0.037372146 0.16169715 0.05286642
0.022944938 0.14509569 -0.024048992 -0.06834712 -0.025482958 0.088094726 0.08247042 -0.05419546
-0.16536695 -0.08069311 -0.04604748 0.10664933 -0.14978267 -0.07434172 -0.005699285 -0.16124025
-0.15552655 -0.09054528 0.065641865 -0.027463932 -0.038674917 0.17629483 0.099153884 0.09238774
-0.05644903 -0.09332981 0.051439732 -0.12495204 0.049127232 0.06801031 -0.025539305 0.007451713
-0.15003112 -0.10317842 0.03593576 0.05887342 0.20171086 0.016954862 -0.15281436 0.025554132
0.14637116 -0.14447537 -0.07638577 -0.13669212 -0.10251775 0.14530872 0.18562919 -0.08431156
-0.046577636 0.25842577 -0.06216245 -0.05172 -0.09146884 0.00547562 -0.14901513 -0.026631188
0.040281348 -0.11782263 0.055182163 -0.03711608 -0.064863786 0.04220407 -0.17326333 0.0030980373
-0.10464189 0.04624943 -0.09685279 0.034794345 -0.13718697 -0.035798885 -0.03930637 0.07716821
-0.024616137 0.06850374 0.12124979 -0.04499385 0.004272911 -0.03493573 0.017947057 -0.20449774
-0.04907026 -0.05992632 0.09438635 0.09511541 0.108325794 -0.007900823 -0.005932861 -0.0013284143
-0.025739454 0.03712438 0.049885288 0.066929765 -0.017258896 -0.06470184 0.031162545 0.1029178
0.10942174 -0.0485055 -0.07280855 0.05589404 0.05269926 0.03894129 0.019234953 -0.066482484
-0.07507812 0.031799685 0.026465854 -0.116741456 -0.04303423 0.009000829 0.016091866 0.031812657
0.032368824 0.14956304 -0.030970516 -0.008403188 0.16034019 0.029441029 -0.0008763056 -0.042873435
-0.04146418 0.13239896 -0.16087201 -0.03967835 0.029347608 -0.06667306 0.040555153 -0.0013068712
0.05340596 -0.060379867 -0.024198359 -0.008310783 0.05004461 0.10577427 0.14461246 -0.01628401
-0.08216311 -0.02377661 0.06997942 0.06073876 -0.039801434 0.08875857 0.005890518 -0.081034474
-0.096355386 -0.0035323133 0.05033803 0.064494036 -0.080860205 -0.029709052 0.05051348 -0.0014042557
0.11237563 0.067642994 0.014700372 -0.06145039 0.00058369513 0.016707944 0.009511013 -0.09017464
-0.09065875 0.02901038 -0.017203555 -0.05444188 0.067723215 0.050036766 -0.10541852 0.07985114
0.010615229 0.04296715 0.0033093344 -0.10096876 0.031034337 0.043006554 -0.021282744 -0.15114962
00000000: 8560 7a3d b15a 81bb fd69 883d 14ac 91bd
00000010: ff31 b9bd 4483 87bd 5353 89bc a64f 86bd
00000020: d312 c53d 8987 27bc b7dc 0a3e 9b22 2cbe
00000030: e922 4abe 1a31 23be 66db 58bb 27a9 0ebc
00000040: 0fb2 8f3d 96c8 adbd 1b2e 0bbd 482a bfbd
00000050: 9287 04be 2165 0b3c 0aaa da3d 3fc9 513e
00000060: 5a61 88bd eb27 de3d 6af8 123e 03f3 96bc
00000070: 6a8c 8fbd 554b a0bd 9559 523c ea47 13bd
00000080: 9541 cb3d 02c1 3b3c ce2a 0e3e 9601 003e
00000090: d864 203e e5d9 95bd 0560 95bd 793c 0c3e
000000a0: ce4e 17bd b7c2 a33d a8a5 07bd e0ee 9b3d
000000b0: 64a3 443c cbd5 0fbd 12d8 81be 6b7f f0bc
000000c0: a4d5 c83d 1451 953d d90b e8bd 5fa0 133e
000000d0: 2605 053e f585 42bd 1e9f dcbd 75cb 72bd
000000e0: 0672 20be 0b4b 89bb 29b0 d13d 8569 7ebd
000000f0: 3707 283d a3de 9e3c ab97 1b3e 8d45 5cbc
00000100: 76bd bfbd 40d5 383e e0e7 553c e013 c33c
00000110: b1e2 203e b308 233e 33eb be3c 2f69 d63c
00000120: 207c 24be 1b12 c13d 5b24 febd 6482 6ebe
00000130: 7e4a 1ebe 8913 19bd f093 253e 768a 583d
00000140: 06f7 bb3c f793 143e 6402 c5bc 93f9 8bbd
00000150: a3c1 d0bc 026b b43d 40e6 a83d 0ffc 5dbd
00000160: f455 29be 6e42 a5bd 489c 3cbd f76a da3d
00000170: a160 19be 7940 98bd 11c1 babb 2a1c 25be
00000180: 5a42 1fbe ce6f b9bd 3e6f 863d 0afc e0bc
00000190: 9769 1ebd a286 343e 3111 cb3d c935 bd3d
000001a0: 1937 67bd b323 bfbd 78b2 523d dbe6 ffbd
000001b0: a339 493d fd48 8b3d ce37 d1bc 802d f43b
000001c0: c2a1 19be 354f d3bd 6031 133d 4125 713d
000001d0: 4b8d 4e3e ece4 8a3c 5e7b 1cbe e656 d13c
000001e0: 52e2 153e 5af1 13be 2570 9cbd 05f9 0bbe
000001f0: d3f4 d1bd cfcb 143e 9415 3e3e 8aab acbd
00000200: 31c8 3ebd 6250 843e 0e9e 7ebd 5ad8 53bd
00000210: 0454 bbbd d46c b33b 6c97 18be a629 dabc
00000220: 0efe 243d fe4c f1bd b106 623d 0807 18bd
00000230: 4ed7 84bd 2dde 2c3d f16b 31be 7108 4b3b
00000240: 7d4e d6bd 0b70 3d3d c15a c6bd 8484 0e3d
00000250: be7a 0cbe daa1 12bd b7ff 20bd 5e0a 9e3d
00000260: c8a7 c9bc b04b 8c3d cf51 f83d 794b 38bd
00000270: c703 8c3b c518 0fbd b505 933c db67 51be
00000280: e6fd 48bd 4d75 75bd a14d c13d decb c23d
00000290: ead9 dd3d 7472 01bc 7268 c2bb 301e aeba
000002a0: 8cdb d2bc bc0f 183d 8454 4c3d 7912 893d
000002b0: 8762 8dbc 6682 84bd 9848 ff3c 91c6 d23d
000002c0: 8118 e03d b4ad 46bd a61c 95bd 26f1 643d
000002d0: 2edb 573d e780 1f3d 9f92 9d3c f827 88bd
000002e0: 8fc2 99bd 6340 023d ebce d83c 2516 efbd
000002f0: a944 30bd 3778 133c 17d3 833c fd4d 023d
00000300: 2c95 043d 0e27 193e e1b5 fdbc 86ad 09bc
00000310: 3830 243e 502e f13c e0b7 65ba 0e9c 2fbd
00000320: 58d6 29bd 9893 073e a2bb 24be c485 22bd
00000330: 656a f03c e38b 88bd 291d 263d 524b abba
00000340: 35c0 5a3d e150 77bd a33b c6bc f329 08bc
00000350: 94fb 4c3d 2ea0 d83d 4a15 143e 0b66 85bc
00000360: 2245 a8bd 2ac7 c2bc 5f51 8f3d 35c9 783d
00000370: d406 23bd 0ec7 b53d 3f05 c13b 67f5 a5bd
00000380: f955 c5bd 627e 67bb 402f 4e3d 7315 843d
00000390: 099a a5bd 6660 f3bc 39e7 4e3d 010f b8ba
000003a0: 3225 e63d 6988 8a3d d4d9 703c 67b3 7bbd
000003b0: 1e03 193a 19df 883c 14d4 1b3c 7bad b8bd
000003c0: 4bab b9bd 2da7 ed3c 78ee 8cbc 73fe 5ebd
000003d0: 78b2 8a3d 5af3 4c3d aae5 d7bd ff88 a33d
000003e0: 7feb 2d3c 53fe 2f3d 6be1 583b b6c8 cebd
000003f0: b93b fe3c a427 303d 2659 aebc f7c6 1abe

GRU.bias_ih_l0 f4 [384]
-0.18603784 -0.11682391 -0.120397486 -0.22772393 -0.069310814 -0.25376555 -0.031994678 -0.18269318
-0.17817475 -0.1378378 0.009787008 -0.16499624 0.011656898 -0.094760545 -0.11908207 -0.099546574
-0.13864535 -0.059938163 -0.046597943 0.06557831 -0.14283176 -0.12797675 -0.03561552 -0.070898786
0.023807663 -0.08218844 -0.31506622 -0.0010662142 -0.027678302 -0.09198591 -0.23419572 0.012365858
-0.14704892 -0.18659215 -0.05376079 -0.22789186 0.021901606 -0.107353285 -0.23744102 -0.12928653
-0.011058065 0.051282655 -0.10135057 0.022933666 -0.044179287 0.006176399 0.05813323 -0.23462905
-0.3566111 -0.036242776 -0.3734144 -0.019942975 -0.16501549 -0.11803304 -0.16216625 -0.05924019
-0.15458676 -0.12156585 -0.05521895 -0.15110801 -0.14336449 -0.27273366 0.05313519 -0.06196213
-0.11661277 0.052556697 -0.18157028 -0.0072668404 -0.12772542 -0.037228506 -0.21559148 -0.16492462
-0.25030813 -0.1039999 -0.20741482 -0.10911961 -0.15804897 -0.07772831 0.07585754 -0.02694681
-0.021455849 0.0051151714 0.045590837 0.001771538 -0.16186993 -0.1401906 -0.0015929061 -0.14079721
-0.16795884 -0.06342081 -0.33436903 0.0068431287 -0.31002071 -0.19091319 -0.120132044 -0.035252985
-0.1810994 -0.1485842 -0.022606257 -0.09029467 -0.1400053 -0.37988615 0.04820408 -0.21889286
-0.1760485 -0.14711253 0.041395567 -0.15820135 0.02705256 -0.18131661 -0.0076595363 -0.18433994
-0.3118502 -0.13097359 -0.1362229 -0.09421974 -0.027450716 -0.050157167 -0.22733285 -0.013148356
-0.0030300885 -0.1330748 -0.050199166 0.060883846 -0.06602566 -0.10671809 -0.044795737 -0.10202742
-0.47190762 -0.45826718 -0.80242616 -1.0128073 -0.39849222 -0.72720844 -0.0323641 -0.7225085
-0.8101735 -0.84543765 -0.6336486 -1.139685 -0.7452742 -1.0383595 -0.3724244 -1.112444
-0.7159999 -0.89632326 -0.9622882 -0.9186058 -0.98902434 -0.12918785 0.3466081 0.22185814
-0.6871949 -0.7546658 -0.0916943 -0.3220165 -0.77932507 -0.46604007 -0.397106 -0.3266162
-0.29061255 -0.9113416 -0.6450203 -0.7715429 -0.80367845 -0.3379698 -0.18307136 -1.024
0.4317919 -0.87336874 -0.89346427 -0.9552671 -0.9788313 -1.0133318 0.46639642 -0.8638836
-0.23564588 0.37069824 -0.658192 -0.7700046 -0.8445763 -0.7474225 -0.8281554 -1.1135464
-0.73621786 -1.0638984 -1.0407344 -0.8255652 -1.1023197 -0.8653428 -0.64823115 -1.072284
-0.90532154 0.289512 -0.75180995 -0.95715153 -0.34593812 -0.8903595 -0.1666057 -0.7893542
-0.73156077 -0.8911382 -0.49836493 -0.77332604 -0.58489466 -0.7728428 0.14766455 -0.8320456
0.25528753 -1.0498365 -0.5634979 -0.6420799 -0.24376008 -0.85110563 0.36185753 -0.9447914
-0.70268244 -0.66041887 -0.61807233 -0.9048667 -0.889596 -0.88164276 -0.71380097 -0.6886759
-0.411965 -0.8791 -0.47106016 -0.56954426 -0.5477496 -0.5402889 -0.9352066 -0.35246915
-0.6369575 -0.8454165 0.37432408 -0.041375626 -0.54371005 -0.90544695 -0.91690314 -0.9718741
-0.71259975 -0.77668524 -0.5675521 -1.0745046 -0.46398473 -0.78580296 -0.93317187 -0.6482813
-0.6681767 -0.9615426 -0.8508343 -0.54493487 -0.7082505 -0.344965 0.364474 -0.93636453
00000000: b480 3ebe 6041 efbd f592 f6bd 7630 69be
00000010: d4f2 8dbd 8fed 81be da0c 03bd ec13 3bbe
00000020: 7173 36be 5a25 0dbe b059 203c c6f4 28be
00000030: 93fc 3e3c d111 c2bd 4de1 f3bd 13df cbbd
00000040: 0cf9 0dbe b881 75bd 7cdd 3ebd ec4d 863d
00000050: 7d42 12be 560c 03be 94e1 11bd 6233 91bd
00000060: 4a08 c33c 6a52 a8bd 5c50 a1be 36c0 8bba
00000070: 9bbd e2bc 1c63 bcbd 01d1 6fbe 2b9a 4a3c
00000080: fe93 16be 0312 3fbe 4634 5cbd 7c5c 69be
00000090: ff6a b33c 0adc dbbd bd23 73be b063 04be
000000a0: e32c 35bc c30d 523d e390 cfbd 62df bb3c
000000b0: 57f5 34bd 6463 ca3b 1c1d 6e3d 9942 70be
000000c0: bb95 b6be 4e73 14bd 2c30 bfbe 735f a3bc
000000d0: d2f9 28be 4ebb f1bd e90e 26be d7a5 72bd
000000e0: fe4b 1ebe 84f7 f8bd 442d 62bd 0fbc 1abe
000000f0: 24ce 12be bfa3 8bbe 49a4 593d 01cc 7dbd
00000100: add2 eebd b145 573d 8fed 39be ad1e eebb
00000110: 74ca 02be eb7c 18bd 03c4 5cbe 00e2 28be
00000120: 6328 80be e6fd d4bd 8d64 54be 1a7a dfbd
00000130: 97d7 21be 0530 9fbd 335b 9b3d 8ebf dcbc
00000140: 2dc4 afbc 2b9d a73b 75bd 3a3d f432 e83a
00000150: 3bc1 25be 208e 0fbe 0fc9 d0ba 252d 10be
00000160: 67fd 2bbe c5e2 81bd 6b32 abbe 533c e03b
00000170: 09bb 9ebe bf7e 43be ca07 f6bd 6f65 10bd
00000180: 1f72 39be 7526 18be c230 b9bc 69ec b8bd
00000190: 8d5d 0fbe 7080 c2be a471 453d 7325 60be
000001a0: 0f46 34be aba4 16be 668e 293d 89ff 21be
000001b0: 559d dd3c 10ab 39be d9fc fabb 9cc3 3cbe
000001c0: d4aa 9fbe f11d 06be 047e 0bbe 47f6 c0bd
000001d0: 53e0 e0bc 9a71 4dbd f1c9 68be 346c 57bc
000001e0: 7394 46bb c344 08be a49d 4dbd 5761 793d
000001f0: 7638 87bd 048f dabd bc7b 37bd c1f3 d0bd
00000200: e09d f1be ffa1 eabe cd6b 4dbf aba3 81bf
00000210: 2c07 ccbe 552a 3abf 3890 04bd 51f6 38bf
00000220: 8867 4fbf 9a6e 58bf cb36 22bf 33e1 91bf
00000230: 4aca 3ebf f7e8 84bf 69ae bebe 9164 8ebf
00000240: c54b 37bf 7175 65bf 8558 76bf c029 6bbf
00000250: b330 7dbf d249 04be 9e76 b13e c82e 633e
00000260: 01ec 2fbf c731 41bf 39ca bbbd 59df a4be
00000270: d981 47bf ce9c eebe 7a51 cbbe 3d3a a7be
00000280: 2bcb 94be af4d 69bf 0d20 25bf d683 45bf
00000290: dfbd 4dbf 610a adbe 0f77 3bbe 6f12 83bf
000002a0: d413 dd3e 1895 5fbf 13ba 64bf 628c 74bf
000002b0: b094 7abf dbb4 81bf 83cb ee3e 7a27 5dbf
000002c0: 274d 71be 29cc bd3e 457f 28bf 051f 45bf
000002d0: 2736 58bf 1557 3fbf fe01 54bf b088 8ebf
000002e0: c678 3cbf d32d 88bf c936 85bf 3e58 53bf
000002f0: d018 8dbf 1b87 5dbf 7af2 25bf 9a40 89bf
00000300: 27c3 67bf eb3a 943e 9e76 40bf e207 75bf
00000310: cd1e b1be 9aee 63bf af9a 2abe 1e13 4abf
00000320: 9147 3bbf a221 64bf b029 ffbe b2f8 45bf
00000330: a8bb 15bf 07d9 45bf 6035 173e f100 55bf
00000340: 0cb5 823e 0b61 86bf 6641 10bf 595f 24bf
00000350: 3e9c 79be 0fe2 59bf 6445 b93e d9dd 71bf
00000360: ffe2 33bf 3611 29bf fd39 1ebf 58a5 67bf
00000370: 90bc 63bf 57b3 61bf a9bb 36bf 104d 30bf
00000380: 14ed d2be b30c 61bf cc2e f1be a7cd 11bf
00000390: 5139 0cbf 6050 0abf b369 6fbf d676 b4be
000003a0: a60f 23bf 376d 58bf 68a7 bf3e 7d79 29bd
000003b0: 9530 0bbf 5fcb 67bf 2aba 6abf becc 78bf
000003c0: f06c 36bf d8d4 46bf 184b 11bf 5e89 89bf
000003d0: 688f edbe 622a 49bf 5ae4 6ebf c3f5 25bf
000003e0: a10d 2bbf a827 76bf 47d0 59bf da80 0bbf
000003f0: e84f 35bf 419f b0be 569c ba3e 96b5 6fbf

GRU.bias_hh_l0 f4 [384]
-0.31593907 -0.024403756 -0.025852647 -0.15318742 -0.03838899 -0.20727491 -0.008879031 -0.14343326
-0.20147617 -0.076116525 -0.03693212 -0.17991658 0.093926765 -0.07156124 -0.20372964 0.03420041
-0.25406522 -0.13446341 -0.13897619 -0.09873333 -0.04562112 -0.17118172 -0.010907704 -0.055514947
-0.12900133 -0.1388068 -0.17927463 0.012384286 -0.10335507 -0.09489719 -0.12354691 0.029600428
-0.12314858 -0.1602364 -0.007821163 -0.19319302 -0.058436263 -0.059726562 -0.22642124 -0.1184948
0.031075722 -0.06523672 -0.03251675 -0.12027514 -0.07211826 0.047586013 0.062016442 -0.15956342
-0.38951045 -0.06932309 -0.23255014 0.024386136 -0.12588245 -0.09725335 -0.2624699 -0.19353616
-0.19853267 -0.12988229 -0.037614834 -0.12922189 -0.18750867 -0.22511578 -0.028036237 0.0073991534
-0.1522818 0.024097757 -0.10284269 -0.043361995 -0.16882862 -0.086141795 -0.24084552 -0.13406374
-0.18776925 -0.05476665 -0.1565084 -0.041870363 -0.1475773 -0.052413568 0.071161464 -0.12867029
-0.06068543 -0.092658006 -0.062302727 0.04543118 -0.25708142 -0.28581348 -0.042306233 -0.16523
-0.080870174 -0.021865468 -0.241738 0.010690649 -0.23271078 -0.107739255 -0.17187002 -0.0093300445
-0.17278439 -0.15729716 0.0046487106 -0.035772666 -0.29553685 -0.309928 0.005575049 -0.12138159
-0.0069197128 -0.16413741 0.11406392 -0.22924563 0.072333716 -0.17921135 -0.13551514 -0.10619933
-0.31013626 -0.15104912 0.002434826 -0.18739851 -0.16188672 -0.12684233 -0.13635112 -0.15361309
-0.023841131 -0.041819923 -0.15347776 -0.010638754 -0.19104886 -0.06374289 -0.04554586 -0.21017323
-0.515733 -0.514047 -0.92290694 -1.0157802 -0.4243336 -0.7203022 -0.033604708 -0.7863264
-0.8707241 -0.8237032 -0.63099384 -1.0792495 -0.7531932 -0.9841922 -0.4000904 -1.1256715
-0.65427876 -0.9836263 -1.04109 -0.9492233 -0.99368274 -0.21720153 0.30780473 0.065744855
-0.68234795 -0.82365936 -0.07169128 -0.32129526 -0.7102332 -0.5955578 -0.42714238 -0.40170264
-0.3337899 -0.8100324 -0.7696262 -0.7821676 -0.8106085 -0.24152762 -0.18582141 -1.0623931
0.32987797 -0.8324404 -0.923118 -0.81954604 -0.9158186 -0.97829384 0.42827842 -0.8557908
-0.235416 0.24637918 -0.63978666 -0.8085396 -0.9683974 -0.7428033 -0.76936865 -1.0482099
-0.7686855 -0.99959177 -1.1095401 -0.8380723 -1.0655732 -0.9038007 -0.64658105 -1.0132927
-0.8896931 0.27450073 -0.71072763 -0.8966024 -0.28616828 -0.87717205 -0.16785435 -0.938826
-0.7530642 -1.0462744 -0.5019399 -0.74209374 -0.62668514 -0.7022607 0.07314231 -0.88014454
0.28907108 -1.0254271 -0.56253994 -0.69225675 -0.19912955 -0.7858631 0.4583416 -0.8833848
-0.68257165 -0.5529361 -0.6834898 -0.9284599 -0.8866953 -0.9219272 -0.7981209 -0.69997233
-0.4441023 -1.011969 -0.40378198 -0.5718214 -0.5859302 -0.5661534 -0.88474107 -0.3504678
-0.6143973 -0.8681956 0.39676568 -0.13221167 -0.48952138 -0.8873735 -0.9342057 -0.96923715
-0.72618324 -0.8636455 -0.5518923 -0.99945194 -0.38283822 -0.8395334 -0.9526219 -0.5780431
-0.6726019 -0.994442 -0.8612796 -0.56223714 -0.7760427 -0.484353 0.3536305 -0.78781426
00000000: c4c2 a1be 63ea c7bc eec8 d3bc 2add 1cbe
00000010: c63d 1dbd e03f 54be 5b79 11bc 2be0 12be
00000020: c54f 4ebe fbe2 9bbd 2246 17bd 0d3c 38be
00000030: ad5c c03d b38e 92bd 819e 50be bb15 0c3d
00000040: d614 82be c7b0 09be c64f 0ebe b334 cabd
00000050: 36dd 3abd 434a 2fbe 3ab6 32bc a463 63bd
00000060: ed18 04be 5f23 0ebe c593 37be 76e7 4a3c
00000070: d3ab d3bd 7559 c2bd 2a06 fdbd 997c f23c
00000080: 5335 fcbd 0315 24be 5624 00bc 64d4 45be
00000090: dd5a 6fbd d7a3 74bd f8da 67be 67ad f2bd
000000a0: 8392 fe3c d49a 85bd 4930 05bd d052 f6bd
000000b0: bdb2 93bd 8de9 423d f404 7e3d 9864 23be
000000c0: ea6d c7be 44f9 8dbd a021 6ebe 6fc5 c73c
000000d0: 54e7 00be c42c c7bd 7462 86be 582e 46be
000000e0: 264c 4bbe ddff 04be 0312 1abd be52 04be
000000f0: 4602 40be c084 66be 40ac e5bc 9974 f23b
00000100: c3ef 1bbe a968 c53c 309f d2bd 599c 31bd
00000110: 69e1 2cbe 1c6b b0bd 35a0 76be 0148 09be
00000120: 9546 40be ff52 60bd bd43 20be 4280 2bbd
00000130: 811e 17be 9caf 56bd 1abd 913d 25c2 03be
00000140: 4991 78bd 7bc3 bdbd 2531 7fbd 0c16 3a3d
00000150: 2da0 83be 2556 92be 4d49 2dbd 0e32 29be
00000160: 439f a5bd 361f b3bc 2b8a 77be d527 2f3c
00000170: bc4b 6ebe 66a6 dcbd b2fe 2fbe 0bdd 18bc
00000180: 64ee 30be 8212 21be 3654 983b 5c86 12bd
00000190: 9b50 97be e2ae 9ebe e7ae b63b e996 f8bd
000001a0: c2be e2bb a313 28be 589a e93d 5ebf 6abe
000001b0: b323 943d 2e83 37be 7bc4 0abe 097f d9bd
000001c0: 2eca 9ebe 9fac 1abe 9a91 1f3b 65e5 3fbe
000001d0: a2c5 25be f5e2 01be a19f 0bbe c04c 1dbe
000001e0: 7a4e c3bc 5e4b 2bbd 4629 1dbe 2b4e 2ebc
000001f0: 50a2 43be a28b 82bd 4c8e 3abd a737 57be
00000200: 1407 04bf 9698 03bf a143 6cbf 1605 82bf
00000210: 4142 d9be ba65 38bf 17a5 09bd b04c 49bf
00000220: c6e7 5ebf 37de 52bf d088 21bf d924 8abf
00000230: 45d1 40bf 05f4 7bbf a6d8 ccbe 0116 90bf
00000240: d07e 27bf efce 7bbf 7042 85bf 4c00 73bf
00000250: fe61 7ebf 146a 5ebe 9598 9d3e 3da5 863d
00000260: 5bae 2ebf 57db 52bf e1d2 92bd d080 a4be
00000270: d8d1 35bf 7a76 18bf 68b2 dabe f8ab cdbe
00000280: 83e6 aabe 495e 4fbf 3906 45bf 233c 48bf
00000290: 0a84 4fbf 0453 77be f847 3ebe 7ffc 87bf
000002a0: c4e5 a83e d01a 55bf 7651 6cbf c5cd 51bf
000002b0: 1673 6abf 7771 7abf 4f47 db3e 1b15 5bbf
000002c0: e410 71be d34a 7c3e 0fc9 23bf 74fc 4ebf
000002d0: e4e8 77bf 5b28 3ebf 58f5 44bf be2b 86bf
000002e0: 93c8 44bf 3fe5 7fbf 6905 8ebf e88b 56bf
000002f0: b464 88bf 7c5f 67bf 5686 25bf 93b3 81bf
00000300: edc2 63bf 5c8b 8c3e 3ff2 35bf bc87 65bf
00000310: a684 92be 598e 60bf 03e2 2bbe e756 70bf
00000320: d1c8 40bf 52ec 85bf 227f 00bf dbf9 3dbf
00000330: 706e 20bf 5bc7 33bf a3cb 953d 2751 61bf
00000340: 2001 943e 3241 83bf 9e02 10bf bd37 31bf
00000350: 9ee8 4bbe 532e 49bf c0ab ea3e 8225 62bf
00000360: 04bd 2ebf 388d 0dbf 30f9 2ebf 8caf 6dbf
00000370: 77fe 62bf 6c03 6cbf a751 4cbf 6331 33bf
00000380: 6061 e3be 3388 81bf 83bc cebe e362 12bf
00000390: 86ff 15bf 6eef 10bf 647e 62bf 8470 b3be
000003a0: 2449 1dbf 1142 5ebf df24 cb3e 7f62 07be
000003b0: 8ca2 fabe e92a 63bf 1b28 6fbf ed1f 78bf
000003c0: 25e7 39bf df17 5dbf d048 0dbf 15dc 7fbf
000003d0: 5f03 c4be a9eb 56bf 07df 73bf a2fa 13bf
000003e0: a32f 2cbf c093 7ebf d27c 5cbf c6ee 0fbf
000003f0: bcaa 46bf 1efd f7be 0f0f b53e 32ae 49bf

GRU.weight_ih_l1 f4 [384, 128]
0.14740482 -0.05504299 -0.09551776 0.03591285 -0.0018624911 0.03616001 -0.026636923 -0.11174802
-0.09376448 0.078732006 0.072888725 -0.002521758 -0.08643904 0.014796921 -0.09367275 -0.11585521
0.08751052 0.031673167 -0.03630523 0.0057401555 -0.018923214 0.015441186 0.026150882 0.077863984
0.07296554 -0.05688913 0.09718351 0.03801447 -0.013950644 -0.017044356 0.024169793 0.008146183
-0.17586903 -0.15951733 0.055018127 -0.04582952 -0.054843493 0.013198121 0.111242875 -0.08354027
-0.015792992 0.03793858 -0.03613365 -0.10500465 -0.11736712 -0.05234808 0.016325224 -0.13527672
0.07562096 0.08374102 0.0058778534 -0.052785818 0.020692518 0.06670824 0.013524466 0.06828903
0.06921822 -0.07057011 -0.088083185 -0.06147793 -0.13025743 0.07288069 -0.029456645 -0.15758862
0.069984704 -0.03590993 0.003465847 -0.0242 0.012949188 -0.05175211 0.013525113 0.0777157
-0.0024196405 -0.05113937 0.0031899526 0.0656113 -0.086116485 0.048913065 -0.007304647 0.14917375
-0.032971956 -0.147712 0.09249011 -0.029219508 -0.119598165 -0.073045574 0.07531438 0.12357799
0.07255857 0.08956428 0.030656626 -0.13687457 -0.039923403 0.097275935 -0.010657833 0.014837383
0.049719326 -0.057477236 0.0833649 0.13908906 0.020417616 0.03599032 -0.121025324 0.0760678
-0.10183446 0.022120366 0.04008429 0.108163476 0.10772768 -0.019063646 -0.08068305 -0.1539572
0.054742247 0.09204461 -0.044081915 -0.21774112 0.13094468 -0.079819724 0.13320242 0.04780944
0.059096787 0.041337125 0.17256254 -0.051942635 0.0680739 -0.011427757 0.08323834 0.15151916
-0.04481369 -0.0028421003 0.07653183 0.01888496 0.0031486212 -0.012341219 0.0017101952 -0.012631333
0.0050392235 -0.06373919 0.086746305 -0.0038728274 -0.043933228 -0.09149166 -0.1499871 0.061287336
0.06506273 -0.076793745 -0.10609452 -0.0072734146 -0.02063146 -0.0006902458 0.017535226 0.20616864
0.038175903 0.09820697 0.029357139 -0.011613252 -0.025750894 -0.0454387 0.025204185 -0.06578996
0.03249629 -0.024377687 0.1194737 -0.023634028 -0.04452641 0.015247015 -0.055543974 0.04610693
-0.16864091 -0.034366753 0.052313477 -0.066667564 0.039285995 -0.08085136 -0.166781 0.017056063
0.09149989 0.026827563 -0.07819237 0.14005949 0.096314184 -0.057090238 -0.012050752 0.027509958
0.0032648798 0.035684403 0.09144571 0.04449331 -0.006432659 -0.047758535 0.10891863 -0.017835034
0.06393959 0.12570378 0.06002436 -0.048637334 0.050031528 -0.095695205 0.050255377 0.07136232
0.07684821 0.003238923 -0.105283976 0.03448097 -0.07733561 -0.078397825 0.032995883 -0.019168815
-0.035530362 0.06461924 -0.037270248 -0.007309584 0.08688774 -0.004866385 0.11362165 -0.0020137785
-0.032440513 0.058834244 -0.16946785 0.062917136 0.041079763 -0.010760404 -0.08258393 -0.02032727
-0.08860486 -0.09855706 0.16626717 0.036376502 -0.0691129 0.18978019 -0.043685038 0.12970367
0.011665747 -0.06278112 -0.003780212 0.0064724023 0.064038195 0.0072496803 -0.06091602 -0.10277079
0.012779201 0.0013927312 -0.034806725 0.018179633 0.1211362 -0.01040178 -0.028266713 -0.03942885
0.008887249 0.03031926 -0.033497673 -0.11594731 0.024706358 0.10387277 0.102732465 -0.015860029
00000000: 4af1 163e c274 61bd d19e c3bd 5a19 133d
00000010: d51e f4ba 851c 143d ad35 dabc 25dc e4bd
00000020: 9707 c0bd 3f3e a13d af46 953d 1444 25bb
00000030: f406 b1bd c96e 723c 80d7 bfbd 7f45 edbd
00000040: b738 b33d b9bb 013d cbb4 14bd ea17 bc3b
00000050: db04 9bbc 07fd 7c3c 603a d63c 2777 9f3d
00000060: f56e 953d 9404 69bd 2608 c73d 10b5 1b3d
00000070: 3e91 64bc 9ba0 8bbc bbff c53c 9177 053c
00000080: 0317 34be 8358 23be b05a 613d bcb7 3bbd
00000090: 92a3 60bd ef3c 583c 4ed3 e33d 2917 abbd
000000a0: 4e60 81bc 7c65 1b3d e100 14bd ae0c d7bd
000000b0: 2c5e f0bd f16a 56bd 7abc 853c fb85 0abe
000000c0: 29df 9a3d 6980 ab3d 029b c03b f135 58bd
000000d0: 5b83 a93c 549e 883d b995 5d3c 1edb 8b3d
000000e0: 48c2 8d3d 1087 90bd f564 b4bd 48d0 7bbd
000000f0: 3462 05be 7942 953d 104f f1bc e95e 21be
00000100: 2454 8f3d 4a16 13bd 4423 633b 143f c6bc
00000110: d528 543c 05fa 53bd 7098 5d3c 6929 9f3d
00000120: d592 1ebb 8477 51bd 860e 513b 385f 863d
00000130: d75d b0bd 1159 483d d25b efbb 01c1 183e
00000140: 9a0d 07bd d141 17be 746b bd3d c05d efbc
00000150: e2ef f4bd eb98 95bd 6d3e 9a3d 7516 fd3d
00000160: 9699 943d 7a6d b73d 9b23 fb3c d928 0cbe
00000170: b986 23bd 9b38 c73d 319e 2ebc 7f18 733c
00000180: 7ea6 4b3d 406d 6bbd 37bb aa3d 5d6d 0e3e
00000190: d842 a73c 966a 133d 20dc f7bd 6fc9 9b3d
000001a0: 968e d0bd c535 b53c 6d2f 243d d084 dd3d
000001b0: 54a0 dc3d 5d2b 9cbc 283d a5bd f5a6 1dbe
000001c0: 6839 603d e281 bc3d 3d8f 34bd 87f7 5ebe
000001d0: 5d16 063e 8678 a3bd 3766 083e d5d3 433d
000001e0: 790f 723d 1e51 293d 3cb4 303e cdc1 54bd
000001f0: 546a 8b3d 7d3b 3bbc dd78 aa3d d727 1b3e
00000200: 8f8e 37bd 8842 3abb b8bc 9c3d a2b4 9a3c
00000210: 1959 4e3b d332 4abc a128 e03a a7f3 4ebc
00000220: 1220 a53b b189 82bd 0ca8 b13d 43cf 7dbb
00000230: 54f3 33bd fb5f bbbd 3896 19be 6e08 7b3d
00000240: 9c3f 853d 0a46 9dbd 1548 d9bd d355 eebb
00000250: 4f03 a9bc 9df1 34ba 09a6 8f3c df1d 533e
00000260: 565e 1c3d bc20 c93d 627e f03c 8245 3ebc
00000270: 8af3 d2bc ee1d 3abd 0279 ce3c e3bc 86bd
00000280: d41a 053d b7b3 c7bc a1ae f43d 269c c1bc
00000290: 5361 36bd 9ece 793c 1482 63bd 9fda 3c3d
000002a0: 34b0 2cbe 27c4 0cbd a846 563d 0189 88bd
000002b0: 5aea 203d 6695 a5bd a3c8 2abe 28b9 8b3c
000002c0: 4b64 bb3d 7ac5 db3c 5223 a0bd c16b 0f3e
000002d0: 5f40 c53d 74d7 69bd 8470 45bc 905c e13c
000002e0: 98f7 553b cf29 123d e347 bb3d 9e3e 363d
000002f0: 0ec9 d2bb 749e 43bd bb10 df3d c71a 92bc
00000300: c2f2 823d 7eb8 003e 1adc 753d f137 47bd
00000310: dced 4c3d d9fb c3bd 95d8 4d3d 6826 923d
00000320: 9862 9d3d 1c44 543b 209f d7bd eb3b 0d3d
00000330: 2262 9ebd 0a8f a0bd b126 073d eb07 9dbc
00000340: 4988 11bd 1857 843d b0a8 18bd 3c85 efbb
00000350: 33f2 b13d 3276 9fbb 78b2 e83d 99f9 03bb
00000360: 58e0 04bd 2dfc 703d fb88 2dbe b3da 803d
00000370: 4143 283d 684c 30bc c321 a9bd 6085 a6bc
00000380: 7776 b5bd 49d8 c9bd f141 2a3e 87ff 143d
00000390: 108b 8dbd bd55 423e 15ef 32bd 0ad1 043e
000003a0: b021 3f3c 6393 80bd 6fbd 77bb 7216 d43b
000003b0: 7526 833d ba8e ed3b 1483 79bd 7e79 d2bd
000003c0: db5f 513c 4e8c b63a 7f91 0ebd 74ed 943c
000003d0: 4216 f83d 3a6c 2abc 988f e7bc 2580 21bd
000003e0: d39b 113c 1960 f83c db34 09bd c975 edbd
000003f0: fd64 ca3c 3fbb d43d 6665 d23d e4ec 81bc

GRU.weight_hh_l1 f4 [384, 128]
0.15890357 0.19512725 0.30053115 -0.1489278 0.21536805 -0.08870281 0.024022326 0.108448215
-0.06481641 0.06670001 -0.010759912 -0.066440225 -0.08966515 -0.18671964 0.11433043 -0.19152656
0.04875492 -0.24469888 -0.1489994 0.041162774 -0.14935738 -0.057796374 -0.16224669 -0.24759911
0.055614963 0.23820041 -0.12139263 0.080873534 -0.2522499 0.15527827 0.15397146 -0.2964284
0.2461986 -0.14189437 0.08609931 -0.003313832 -0.06694387 -0.09033065 0.02514225 -0.2619374
-0.05186491 0.15159631 0.18903959 -0.094781116 0.03217431 -0.11577206 -0.018569268 -0.06847364
-0.17622933 0.0647581 -0.10451798 0.10541504 -0.034039542 0.19990496 0.06985066 -0.11624809
0.085514605 -0.0021413977 -0.15803565 -0.22163539 -0.09240925 -0.18754184 0.2664227 0.14540175
0.16116829 -0.029823786 0.25654495 -0.16193405 -0.116457105 -0.058549482 0.10550223 0.03224019
-0.2318595 -0.2818646 -0.24033001 -0.23276678 -0.0072012767 0.029452944 0.050016247 -0.009452536
0.07655811 -0.16799614 -0.113103144 -0.05217097 0.03985603 -0.23977372 0.0007738715 -0.0029606356
0.17520662 -0.21028824 0.15188745 -0.2739217 0.19192465 0.07177078 0.1338666 0.1687052
0.014401004 -0.13818488 0.25247732 -0.097454846 -0.23371945 0.27220744 -0.016344741 -0.01942769
0.00308168 -0.13760518 -0.08691528 0.2868779 -0.27022445 -0.021572614 -0.04096314 -0.02696801
0.10627642 0.27369517 0.29962176 0.13567846 0.23347555 -0.2225636 -0.08549163 0.00896883
-0.23381115 -0.0552396 -0.09876914 0.009754974 -0.00014885185 0.1133044 -0.29308033 0.28771025
0.3448274 0.2982781 0.40601987 -0.50186175 0.30569136 0.046066497 -0.015433414 -0.00025809283
0.036822136 0.05646708 -0.23549554 -0.0017304699 0.04466143 -0.1377128 0.08232539 -0.18745537
0.0054261256 -0.49866554 -0.4232718 0.073583886 -0.2238368 -0.0095188245 -0.29710433 -0.3949305
-0.057359096 0.32315832 0.063131854 -0.022212682 -0.13972268 -0.0043731625 0.4482911 -0.48652953
0.4937116 -0.1359583 0.029081276 0.011235676 -0.17655848 0.049269166 0.07582111 -0.41437775
0.022864966 0.16583073 0.13318835 0.15729268 -0.14373013 -0.13723032 0.046692584 0.013485607
-0.48197073 0.015962295 0.09326088 0.093366854 0.037459984 0.45444697 0.087181136 -0.1018281
0.09278438 0.027277522 -0.4538359 -0.20011407 0.05034067 -0.4804373 0.39473724 0.09014282
0.06732535 0.04463444 0.47276908 -0.30734807 0.011938628 -0.05686368 0.22557624 0.14096092
-0.2663193 -0.42422026 -0.35233545 -0.17760259 -0.009566082 0.14051205 -0.13046296 -0.07206267
0.18444061 -0.30746952 -0.07565455 -0.0024965876 0.08066561 -0.42802218 0.13828467 0.025326839
0.4847396 -0.44856477 -0.04407105 -0.30617997 0.17400013 0.074481085 0.114553586 0.24468572
0.008407537 -0.5044413 0.4964907 -0.13407873 -0.33073643 0.35862756 0.031519514 0.086715184
0.056018375 -0.33463034 -0.049049195 0.42992067 -0.3286452 0.065435186 -0.14679033 -0.051900346
0.16969293 0.38769507 0.5386383 0.3765493 0.3628548 -0.3044114 -0.16873133 0.13514772
-0.40147692 0.07170456 0.06701124 0.10374439 0.013992556 0.071230456 -0.42199633 0.41416517
00000000: 9eb7 223e 70cf 473e 38df 993e 8780 18be
00000010: 7189 5c3e d2a9 b5bd 78ca c43c 191a de3d
00000020: 77be 84bd 049a 883d 584a 30bc d011 88bd
00000030: 5da2 b7bd 6f33 3fbe 1326 ea3d 8a1f 44be
00000040: 3db3 473d 5892 7abe 4c93 18be 4c9a 283d
00000050: 24f1 18be e4bb 6cbd ff23 26be 9f8a 7dbe
00000060: 84cc 633d cfea 733e b39c f8bd 06a1 a53d
00000070: e626 81be 4401 1f3e b2aa 1d3e 77c5 97be
00000080: 7c1b 7c3e c24c 11be d654 b03d e02c 59bb
00000090: de19 89bd 47ff b8bd 1ff7 cd3c a91c 86be
000000a0: 4d70 54bd 103c 1b3e 9893 413e 9a1c c2bd
000000b0: 36c9 033d e719 edbd 941e 98bc e83b 8cbd
000000c0: 7675 34be e59f 843d 860d d6bd d7e3 d73d
000000d0: 0c6d 0bbd e3b3 4c3e dd0d 8f3d 7b13 eebd
000000e0: 4822 af3d b156 0cbb 19d4 21be 63f4 62be
000000f0: 1041 bdbd f80a 40be 8e68 883e 32e4 143e
00000100: 4d09 253e 0351 f4bc dc59 833e 0ad2 25be
00000110: 1081 eebd 95d1 6fbd 8e11 d83d 4a0e 043d
00000120: 946c 6dbe 8f50 90be 1219 76be 6a5a 6ebe
00000130: b0f8 ebbb 4d47 f13c d6dd 4c3d cfde 1abc
00000140: 80ca 9c3d 2e07 2cbe 9fa2 e7bd 3ab1 55bd
00000150: 1440 233d 3e87 75be a3dd 4a3a 3907 42bb
00000160: 5d69 333e cd55 57be 6288 1b3e 773f 8cbe
00000170: e587 443e 8ffc 923d 5314 093e 0ec1 2c3e
00000180: 30f2 6b3c 5680 0dbe b544 813e 6896 c7bd
00000190: 2754 6fbe c65e 8b3e 68e5 85bc d226 9fbc
000001a0: 03f6 493b 5fe8 0cbe a300 b2bd a9e1 923e
000001b0: dc5a 8abe 0db9 b0bc f7c8 27bd 04ec dcbc
000001c0: 74a7 d93d c621 8c3e 0668 993e 4bef 0a3e
000001d0: 3714 6f3e b6e7 63be 3c16 afbd 00f2 123c
000001e0: 316c 6fbe eb42 62bd 7a47 cabd 54d3 1f3c
000001f0: 1d15 1cb9 230c e83d a00e 96be c24e 933e
00000200: 388d b03e e8b7 983e d6e1 cf3e 037a 00bf
00000210: 9483 9c3e 39b0 3c3d 6edc 7cbc a250 87b9
00000220: cfd2 163d 064a 673d be25 71be efd0 e2ba
00000230: e7ee 363d 9604 0dbe 379a a83d 4df4 3fbe
00000240: a4cd b13b 1751 ffbe 15b7 d8be 26b3 963d
00000250: 7935 65be d8f4 1bbc 0f1e 98be 5534 cabe
00000260: 5ff1 6abd 0275 a53e 464b 813d 5ff7 b5bc
00000270: 7613 0fbe bf4c 8fbb 6986 e53e 661a f9be
00000280: c4c7 fc3e a738 0bbe db3b ee3c d715 383c
00000290: bfcb 34be 77ce 493d 1948 9b3d 5229 d4be
000002a0: 4f4f bb3c 88cf 293e 8762 083e 5511 213e
000002b0: fe2d 13be 1b86 0cbe b940 3f3d bcf2 5c3c
000002c0: dec4 f6be 5cc3 823c 8fff be3d 1f37 bf3d
000002d0: a46f 193d 46ad e83e 068c b23d 408b d0bd
000002e0: bd05 be3d 1c75 df3c 2e5d e8be b4ea 4cbe
000002f0: 0532 4e3d e1fb f5be 001b ca3e cc9c b83d
00000300: e0e1 893d 9ad2 363d ca0e f23e ba5c 9dbe
00000310: 3c9a 433c e4e9 68bd 75fd 663e 0f58 103e
00000320: 015b 88be 6633 d9be 5065 b4be 74dd 35be
00000330: 0ebb 1cbc 64e2 0f3e 1598 05be 9895 93bd
00000340: 00de 3c3e a56c 9dbe c6f0 9abd ca9d 23bb
00000350: 0334 a53d b925 dbbe 7f9a 0d3e 3b7a cf3c
00000360: ca2f f83e 48aa e5be d883 34bd 9fc3 9cbe
00000370: 172d 323e 8a89 983d 129b ea3d e58e 7a3e
00000380: c4bf 093c 1123 01bf 0734 fe3e ef4b 09be
00000390: 4956 a9be 089e b73e 9b1a 013d bb97 b13d
000003a0: 8673 653d ab54 abbe cfe7 48bd 901e dc3e
000003b0: 2f44 a8be e202 863d 3450 16be 7595 54bd
000003c0: fcc3 2d3e f87f c63e 33e4 093f 12cb c03e
000003d0: 1bc8 b93e d0db 9bbe e8c7 2cbe 2a64 0a3e
000003e0: 628e cdbe d7d9 923d 303d 893d f077 d43d
000003f0: 0941 653c 46e1 913d e70f d8be 750d d43e

GRU.bias_ih_l1 f4 [384]
-0.27131504 -0.22653894 -0.050881926 -0.2632268 -0.15798444 -0.13695325 -0.0836237 -0.012949087
-0.3211465 -0.3411102 0.02603409 -0.14652005 0.007733203 -0.08602613 -0.100570306 -0.06711642
-0.08301769 -0.63169914 -0.5320418 -0.16471176 0.040993918 -0.15022434 -0.09727378 -0.077756435
-0.091571435 0.045541953 -0.17143784 -0.14145415 -0.13658054 -0.18461694 -0.559247 -0.39297813
-0.3355728 -0.10992214 -0.1814441 -0.2061416 0.008277795 -0.14248058 -0.20923416 -0.18155037
0.01347375 -0.1274657 -0.13985525 -0.14362603 -0.026036479 -0.3274914 -0.104717046 -0.16238211
-0.46776187 -0.23022717 -0.19600551 -0.1761425 -0.101553366 -0.5742247 -0.05446029 -0.15535054
-0.10796356 -0.23619172 -0.14091389 -0.045794714 -0.16366294 -0.52578264 -0.0811749 -0.11897539
-0.06720651 -0.1815793 -0.010556752 -0.11468599 -0.10188813 -0.17294705 -0.07412942 0.012706409
-0.1182374 -0.054783456 -0.37955886 -0.07707497 -0.11938527 -0.044328824 0.0059193964 -0.11781676
-0.02824827 -0.057262573 -0.2638166 -0.04712588 -0.25172803 -0.29083216 -0.104360566 -0.05880232
-0.27418056 -0.47708762 -0.1358996 -0.058279697 -0.18480666 -0.018690921 -0.23385304 -0.022051612
-0.14412257 -0.07211155 -0.025888266 -0.16621466 -0.12744603 -0.17839323 -0.0368835 -0.1993139
-0.0063447235 -0.40163973 -0.07017222 -0.030496607 -0.2189663 -0.16823591 -0.03413848 -0.16871916
-0.122251585 -0.17450882 -0.19777064 -0.2240634 -0.13620077 -0.13388729 -0.14804438 -0.018531928
-0.19356437 0.017113877 -0.34338227 -0.015031447 0.024737775 -0.11351633 -0.20063938 -0.11412581
0.10318698 0.069472015 0.05436125 -0.043825243 0.13290115 -0.045747027 0.19245999 0.12206977
0.17359273 0.17595185 0.024738029 0.10717185 -0.014963146 0.15853621 0.22350922 -0.07488175
0.04664576 -0.024450978 0.05054324 0.16492824 0.046197474 0.058928482 -0.018871406 0.007094256
0.23392314 0.054041285 0.19174454 0.14602908 0.05558196 0.038564112 0.001995968 0.004573495
-6.931386e-05 0.10437063 0.15684864 0.03203724 -0.008076593 0.123257294 0.018556943 0.14199522
-0.05915795 0.09855252 0.0017935603 0.105978444 -0.025677502 0.12824579 0.041068025 0.039495163
0.029067496 0.06301541 0.17395076 0.27112943 0.124723926 -0.021569837 0.0741836 0.043208092
0.010597692 0.17910331 0.0074127936 0.1448453 0.16440916 0.0037369856 0.16234604 0.068967804
0.057543833 -0.06617935 0.14267975 0.08538497 0.18109523 0.15499976 0.071424276 -0.09250083
0.08216034 0.10469826 0.01615421 0.008793551 0.09931092 0.055024087 0.15588686 0.18076275
0.075869426 0.06693285 -0.06622717 0.106517196 0.22858584 0.023978204 0.1577743 0.072085604
0.010712028 0.0684545 0.16453452 0.041241772 0.17640433 0.20011012 0.044552468 -0.037179515
0.06374987 0.075985596 0.12801275 0.10641265 0.06097739 0.150886 0.11590624 0.17557979
0.08071222 0.080006786 0.026602743 0.09858949 0.06097503 0.15208003 0.19421609 0.14827763
0.07102108 -0.0041559217 0.0031631258 0.037148237 0.07951589 0.20857999 0.14225471 0.07213897
0.026586214 0.0664685 -0.031615462 0.16821183 0.10781549 0.008729953 0.09315343 -0.02022617
00000000: cee9 8abe d3f9 67be 9169 50bd aac5 86be
00000010: acc6 21be 793d 0cbe e742 abbd 6828 54bc
00000020: 506d a4be ffa5 aebe 7245 d53c 5a09 16be
00000030: cf66 fd3b 782e b0bd cef7 cdbd 5574 89bd
00000040: 2e05 aabd 09b7 21bf e433 08bf 33aa 28be
00000050: 3de9 273d 69d4 19be 7a37 c7bd c43e 9fbd
00000060: ce89 bbbd 338a 3a3d 678d 2fbe 5bd9 10be
00000070: c5db 0bbe 390c 3dbe d02a 0fbf 6e34 c9be
00000080: 33d0 abbe dc1e e1bd 7bcc 39be c916 53be
00000090: 979f 073c 6ee6 11be 7b41 56be 57e8 39be
000000a0: 01c1 5c3c 5e86 02be 3736 0fbe b412 13be
000000b0: 744a d5bc f4ac a7be e475 d6bd 7f47 26be
000000c0: 7c7e efbe acc0 6bbe abb5 48be b35e 34be
000000d0: 36fb cfbd 6400 13bf c111 5fbd 3614 1fbe
000000e0: 001c ddbd 3edc 71be bb4b 10be 3d93 3bbd
000000f0: 4297 27be b199 06bf 073f a6bd 5fa9 f3bd
00000100: 91a3 89bd edef 39be 3af6 2cbc 7de0 eabd
00000110: b9aa d0bd 0819 31be 2ad1 97bd 8b2e 503c
00000120: 7326 f2bd 9e64 60bd 8a55 c2be 7bd9 9dbd
00000130: 4480 f4bd 2492 35bd 7ff7 c13b ea49 f1bd
00000140: ea68 e7bc 298c 6abd f812 87be 1107 41bd
00000150: 7fe2 80be f4e7 94be feba d5bd b4da 70bd
00000160: 6561 8cbe d444 f4be 4429 0bbe b1b6 6ebd
00000170: f53d 3dbe b41d 99bc 2c77 6fbe 95a5 b4bc
00000180: de94 13be 38af 93bd a113 d4bc 2d34 2abe
00000190: 3681 02be b7ac 36be 2713 17bd f118 4cbe
000001a0: 66e7 cfbb b9a3 cdbe 74b6 8fbd 05d4 f9bc
000001b0: b438 60be 0946 2cbe cad4 0bbd b7c4 2cbe
000001c0: 0a5f fabd 71b2 32be 6384 4abe e070 65be
000001d0: 3778 0bbe c019 09be f298 17be 45d0 97bc
000001e0: bd35 46be 6732 8c3c cdcf afbe 7546 76bc
000001f0: e0a6 ca3c 407b e8bd 6974 4dbe cbba e9bd
00000200: b253 d33d 5847 8e3d e7a9 5e3d 1982 33bd
00000210: 3d17 083e 3c61 3bbd 3b14 453e b7ff f93d
00000220: 4bc2 313e b92c 343e 68a7 ca3c ea7c db3d
00000230: fc27 75bc 5157 223e 9adf 643e 9a5b 99bd
00000240: a00f 3f3d 6b4d c8bc 6e06 4f3d f3e2 283e
00000250: 9039 3d3d fe5e 713d 3598 9abc ef76 e83b
00000260: 8c89 6f3e 655a 5d3d ae58 443e a688 153e
00000270: e9a9 633d 67f5 1d3d c9ce 023b 42dd 953b
00000280: 985c 91b8 45c0 d53d ee9c 203e 7b39 033d
00000290: b053 04bc 526e fc3d bb04 983c 3267 113e
000002a0: 9b4f 72bd e7d5 c93d e615 eb3a 3a0b d93d
000002b0: a059 d2bc dd52 033e f236 283d aec5 213d
000002c0: f51e ee3c 390e 813d 2620 323e 7ad1 8a3e
000002d0: 426f ff3d 3ab3 b0bc 92ed 973d f8fa 303d
000002e0: f1a1 2d3c dc66 373e 05e7 f23b 5452 143e
000002f0: e05a 283e 37e8 743b 0a3e 263e fe3e 8d3d
00000300: 15b3 6b3d 0a89 87bd a41a 123e 51de ae3d
00000310: 0771 393e 42b8 1e3e e446 923d 1371 bdbd
00000320: ae43 a83d 0b6c d63d d555 843c d312 103c
00000330: 8663 cb3d f060 613d cea0 1f3e df19 393e
00000340: 6e61 9b3d 1714 893d 1ca2 87bd b025 da3d
00000350: 6812 6a3e f06d c43c 968f 213e 9ea1 933d
00000360: 8081 2f3c df31 8c3d bd7b 283e 22ed 283d
00000370: 56a3 343e abe9 4c3e a67c 363d 8c49 18bd
00000380: 4b8f 823d 569e 9b3d c615 033e e0ee d93d
00000390: 6dc3 793d dc81 1a3e 4060 ed3d 30cb 333e
000003a0: 734c a53d 99da a33d ffed d93c 49e9 c93d
000003b0: f4c0 793d deba 1b3e 95e0 463e 17d6 173e
000003c0: 8073 913d 662e 88bb 724c 4f3b c028 183d
000003d0: 3ad9 a23d fe95 553e 38ab 113e 99bd 933d
000003e0: 55cb d93c a320 883d 377f 01bd b93f 2c3e
000003f0: 5ece dc3d 1408 0f3c 3ac7 be3d 5ab1 a5bc

GRU.bias_hh_l1 f4 [384]
-0.215406 -0.2009618 -0.022732386 -0.2736899 -0.16115981 -0.09676503 -0.035803236 -0.027457174
-0.31427994 -0.33539677 -0.057760995 -0.0899506 0.005494862 -0.11758103 -0.07809394 -0.042493567
-0.08609149 -0.69864637 -0.5782485 -0.010102273 -0.030743953 -0.07024505 -0.07842291 -0.10602564
-0.1700311 -0.050636157 -0.10911025 -0.017283514 -0.19991015 -0.24063642 -0.49332085 -0.3526837
-0.34700984 -0.09634287 -0.1669808 -0.13425323 -0.011434137 -0.1657275 -0.09674221 -0.18885009
-0.105575435 -0.12603366 -0.09567916 -0.059344813 -0.15328653 -0.33082458 -0.03888728 -0.21625291
-0.373227 -0.28533247 -0.3411076 -0.16083637 -0.073118895 -0.43467942 -0.061148483 -0.18815531
-0.022124374 -0.09930162 -0.23635453 -0.116499625 -0.17400262 -0.4753282 -0.21480274 -0.10178134
-0.13684101 -0.18420644 -0.14174907 -0.12829429 -0.22520581 -0.12291806 -0.031474244 0.005553697
-0.15192908 -0.06523416 -0.28890094 -0.107843734 -0.1434603 0.040534772 -0.034473304 -0.14848633
-0.1234313 -0.14466602 -0.20064586 -0.06404963 -0.19848691 -0.27792627 -0.08815964 -0.10486209
-0.34090286 -0.5051664 -0.22566682 -0.14744243 -0.114474624 -0.112844236 -0.23405747 -0.12237259
-0.0169619 0.001296442 -0.0368845 -0.098924644 -0.1748957 -0.31652218 0.008145185 -0.23092559
-0.09268952 -0.44930613 -0.0561075 -0.036618453 -0.15422623 -0.017125715 -0.121285856 -0.19029681
-0.12706527 -0.16993327 -0.31121144 -0.1314451 -0.08117267 -0.08669072 -0.09373311 -0.048497096
-0.09678576 -0.095521666 -0.2636841 -0.022840977 0.007677259 -0.14026344 -0.25449198 -0.13449505
-0.016163828 0.0950399 0.109295145 0.06425497 0.014243773 -0.12430186 0.11721593 0.07981161
0.14609192 0.16597143 0.0343372 0.0826434 0.056333017 0.21553043 0.13670447 -0.08324637
-0.002784575 -0.013613513 0.111794725 0.039731618 0.19021334 0.072427884 -0.046269152 0.1386433
0.16189463 0.020890709 0.10655064 0.11039652 0.14427732 0.1563178 -0.018263744 0.08716872
0.09362071 0.16870677 0.15873282 0.12656951 0.004123958 0.16018905 -0.008926047 -0.014873272
0.058430158 0.17232415 0.10138235 0.097677395 0.10443719 0.026922407 0.07730737 0.16611497
0.0013363879 0.05131532 0.09903673 0.17487203 0.013539588 -0.011282217 0.01782892 0.12529425
-0.04353423 0.162722 0.044236407 0.090471186 0.2216893 0.033383776 0.113762744 0.10295991
0.03507201 -0.031995546 0.15747419 0.11825387 0.047222823 0.084822334 0.023295606 0.049739387
0.10503587 -0.012397549 0.13905516 0.021507127 0.039016202 0.054406334 0.1189296 0.16718568
0.10039886 0.08031706 0.058088616 0.16374686 0.28553644 0.029274147 0.009286663 0.15271366
0.07722549 -0.017132394 0.08920016 0.0037044808 0.1037651 0.15417035 0.1532019 0.08084659
-0.005078558 0.006444745 0.015694905 0.084448874 0.06683434 0.11260696 0.018727714 0.16850564
0.025862854 0.026275907 0.016097812 0.08982513 0.006315889 0.023675945 0.15992565 0.1406375
0.20280556 0.043416362 0.019102754 0.0266822 0.1112544 0.14585128 0.04465116 0.04544792
0.008819367 0.15855789 0.03358614 0.09303178 0.06745879 -0.031248335 0.12613541 -0.031271745
00000000: 6493 5cbe eec8 4dbe 4539 babc 1521 8cbe
00000010: 1407 25be be2c c6bd 6aa6 12bd deed e0bc
00000020: 4de9 a0be 20b9 abbe cb96 6cbd 0538 b8bd
00000030: 3e0e b43b 53ce f0bd b7ef 9fbd bc0d 2ebd
00000040: bc50 b0bd 7dda 32bf 1808 14bf 0184 25bc
00000050: beda fbbc a3dc 8fbd 319c a0bd f923 d9bd
00000060: a21c 2ebe dc67 4fbd 3275 dfbd 2896 8dbc
00000070: 3fb5 4cbe 6569 76be 8d94 fcbe f592 b4be
00000080: 46ab b1be 694f c5bd 04fd 2abe ae79 09be
00000090: 3f56 3bbc 78b4 29be c820 c6bd eb61 41be
000000a0: ef37 d8bd f80e 01be 6ff3 c3bd 8c13 73bd
000000b0: 25f7 1cbe d761 a9be 4548 1fbd 6771 5dbe
000000c0: 9c17 bfbe 1917 92be a8a5 aebe 4ab2 24be
000000d0: 5cbf 95bd 4d8e debe d576 7abd c9ab 40be
000000e0: 2d3e b5bc a65e cbbd ec06 72be 5b97 eebd
000000f0: be2d 32be 385e f3be 40f5 5bbe bc72 d0bd
00000100: 0d20 0cbe 9da0 3cbe ab26 11be 945f 03be
00000110: 5a9c 66be 77bc fbbd 23eb 00bd c9fb b53b
00000120: 4c93 1bbe 7d99 85bd d3ea 93be 2ddd dcbd
00000130: 42e7 12be ca07 263d e133 0dbd cd0c 18be
00000140: 8dc9 fcbd 5423 14be 1c76 4dbe 742c 83bd
00000150: 2740 4bbe 5a4c 8ebe 0b8d b4bd efc1 d6bd
00000160: d28a aebe 9652 01bf 3415 67be 26fb 16be
00000170: ac71 eabd e11a e7bd c3ac 6fbe 7b9e fabd
00000180: aff3 8abc 60ed a93a 3414 17bd 0199 cabd
00000190: dc17 33be 320f a2be 6273 053c c277 6cbe
000001a0: 01d4 bdbd 740b e6be fad0 65bd 3bfd 15bd
000001b0: 7bed 1dbe 3a4b 8cbc b864 f8bd 2bdd 42be
000001c0: 661d 02be fd02 2ebe 1b57 9fbe 8b99 06be
000001d0: db3d a6bd e78a b1bd 25f7 bfbd e4a4 46bd
000001e0: 9d37 c6bd dda0 c3bd 9a01 87be 001d bbbc
000001f0: 8491 fb3b 38a1 0fbe c64c 82be 12b9 09be
00000200: 016a 84bc 47a4 c23d 22d6 df3d 1c98 833d
00000210: b75e 693c f991 febd e80e f03d 4574 a33d
00000220: 1f99 153e 6af4 293e 2aa5 0c3d f140 a93d
00000230: 73bd 663d 02b4 5c3e 42fc 0b3e 137d aabd
00000240: 6b7d 36bb 360b 5fbc a2f4 e43d 9fbd 223d
00000250: 49c7 423e 1255 943d b984 3dbd 82f8 0d3e
00000260: b5c7 253e fe22 ab3c 3937 da3d 9217 e23d
00000270: 6fbd 133e c611 203e d99d 95bc 8485 b23d
00000280: 37bc bf3d 78c1 2c3e db8a 223e 709b 013e
00000290: 4422 873b 9908 243e 8e3e 12bc 06af 73bc
000002a0: 7654 6f3d be75 303e 8da1 cf3d 160b c83d
000002b0: 2ae3 d53d 618c dc3c 5453 9e3d 0b1a 2a3e
000002c0: bd29 af3a 0330 523d c5d3 ca3d a711 333e
000002d0: 26d5 5d3c 0cd9 38bc f50d 923c 234d 003e
000002e0: f350 32bd 99a0 263e 3c31 353d f548 b93d
000002f0: 8502 633e 6dbd 083d 71fc e83d a5dc d23d
00000300: aba7 0f3d c30d 03bd ea40 213e 162f f23d
00000310: b86c 413d 55b7 ad3d 6dd6 be3c 87bb 4b3d
00000320: 0c1d d73d 171f 4bbc 7a64 0e3e b72f b03c
00000330: 74cf 1f3d 2dd9 5e3d 5d91 f33d b932 2b3e
00000340: eb9d cd3d 457d a43d 54ee 6d3d 42ad 273e
00000350: d531 923e 56d0 ef3c 1627 183c f860 1c3e
00000360: 6628 9e3d 3c59 8cbc 93ae b63d e0c6 723b
00000370: cc82 d43d d5de 1d3e f5e0 1c3e e692 a53d
00000380: 086a a6bb 712e d33b 9a92 803c 88f3 ac3d
00000390: 71e0 883d 7a9e e63d dd6a 993c be8c 2c3e
000003a0: 56de d33c 9240 d73c 8fdf 833c 3df6 b73d
000003b0: 84f5 ce3b 0ef4 c13c 8dc3 233e 4703 103e
000003c0: 43ac 4f3e 5bd5 313d 617d 9c3c a194 da3c
000003d0: 59d9 e33d 0a5a 153e 22e4 363d 9927 3a3d
000003e0: 1b7f 103c 005d 223e 9f91 093d 7287 be3d
000003f0: d627 8a3d 82fc ffbc a429 013e cd16 00bd
