1675852363.7558699_model.pt (torch, 601555 bytes, 9 tensors)

GRU.weight_ih_l0 f4 [384, 1]
-0.01007971 -0.023761293 -0.19934173 -0.14393188 -0.23948269 -0.07356508 -0.13286835 -0.024145111
-0.09531915 0.023393964 -0.1886379 -0.0964021 -0.104277015 -0.05770911 -0.009735829 0.06038401
-0.050854493 -0.039142698 -0.106132016 -0.105587624 -0.26773256 -0.070736915 -0.23130578 -0.25445765
-0.13192244 -0.07150679 -0.21036671 -0.19640945 -0.2047046 -0.15473375 -0.2264262 -0.1452138
-0.044307422 -0.07273239 -0.11733807 -0.004175197 -0.19638743 0.026509618 -0.13850027 -0.007306449
-0.06986693 -0.021548238 -0.0006333328 -0.1504158 -0.09380288 -0.31922668 -0.24336599 -0.066059366
-0.2036634 -0.14628826 -0.17279716 -0.015391242 -0.31462187 -0.19554955 -0.15950316 -0.15457627
-0.1058691 -0.18953519 -0.2023813 -0.18218085 -0.18476278 -0.12622972 0.030826302 -0.15237176
-0.13312799 -0.050672468 -0.1809585 -0.11408809 -0.022151873 -0.05474596 -0.0674125 -0.12832415
-0.12588203 -0.19628266 -0.0749031 -0.19008835 -0.12986994 -0.13107646 0.06944314 0.010218105
-0.04857016 -0.07838213 -0.06498827 -0.16013737 0.04244145 -0.08785683 -0.18691745 -0.12651478
-0.098668836 -0.11577308 -0.019823762 -0.12724102 -0.13228461 0.0025582819 -0.1850591 -0.1304283
-0.16327697 -0.10082937 -0.12009156 -0.016415656 -0.26705325 -0.19119635 -0.25869876 -0.09433104
-0.26293138 -0.07989202 -0.2515362 -0.14686471 -0.1324385 -0.20199977 -0.14093408 -0.21814147
-0.179064 -0.21063364 -0.24813868 -0.19409414 -0.08472963 -0.08151378 -0.052593183 -0.224963
-0.12085883 -0.0036356533 -0.00673013 0.009862747 -0.20187803 -0.11854302 -0.017224777 -0.14556056
0.3109469 0.2732796 -0.83653 -0.61425865 -0.95224065 -0.48569843 -0.7618878 -0.35257524
-0.6800851 -0.7416942 -0.62080246 -0.5635616 -0.6980277 0.3790507 -0.7877298 -0.68339264
0.28151357 -0.3639246 -0.71756977 -0.4718369 -0.6159789 -0.76957864 -0.66700065 -0.5556065
-0.6856634 -0.78334934 -0.58475995 -0.27542588 -0.6498407 -0.16040291 -0.899428 -0.8094683
-0.787992 -0.71681863 -0.77366906 -0.40923 -0.84348667 0.3407255 -0.37921977 -0.79119587
-0.008063885 -0.7867048 -0.6742642 -0.8808097 -0.74946785 -0.6270076 -0.71469396 -0.7050177
-0.22062257 -0.7183927 -0.6678174 -0.36506486 -0.8270954 -0.6766102 -0.7242717 -0.8069448
-0.7465763 -0.85857224 -0.75047725 -0.8945171 -0.4523403 -0.68636173 -0.11611457 -0.32896137
-0.81295127 0.21724005 -0.3131309 -0.82447416 -0.81159085 -0.8446155 -0.29915273 -0.79854316
-0.5904551 -0.63668907 -0.78055155 -0.7485733 -0.6085577 -0.857237 -0.3635446 0.06769716
-0.6751833 -0.59832644 0.30307114 -0.6935977 0.39006248 -0.682489 -0.6658184 -0.35992318
-0.5664804 -0.8706147 -0.87965465 -0.3986311 -0.611936 0.11409481 -0.75738376 -0.7608301
-0.71868294 -0.15426734 -0.7296817 0.39893198 -0.82149667 -0.734084 -0.7706396 -0.83569765
-0.9269159 -0.49818045 -0.20713879 -0.52283436 -0.831035 -0.20814054 -0.80460846 -0.6677085
-0.6040038 -0.69882613 -0.80700815 -0.2411476 -0.70809275 -0.7617931 -0.58286124 -0.82584274
-0.5607192 -0.7409738 0.42422587 0.23390853 -0.8242658 -0.7714008 -0.85803545 -0.7751171
00000000: 5e25 25bc 0ba7 c2bc 3d20 4cbe e162 13be
00000010: f33a 75be 4aa9 96bd a40e 08be f8cb c5bc
00000020: b036 c3bd b3a4 bf3c 4b2a 41be 776e c5bd
00000030: 308f d5bd 6360 6cbd 0783 1fbc 3955 773d
00000040: cd4c 50bd 1854 20bd be5b d9bd 533e d8bd
00000050: 3e14 89be 84de 90bd 6cdb 6cbe 4648 82be
00000060: ad16 07be 2772 92bd 5f6a 57be 8f1f 49be
00000070: 159e 51be 8672 1ebe 45dc 67be edb2 14be
00000080: b37b 35bd b8f4 94bd f14e f0bd 17d0 88bb
00000090: c919 49be b32a d93c 04d3 0dbe f06a efbb
000000a0: 6516 8fbd ee85 b0bc 3f06 26ba 9906 1abe
000000b0: b91b c0bd ae71 a3be ef34 79be 224a 87bd
000000c0: 238d 50be 97cc 15be bdf1 30be 8c2b 7cbc
000000d0: 1e16 a1be 243e 48be cc54 23be 3e49 1ebe
000000e0: e6d1 d8bd 8315 42be 0b3d 4fbe 9e8d 3abe
000000f0: 7432 3dbe 5d42 01be 7187 fc3c 5807 1cbe
00000100: b452 08be ef8d 4fbd 2f4d 39be 04a7 e9bd
00000110: d877 b5bc 4d3d 60bd 910f 8abd 6867 03be
00000120: 38e7 00be 52fe 48be cc66 99bd 85a6 42be
00000130: a0fc 04be e838 06be 3438 8e3d d769 273c
00000140: 81f1 46bd cf86 a0bd 9218 85bd 0dfb 23be
00000150: 16d7 2d3d 48ee b3bd 4a67 3fbe 178d 01be
00000160: e312 cabd 701a edbd 7165 a2bc 784b 02be
00000170: 9e75 07be d9a8 273b 2280 3dbe ff8e 05be
00000180: 1432 27be a17f cebd 90f2 f5bd 207a 86bc
00000190: 34bb 88be fac8 43be 2a74 84be a230 c1bd
000001a0: f19e 86be 6d9e a3bd 5ac9 80be b463 16be
000001b0: f59d 07be 07d9 4ebe 0651 10be 7a60 5fbe
000001c0: 8e5c 37be 58b0 57be 1118 7ebe 9dc0 46be
000001d0: ba86 adbd b2f0 a6bd f36b 57bd b35c 66be
000001e0: d684 f7bd 2444 6ebb 6c88 dcbb 5c97 213c
000001f0: 1db9 4ebe afc6 f2bd fa1a 8dbc d40d 15be
00000200: 6f34 9f3e 4eeb 8b3e d526 56bf 0e40 1dbf
00000210: 0bc6 73bf 77ad f8be 140b 43bf be84 b4be
00000220: 0f1a 2ebf acdf 3dbf e9ec 1ebf 9345 10bf
00000230: f1b1 32bf ef12 c23e a9a8 49bf d2f2 2ebf
00000240: 8c22 903e 5354 babe a7b2 37bf 9b94 f1be
00000250: cbb0 1dbf 1b03 45bf 8ec0 2abf 3a3c 0ebf
00000260: a387 2fbf 9589 48bf d4b2 15bf 9f04 8dbe
00000270: f65b 26bf a940 24be ea40 66bf 5139 4fbf
00000280: d8b9 49bf 6d81 37bf 2d0f 46bf 9886 d1be
00000290: beee 57bf 9373 ae3e 1829 c2be d08b 4abf
000002a0: 631e 04bc 7c65 49bf 949c 2cbf bf7c 61bf
000002b0: 20dd 3fbf 9283 20bf 2ff6 36bf 0a7c 34bf
000002c0: e2ea 61be 96e8 37bf 15f6 2abf c8e9 babe
000002d0: 86bc 53bf 5336 2dbf df69 39bf ef93 4ebf
000002e0: a01f 3fbf 64cb 5bbf 471f 40bf 13ff 64bf
000002f0: 2699 e7be 67b5 2fbf 7acd edbd a06d a8be
00000300: 931d 50bf 2d74 5e3e b152 a0be bd10 53bf
00000310: 6bc4 4fbf b938 58bf 8c2a 99be 536d 4cbf
00000320: 1128 17bf 0efe 22bf 3ad2 47bf 80a2 3fbf
00000330: 70ca 1bbf e273 5bbf 8522 babe cfa4 8a3d
00000340: d0d8 2cbf ec2b 19bf 242c 9b3e 9e8f 31bf
00000350: 45b6 c73e 99b7 2ebf 1373 2abf da47 b8be
00000360: dc04 11bf 9be0 5ebf 0c31 61bf 6019 ccbe
00000370: d6a7 1cbf 8aaa e93d e7e3 41bf c3c5 42bf
00000380: 9bfb 37bf 42f8 1dbe 6bcc 3abf d040 cc3e
00000390: 9b4d 52bf eeec 3bbf a348 45bf 48f0 55bf
000003a0: 5c4a 6dbf 8211 ffbe 311c 54be 79d8 05bf
000003b0: b6be 54bf cb22 55be d2fa 4dbf f2ee 2abf
000003c0: fe9f 1abf 45e6 32bf 1698 4ebf 65ef 76be
000003d0: 9145 35bf df04 43bf 6536 15bf 6e6a 53bf
000003e0: 4b8b 0fbf 75b0 3dbf 2234 d93e b885 6f3e
000003f0: 1503 53bf 867a 45bf 36a8 5bbf 136e 46bf

GRU.weight_hh_l0 f4 [384, 128]
-0.015433701 0.035129037 0.012833074 0.021906456 -0.06896304 0.019495772 0.057080016 -0.08422779
0.011912239 0.055843823 -0.03211629 0.006526038 0.07073281 0.07496629 0.009092269 0.13295114
-0.016426977 0.005717336 0.06345645 -0.08231279 0.03574572 0.01738344 -0.021919325 0.0016214353
-0.0049939384 -0.0300092 0.020924632 -0.0035258709 0.034190986 0.016284894 0.024972113 0.027736925
-0.08932602 0.01870523 -0.059076674 0.014198862 0.020996878 0.074018225 0.017404402 0.066209756
0.080399536 -0.027290741 -0.060755745 0.014364344 0.011154308 -0.07850566 0.0060590957 0.029348798
0.09934886 0.0138955265 -0.04858184 -0.036805987 -0.0074131344 -0.060813572 -0.008070898 0.03032531
0.058320526 0.032070816 -0.061729964 -0.0052260933 0.03515502 -0.04281109 -0.0445528 -0.04972862
-0.06805825 0.04240535 -0.12973912 -0.061975803 -0.011632651 -0.0412213 -0.065680124 0.08639523
0.051836852 -0.03420568 0.023128174 0.017912835 -0.026550181 -0.022593029 -0.057783138 -0.011717655
0.036797043 -0.04256055 0.012743507 0.070374295 -0.05823568 0.01702769 -0.0050255754 -0.03848897
0.011269676 -0.011616451 0.050020892 0.10497597 -0.0014552113 -0.04740852 0.08086169 -0.020321479
0.076893605 -0.023507932 -0.039963264 -0.00016252056 0.05656768 -0.05053163 0.0338428 0.017404301
0.052069664 0.119179875 0.04778541 0.058748253 -0.083541125 -0.016670724 -0.007109404 -0.085623324
0.06299593 0.08682414 -0.099907085 -0.01528036 0.035831396 0.10479274 -0.07221146 0.04812928
0.024177186 0.0456628 0.077630505 0.07139607 0.011711253 0.03498346 0.0132990945 -0.0046968595
0.11687069 -0.032045342 0.015703056 -0.10293104 -0.026859593 0.00065160886 -0.067717716 -0.05864777
0.038407575 0.03277379 0.04347201 0.02081155 -0.11163767 -0.073177926 0.023404464 0.04408275
0.014993558 -0.037674982 0.028811185 -0.057014387 0.087755345 0.07918654 0.054318115 0.066104665
0.04584899 -0.0005050616 0.015232039 0.040116124 0.07555999 -0.050129637 0.04731179 -0.057199873
-0.076189086 -0.045719054 -0.032679003 -0.058658298 -0.074972704 0.05353024 0.017073402 0.054829855
-0.08210784 -0.0979769 0.014127728 -0.053240728 -0.00064609677 -0.061695054 0.06911866 -0.015994688
-0.10506757 0.025796168 0.06895176 0.09481756 0.007318978 -0.050700966 0.033758633 0.1169889
0.053778544 -0.03452576 -0.038097452 0.034388237 -0.05620739 0.052527104 0.005403033 0.11514311
0.05014002 0.03347142 0.11042968 -0.04049524 -0.020413753 -0.019383451 0.030481564 -0.11434268
-0.0722391 -0.028417164 0.0030000098 0.07483978 0.016025688 0.024278995 -0.026848907 0.050614644
0.09230573 -0.060846183 0.10488896 -0.03157993 0.08894265 0.05920691 -0.10212647 -0.031088065
0.023715293 -0.018568117 -0.05287039 0.07581882 0.028514687 0.041082785 -0.022156356 -0.058939375
0.08924107 0.027965482 -0.03217218 -0.10153248 0.09422139 0.0536663 -0.0779702 -0.058430206
0.047916006 -0.05956417 0.0055812392 -0.09207128 -0.058122493 0.039387207 0.059345458 0.09744944
-0.008231904 -0.07704384 -0.016447956 -0.12509333 -0.0040594367 -0.027616449 0.04485695 -0.07625809
-0.034683216 0.065643616 -0.08586251 -0.0273076 0.0032984952 -0.07578515 0.054179795 0.007317684
00000000: a2dd 7cbc 77e3 0f3d d041 523c 2b75 b33c
00000010: 7f3c 8dbd 99b5 9f3c bccc 693d 9f7f acbd
00000020: 8d2b 433c 7ebc 643d 5f8c 03bd 60d8 d53b
00000030: 5ddc 903d ed87 993d bef7 143c 5824 083e
00000040: de91 86bc 7e58 bb3b 75f5 813d 9c93 a8bd
00000050: 1b6a 123d b767 8e3c 2890 b3bc 5786 d43a
00000060: 31a4 a3bb dbd5 f5bc 226a ab3c 4c12 67bb
00000070: d90b 0c3d e667 853c 5192 cc3c 8c38 e33c
00000080: 8ff0 b6bd b63b 993c 62fa 71bd 58a2 683c
00000090: a501 ac3c de96 973d ad93 8e3c fb98 873d
000000a0: 83a8 a43d d590 dfbc 04db 78bd 6d58 6b3c
000000b0: 8fc0 363c 93c7 a0bd 618b c63b e46c f03c
000000c0: 6a77 cb3d 10aa 633c c0fd 46bd e0c1 16bd
000000d0: e1e9 f2bb a717 79bd cd3b 04bc c96c f83c
000000e0: 81e1 6e3d b05c 033d 8fd8 7cbd a63f abbb
000000f0: b6fe 0f3d ae5a 2fbd ff7c 36bd 3db0 4bbd
00000100: 2062 8bbd 3bb1 2d3d 55da 04be 57da 7dbd
00000110: e096 3ebc aad7 28bd 4d83 86bd fbef b03d
00000120: e152 543d 411b 0cbd 4c77 bd3c f0bd 923c
00000130: c47f d9bc 0415 b9bc 03ae 6cbd 68fb 3fbc
00000140: 7fb8 163d f953 2ebd 24ca 503c 6620 903d
00000150: 8988 6ebd a77d 8b3c 95ad a4bb 9ca6 1dbd
00000160: 72a4 383c ed52 3ebc b5e2 4c3d a4fd d63d
00000170: cabc beba 702f 42bd d09a a53d 3b79 a6bc
00000180: 657a 9d3d b593 c0bc 85b0 23bd 486a 2ab9
00000190: 83b3 673d 41fa 4ebd bf9e 0a3d 7793 8e3c
000001a0: 0047 553d 9414 f43d a2ba 433d 02a2 703d
000001b0: 9c17 abbd 0b91 88bc 01f6 e8bb 485b afbd
000001c0: 0304 813d dbd0 b13d 169c ccbd 7a5a 7abc
000001d0: f1c3 123d 939d d63d 9ae3 93bd 3523 453d
000001e0: 3c0f c63c eb08 3b3d befc 9e3d 1a38 923d
000001f0: 8ee0 3f3c d14a 0f3d 72e4 593c 1de8 99bb
00000200: e659 ef3d fa41 03bd b2a3 803c 82cd d2bd
00000210: a608 dcbc bbd0 2a3a 96af 8abd a538 70bd
00000220: 4351 1d3d cf3d 063d b50f 323d fc7c aa3c
00000230: 4aa2 e4bd 4fde 95bd b8ba bf3c 1d90 343d
00000240: 8aa7 753c 1551 1abd 6f05 ec3c eb87 69bd
00000250: 13b9 b33d 8d2c a23d ac7c 5e3d e261 873d
00000260: 27cc 3b3d 1c66 04ba cd8f 793c ce50 243d
00000270: 32bf 9a3d bc54 4dbd 02ca 413d 6a4a 6abd
00000280: 0609 9cbd e743 3bbd 6bda 05bd af43 70bd
00000290: 4a8b 99bd 8642 5b3d 85dd 8b3c 4595 603d
000002a0: 2828 a8bd 1da8 c8bd fc77 673c f312 5abd
000002b0: d25e 29ba f4b3 7cbd 168e 8d3d 4b07 83bc
000002c0: ab2d d7bd 7c52 d33c 9536 8d3d b52f c23d
000002d0: 0ad4 ef3b d1ab 4fbd 7e46 0a3d e097 ef3d
000002e0: e446 5c3d e26a 0dbd 130c 1cbd aeda 0c3d
000002f0: b839 66bd a926 573d ed0b b13b 27d0 eb3d
00000300: 9f5f 4d3d 5419 093d f528 e23d 56de 25bd
00000310: be3a a7bc 0bca 9ebc 79b4 f93c 7f2c eabd
00000320: 18f2 93bd 1dcb e8bc d09b 443b 9945 993d
00000330: 4e48 833c bee4 c63c 3df2 dbbc 4d51 4f3d
00000340: c90a bd3d d939 79bd 06d0 d63d f559 01bd
00000350: 9027 b63d f282 723d af27 d1bd 66ac febc
00000360: 9346 c23c 2a1c 98bc 9f8e 58bd e646 9b3d
00000370: a297 e93c 6c46 283d 3f81 b5bc 6a6a 71bd
00000380: 06c4 b63d de17 e53c fac6 03bd 43f0 cfbd
00000390: 25f7 c03d 32d1 5b3d d7ae 9fbd 8354 6fbd
000003a0: 9343 443d 8ff9 73bd d4e2 b63b de8f bcbd
000003b0: da11 6ebd 7b54 213d 3914 733d 9293 c73d
000003c0: 1cdf 06bc 29c9 9dbd ddbd 86bc 7718 00be
000003d0: 0605 85bb e43b e2bc ecbb 373d 342d 9cbd
000003e0: fd0f 0ebd 2970 863d afd8 afbd 30b4 dfbc
000003f0: 912b 583b 3f35 9bbd a2eb 5d3d 2fc9 ef3b

GRU.bias_ih_l0 f4 [384]
-0.00055141316 0.015069337 -0.001571557 -0.30163792 -0.1223172 -0.22394197 -0.0541146 0.006396104
-0.0737799 -0.037851974 -0.0019920056 -0.18799531 -0.099538386 -0.08517636 0.056216046 -0.0389806
0.07450819 0.018081207 -0.05773015 0.048105 -0.20524749 -0.06123454 -0.18985616 -0.10803716
-0.08133351 -0.20218351 0.048796017 -0.2805204 -0.30885944 -0.14832714 -0.00842235 -0.0493671
-0.1367526 -0.06616917 -0.11655586 -0.09109339 -0.1367387 0.026603622 -0.07647609 0.018733012
-0.10293097 -0.09068469 -0.12591086 -0.14937387 -0.10304048 -0.19175805 -0.16829962 -0.17499341
-0.0039403928 -0.18694787 -0.012512553 -0.17989847 -0.30459872 -0.20308694 0.011886353 -0.069048524
0.07115107 -0.10635638 -0.15017502 0.02177405 -0.31628376 -0.116667084 -0.16953458 -0.22789611
-0.03323658 -0.084456295 -0.27701798 -0.106374145 -0.0712083 -0.05454927 0.025552541 -0.07376915
0.016679106 -0.016503662 -0.08471092 -0.12738955 -0.10057407 -0.10196909 -0.09131763 -0.077103466
-0.091287754 0.031152872 -0.09053353 -0.061303247 0.036884967 -0.11245611 -0.17156804 -0.2834745
-0.029840684 -0.17078444 -0.19769841 -0.10149157 -0.04695085 -0.106626466 -0.10605935 -0.017017046
-0.32142845 -0.07207258 -0.14087917 0.05194757 -0.26763 -0.15787515 -0.1449631 0.040294852
-0.109621935 -0.053455323 -0.1980864 0.02540331 -0.031722292 -0.16746134 -0.14356096 -0.06402651
-0.06638104 -0.12322977 -0.11558825 -0.101938196 -0.08819354 -0.012629795 -0.05195197 -0.24670629
-0.2304889 -0.17465568 0.04529414 0.0059399363 -0.126423 0.057004046 -0.15792322 -0.13567731
0.45918012 0.14322212 -0.980825 -0.7168575 -1.0223016 -0.52349347 -0.99472666 -0.32713264
-0.75494236 -0.8365658 -0.6104125 -0.681227 -0.99945027 0.37049565 -0.9309238 -0.80963635
0.37229243 -0.37244093 -0.88419384 -0.53956234 -0.65929544 -1.0309653 -0.82877296 -0.727085
-0.9343299 -0.9058062 -0.8374796 -0.25941676 -0.7504624 -0.22576854 -0.9335582 -0.9140001
-0.86809766 -0.7801113 -0.8462614 -0.46898603 -0.9524071 0.36483815 -0.38371515 -0.88070905
-0.0393967 -0.9196895 -0.7477347 -0.9538135 -0.9446938 -0.81040305 -0.9482528 -0.952143
-0.046466865 -0.9440203 -0.6637573 -0.41936275 -0.9598757 -0.8481185 -0.89090085 -0.9666894
-0.89849585 -0.90302646 -0.8638122 -1.0339768 -0.54913753 -0.85665226 -0.22706433 -0.5152872
-1.0239077 0.24838084 -0.45949718 -1.0203904 -0.9844327 -0.89501953 -0.30753228 -0.9367539
-0.6946213 -0.80344874 -0.9178697 -1.0288543 -0.8794224 -0.8874116 -0.6201019 0.029179571
-0.81334585 -0.6195233 0.26557234 -0.7815521 0.352502 -0.90593904 -0.88803357 -0.4226923
-0.7362205 -1.0098293 -0.9684006 -0.55070394 -0.8168769 0.09847393 -1.0545101 -0.9347535
-0.89747167 -0.14609692 -0.81224144 0.58818173 -0.9592828 -0.90538585 -1.1194377 -1.0402044
-0.9720927 -0.57318366 -0.23800029 -0.57084626 -0.88181233 -0.26059094 -0.9432223 -0.6330831
-0.7822876 -0.81413007 -1.0320317 -0.27523383 -0.95293653 -0.7843221 -0.82397854 -1.0514306
-0.8448067 -0.9194674 0.40833336 0.3040041 -1.1391088 -1.009241 -1.0982188 -0.9506195
00000000: b68c 10ba 61e5 763c b4fc cdba 4970 9abe
00000010: 7181 fabd 0b51 65be 45a7 5dbd 6996 d13b
00000020: eb19 97bd ac0a 1bbd 4f8c 02bb d881 40be
00000030: c8da cbbd f270 aebd cc42 663d 1faa 1fbd
00000040: c097 983d 0a1f 943c 7376 6cbd c009 453d
00000050: 662c 52be 12d1 7abd a769 42be 9642 ddbd
00000060: 2f92 a6bd 3209 4fbe 55de 473d 5fa0 8fbe
00000070: d322 9ebe 12e3 17be e5fd 09bc 2835 4abd
00000080: e008 0cbe b483 87bd d7b4 eebd 2c8f babd
00000090: 3b05 0cbe d7ef d93c 7f9f 9cbd f975 993c
000000a0: 79cd d2bd e5b8 b9bd c7ee 00be 77f5 18be
000000b0: e306 d3bd 395c 44be bc56 2cbe 7931 33be
000000c0: 691e 81bb 436f 3fbe 7301 4dbc 4e37 38be
000000d0: 5df4 9bbe 06f6 4fbe fabe 423c 5069 8dbd
000000e0: a7b7 913d 60d1 d9bd 7bc7 19be 7e5f b23c
000000f0: f2ef a1be 27ef eebd 799a 2dbe 995d 69be
00000100: 1523 08bd 6cf7 acbd 4dd5 8dbe b0da d9bd
00000110: a8d5 91bd 0e6f 5fbd 9053 d13c 4814 97bd
00000120: 9fa2 883c b032 87bc eb7c adbd 6872 02be
00000130: c7f9 cdbd 2cd5 d0bd bd04 bbbd 6ce8 9dbd
00000140: 13f5 babd 4f34 ff3c a569 b9bd 1d19 7bbd
00000150: b114 173d 644f e6bd 88af 2fbe 9223 91be
00000160: 7374 f4bc 1ee2 2ebe 7471 4abe d0da cfbd
00000170: 894f 40bd fa5e dabd a535 d9bd 5567 8bbc
00000180: 4592 a4be ca9a 93bd a142 10be fac6 543d
00000190: cd06 89be 06aa 21be 3571 14be 370c 253d
000001a0: 7781 e0bd f8f3 5abd 29d7 4abe 9a1a d03c
000001b0: 3cef 01bd fc7a 2bbe a501 13be 5520 83bd
000001c0: c8f2 87bd e45f fcbd 88b9 ecbd f9c4 d0bd
000001d0: d19e b4bd 33ed 4ebc 97cb 54bd 93a0 7cbe
000001e0: 4805 6cbe f0d8 32be 5986 393d cca3 c23b
000001f0: 0875 01be 137d 693d a0b6 21be feee 0abe
00000200: a819 eb3e d2a8 123e 5917 7bbf f983 37bf
00000210: c7da 82bf ab03 06bf 68a6 7ebf ee7d a7be
00000220: e743 41bf 2d29 56bf fe43 1cbf e564 2ebf
00000230: f9db 7fbf 9bb1 bd3e 0651 6ebf 5444 4fbf
00000240: 1d9d be3e 94b0 bebe 875a 62bf c220 0abf
00000250: 96c7 28bf acf6 83bf 772a 54bf 3e22 3abf
00000260: 3f30 6fbf eae2 67bf 1065 56bf 46d2 84be
00000270: 4e1e 40bf de2f 67be acfd 6ebf e9fb 69bf
00000280: a63b 5ebf 60b5 47bf 96a4 58bf f01e f0be
00000290: f4d0 73bf 11cc ba3e 5076 c4be 2676 61bf
000002a0: 6f5e 21bd c570 6bbf 8b6b 3fbf 1f2d 74bf
000002b0: 74d7 71bf 9376 4fbf b2c0 72bf a5bf 73bf
000002c0: 0a54 3ebd 50ab 71bf 00ec 29bf b7b6 d6be
000002d0: 6aba 75bf 4b1e 59bf 1412 64bf f578 77bf
000002e0: d303 66bf be2c 67bf cc22 5dbf 5a59 84bf
000002f0: 4794 0cbf 904d 5bbf 8d83 68be dde9 03bf
00000300: 680f 83bf 8c57 7e3e 3743 ebbe 279c 82bf
00000310: c803 7cbf 0020 65bf df74 9dbe 1bcf 6fbf
00000320: b4d2 31bf d1ae 4dbf 82f9 6abf 7fb1 83bf
00000330: d421 61bf 682d 63bf 00bf 1ebf ff09 ef3c
00000340: 6f37 50bf 1499 1ebf 19f9 873e cc13 48bf
00000350: 247b b43e 9feb 67bf 2b56 63bf 206b d8be
00000360: f278 3cbf 1642 81bf 1ae9 77bf effa 0cbf
00000370: d81e 51bf b3ac c93d 30fa 86bf 014c 6fbf
00000380: b4c0 65bf 6e9a 15be 0eef 4fbf 1493 163f
00000390: 8f93 75bf 5ec7 67bf bc49 8fbf 6b25 85bf
000003a0: 11db 78bf 2abc 12bf 59b6 73be fb22 12bf
000003b0: 74be 61bf 2d6c 85be 0477 71bf bc11 22bf
000003c0: 0044 48bf d46a 50bf 9d19 84bf 73eb 8cbe
000003d0: a6f3 73bf 55c9 48bf 42f0 52bf 4795 86bf
000003e0: 4045 58bf 3762 6bbf 1211 d13e 6da6 9b3e
000003f0: 51ce 91bf cf2e 81bf 6f92 8cbf cd5b 73bf

GRU.bias_hh_l0 f4 [384]
-0.0056925053 -0.011406206 -0.11701076 -0.25195265 -0.08932648 -0.2247192 -0.025371695 -0.0069336095
-0.18898162 0.0011797958 0.054635175 -0.13031924 -0.19361204 -0.01673617 -0.026585005 -0.004966564
-0.039554328 -0.028134627 0.05920865 0.023965592 -0.25808504 -0.03260057 -0.1853112 -0.08348224
-0.16556793 -0.15639341 -0.018529436 -0.26896772 -0.27301487 -0.21023957 -0.12025086 -0.06304614
-0.24867068 -0.068812035 -0.03375794 -0.057409324 -0.12040235 0.069853835 -0.07564738 -0.1273815
-0.13806355 -0.04348225 0.0034167583 -0.041377548 0.025989499 -0.06653276 -0.089150205 -0.1356305
-0.0681671 -0.122315384 -0.08899491 -0.17390014 -0.26878065 -0.086618446 -0.026841378 -0.14271428
-0.047714144 -0.18919957 0.015403735 -0.14910954 -0.18688118 0.03128358 -0.12619096 -0.28355312
-0.05989992 -0.14269753 -0.31344563 -0.07140106 -0.0979302 -0.060033344 -0.045224976 -0.011491511
0.02377794 0.023497142 -0.11887173 -0.16460313 -0.014647959 -0.17985965 -0.10851093 -0.036118433
-0.069770046 -0.01778644 0.05411659 0.046468664 -0.050961558 -0.2122943 -0.20255974 -0.14015529
-0.028913941 -0.08786112 -0.09895906 -0.12207521 -0.13413198 -0.01794698 -0.0777894 -0.05365083
-0.24192247 -0.058729507 -0.071798064 -0.03628206 -0.28584477 -0.13298666 -0.11937189 -0.069310166
-0.20115823 -0.021619134 -0.19030115 0.05016051 0.008159214 -0.17228428 -0.18210752 -0.12561575
0.043126896 0.0033662377 -0.026091693 -0.12633805 -0.11810367 -0.15091014 0.030804833 -0.18637224
-0.11468581 -0.07838092 0.068133384 0.04470377 -0.14922228 0.053522635 -0.14582753 -0.096562944
0.436243 0.22336741 -1.1013254 -0.86699563 -0.93721837 -0.56226474 -0.9217394 -0.28745213
-0.6354328 -0.815698 -0.69363356 -0.81923985 -0.97179824 0.44530967 -0.8864535 -0.75966036
0.5031248 -0.4538041 -0.9074352 -0.6845313 -0.7811603 -1.023998 -0.9861893 -0.72478366
-0.9338013 -1.0286064 -0.79178584 -0.28491813 -0.88213074 -0.17423253 -0.9804972 -0.88511246
-0.9917223 -0.7305011 -0.7948887 -0.6049789 -0.9755777 0.32795098 -0.38998318 -0.83267283
-0.11252822 -0.921604 -0.7680524 -1.0220375 -0.83250237 -0.7829363 -1.037274 -1.048337
-0.15085919 -1.0033224 -0.7946652 -0.48795214 -0.95761675 -0.97624916 -0.8381931 -0.9907662
-0.76952726 -0.94914144 -0.9480158 -1.023436 -0.70119673 -0.76749945 -0.2601718 -0.37219614
-1.0005031 0.25529394 -0.4313413 -0.8970109 -0.9730505 -0.8715096 -0.38381502 -0.89573205
-0.70921326 -0.7435368 -0.9948243 -0.92688173 -0.85099053 -0.88747466 -0.46963644 0.06546797
-0.6916222 -0.6819788 0.34163713 -0.8312795 0.44113788 -0.8376242 -0.8272632 -0.36471987
-0.7594383 -1.0758342 -0.89259684 -0.6162113 -0.73904425 0.09520716 -0.9349056 -0.93781894
-0.8658504 -0.15451483 -0.8158803 0.55907303 -0.92398894 -0.9699428 -1.0216888 -0.9583108
-1.0323272 -0.6279703 -0.20958869 -0.6552486 -0.9206728 -0.3657546 -0.88659525 -0.60809916
-0.6524836 -0.9510339 -1.0546622 -0.44025984 -0.80221194 -0.8005244 -0.7465999 -1.0605388
-0.79987997 -0.89784575 0.44409212 0.1630577 -1.0539097 -1.000581 -1.0330675 -1.021401
00000000: 3288 babb 18e1 3abc 56a3 efbd f0ff 80be
00000010: cdf0 b6bd ca1c 66be 4dd8 cfbc 5533 e3bb
00000020: 6684 41be 61a3 9a3a 22c9 5f3d 6872 05be
00000030: 3c42 46be 4b1a 89bc ccc8 d9bc 8fbe a2bb
00000040: b803 22bd 977a e6bc c584 723d 7d53 c43c
00000050: b923 84be 2d88 05bd 38c2 3dbe bdf8 aabd
00000060: a48a 29be 9825 20be 0bcb 97bc 23b6 89be
00000070: 9bc8 8bbe 0b49 57be 1546 f6bd 561e 81bd
00000080: 87a3 7ebe 53ed 8cbd c445 0abd 0a26 6bbd
00000090: 8295 f6bd 870f 8f3d 03ed 9abd 4c70 02be
000000a0: 8860 0dbe 721a 32bd b1eb 5f3b 817b 29bd
000000b0: eee7 d43c 5442 88bd 6294 b6bd b9e2 0abe
000000c0: 319b 8bbd 7d80 fabd f742 b6bd e112 32be
000000d0: 9e9d 89be 0365 b1bd 73e2 dbbc b123 12be
000000e0: e86f 43bd 88bd 41be f35f 7c3c 2cb0 18be
000000f0: c85d 3fbe 3623 003d 3438 01be e02d 91be
00000100: 9e59 75bd 4d1f 12be f27b a0be b83a 92bd
00000110: a18f c8bd 86e5 75bd d33d 39bd e446 3cbc
00000120: f4c9 c23c 147d c03c 0673 f3bd b98d 28be
00000130: fefd 6fbc 212d 38be fa3a debd ecf0 13bd
00000140: 99e3 8ebd deb4 91bc 5ca9 5d3d ed55 3e3d
00000150: 11bd 50bd ad63 59be d26b 4fbe de84 0fbe
00000160: eedc ecbc 88f0 b3bd 0cab cabd 9102 fabd
00000170: e559 09be 8c05 93bc 0d50 9fbd f9c0 5bbd
00000180: 86ba 77be 5a8e 70bd dd0a 93bd 7f9c 14bd
00000190: 3f5a 92be a82d 08be 4079 f4bd 7df2 8dbd
000001a0: 6cfc 4dbe 9c1a b1bc 4ede 42be 1b75 4d3d
000001b0: 39ae 053c 4a6b 30be 657a 3abe 6aa1 00be
000001c0: d4a5 303d 199c 5c3b 3fbe d5bc c35e 01be
000001d0: 56e0 f1bd 3088 1abe 6b5a fc3c 5dd8 3ebe
000001e0: 65e0 eabd 2d86 a0bd 8489 8b3d 4d1b 373d
000001f0: bacd 18be 8d3a 5b3d d053 15be cbc2 c5bd
00000200: 3e5b df3e 6dba 643e 3bf8 8cbf 6df3 5dbf
00000210: 8bed 6fbf 95f0 0fbf 1df7 6bbf ed2c 93be
00000220: b9ab 22bf 96d1 50bf f891 31bf b4b9 51bf
00000230: c5c7 78bf a1ff e33e 9eee 62bf 1a79 42bf
00000240: c9cc 003f 0359 e8be ac4d 68bf 713d 2fbf
00000250: 1ffa 47bf 5e12 83bf e776 7cbf 6c8b 39bf
00000260: 9a0d 6fbf 60a9 83bf 7ab2 4abf cae0 91be
00000270: 52d3 61bf 036a 32be dd01 7bbf bb96 62bf
00000280: 83e1 7dbf 1f02 3bbf d37d 4bbf e6df 1abf
00000290: 76bf 79bf 31e9 a73e e0ab c7be 0c2a 55bf
000002a0: 3275 e6bd 3dee 6bbf 159f 44bf 20d2 82bf
000002b0: e01e 55bf 836e 48bf 65c5 84bf e82f 86bf
000002c0: d57a 1abe de6c 80bf 2e6f 4bbf ddd4 f9be
000002d0: 5f26 75bf 77eb 79bf d393 56bf dba2 7dbf
000002e0: bdff 44bf effa 72bf 2ab1 72bf f3ff 82bf
000002f0: a181 33bf d87a 44bf 3d35 85be 7e90 bebe
00000300: 7c10 80bf e3b5 823e c4d8 dcbe 82a2 65bf
00000310: d619 79bf 411b 5fbf 6783 c4be b24e 65bf
00000320: 008f 35bf 6d58 3ebf ceac 7ebf 1f48 6dbf
00000330: 84da 59bf 8a31 63bf 3074 f0be 1214 863d
00000340: 270e 31bf 2a96 2ebf 10eb ae3e bcce 54bf
00000350: d3dc e13e 8a6e 56bf 85c7 53bf 90bc babe
00000360: 8c6a 42bf efb4 89bf 3a81 64bf 06c0 1dbf
00000370: 0132 3dbf f9fb c23d f955 6fbf e714 70bf
00000380: 5fa8 5dbf 2339 1ebe 88dd 50bf 691f 0f3f
00000390: 8a8a 6cbf 2c4e 78bf b3c6 82bf db53 75bf
000003a0: 4c23 84bf a9c2 20bf 6b9e 56be 5fbe 27bf
000003b0: 36b1 6bbf 3044 bbbe e8f7 62bf 63ac 1bbf
000003c0: 2a09 27bf f576 73bf 2cff 86bf bd69 e1be
000003d0: c35d 4dbf 2bef 4cbf 2c21 3fbf bcbf 87bf
000003e0: efc4 4cbf 38d9 65bf 0b60 e33e 99f8 263e
000003f0: 83e6 86bf 0a13 80bf 8e3b 84bf 45bd 82bf

GRU.weight_ih_l1 f4 [384, 128]
-0.009468586 -0.06426056 0.0775008 -0.03116606 -0.016328199 0.053398073 0.019081239 0.08704106
-0.019790681 0.028216332 -0.011150441 0.072767176 0.062170908 -0.08047198 0.06120149 0.039012592
0.13173452 0.10448226 -0.0538552 0.091104954 -0.0056052404 -0.13634294 0.0073795114 0.010435406
-0.1210773 -0.06698209 0.02050696 0.15707472 -0.115408085 0.02063997 -0.008376052 0.052436706
0.042255778 -0.03566263 -0.055157207 -0.0050928956 0.03977924 -0.0379144 0.08717143 -0.029710624
0.07381782 -0.05233924 -0.008671932 -0.053927917 -0.06652499 -0.04246113 -0.05008732 0.012024088
0.07635365 0.0390529 -0.08186186 0.0050646714 0.08908664 -0.038802475 0.05007978 -0.117081694
0.023385448 0.059597727 -0.0055863145 -0.06889937 0.058933683 0.054395113 -0.030702742 0.07669811
-0.05432158 0.09989728 -0.092398375 -0.07100385 -0.027915182 0.1124566 -0.008675245 0.054899827
0.04270288 0.098859005 0.047148626 -0.049445115 0.026819782 -0.013533541 0.063675515 0.19153677
0.058428332 0.026778994 -0.09376666 0.025276748 0.018819455 0.003967656 0.16809487 9.299125e-06
0.11585161 0.0074153943 -0.0007891143 -0.16253047 0.012000513 -0.091985315 0.112993166 -0.03152898
0.026829204 0.024375696 0.21120483 0.06850696 -0.12390861 0.06469631 0.08664725 -0.040362574
-0.03943956 0.045020506 -0.03478621 0.107908726 -0.05006736 -0.07419326 0.11283119 0.08405689
0.12362474 0.041590147 -0.12334681 -0.00621665 0.011989521 0.112596884 0.050926775 0.026739063
-0.037969388 -0.04631556 -0.018609932 0.081883125 -0.010873552 -0.06927675 0.08646935 0.15290119
0.07829038 0.03231322 0.04041105 -0.0897927 -0.049326677 0.011818209 -0.02253894 0.036216
-0.07834416 -0.033716023 0.08011518 -0.14029723 -0.009987297 0.091946594 0.04210839 0.005392427
0.036300756 -0.073002405 0.06703383 -0.072645225 -0.02062561 0.034786213 -0.036676336 0.016723895
-0.14080611 0.08967729 -0.07064931 0.074824214 -0.008343462 0.059883785 0.049485274 -0.06377259
-0.087734155 0.043379333 -0.017894225 -0.017881237 0.038753744 0.111978054 0.022699723 0.12236525
-0.020566316 -0.03687596 0.112053834 0.06980779 -0.011848138 0.046603423 0.0029151246 0.071000524
-0.021350196 -0.071152635 0.06025131 0.033164233 0.010541259 0.06254368 0.018269395 0.01564685
-0.02560234 -0.07990307 0.031137146 -0.06516542 -0.0049910475 -0.0891558 -0.007244638 0.043369208
0.06343378 -0.04175815 0.016026547 -0.02318119 0.060426835 -0.06838892 -0.0060646846 -0.09953223
0.058812756 0.029953761 -0.01734286 0.024412513 0.03933458 -0.059962884 0.012331002 0.0015770464
-0.09853237 -0.08751327 0.12222566 -0.029522402 -0.045040917 0.006220021 -0.06641063 -0.12963483
-0.13959648 -0.046825282 -0.018049935 -0.09910336 0.048407935 0.025263095 -0.07510127 0.027245602
0.11172369 0.022280116 0.029662052 -0.014758295 0.04983239 0.0070242616 0.059225846 0.08447902
-0.007905146 0.055828184 -0.012003903 -0.11908592 -0.11312809 0.028402854 -0.044943646 -0.030049583
0.0134420935 0.020531144 0.022245962 -0.07338166 0.03070648 -0.12883827 -0.041520678 -0.022625366
0.124173656 0.014076198 0.030225717 -0.1160268 0.11589647 0.0779231 0.01347531 0.00445183
00000000: 2122 1bbc 0a9b 83bd bdb8 9e3d f74f ffbc
00000010: b7c2 85bc f0b7 5a3d 4250 9c3c 9542 b23d
00000020: 1120 a2bc f025 e73c 57b0 36bc f506 953d
00000030: eca6 7e3d 7ece a4bd 6aae 7a3d abcb 1f3d
00000040: 6ae5 063e ccfa d53d 4597 5cbd 3c95 ba3d
00000050: 2aac b7bb 7c9d 0bbe d4cf f13b 44f9 2a3c
00000060: 60f7 f7bd e82d 89bd 36fe a73c 32d8 203e
00000070: 135b ecbd 2815 a93c b53b 09bc dfc7 563d
00000080: 6514 2d3d fa12 12bd 86ec 61bd 4ee2 a6bb
00000090: 8eef 223d 214c 1bbd ef86 b23d b263 f3bc
000000a0: cc2d 973d ac61 56bd b814 0ebc 85e3 5cbd
000000b0: 413e 88bd b9eb 2dbd 5d28 4dbd ae00 453c
000000c0: 4d5f 9c3d eff5 1f3d 31a7 a7bd 8bf5 a53b
000000d0: 0e73 b63d 58ef 1ebd 7520 4d3d 87c8 efbd
000000e0: d792 bf3c bf1c 743d 670d b7bb 1d1b 8dbd
000000f0: 7264 713d 69cd 5e3d 5184 fbbc e613 9d3d
00000100: 4e80 5ebd f296 cc3d 5c3b bdbd 776a 91bd
00000110: 61ae e4bc a54f e63d 9d22 0ebc a4de 603d
00000120: 37e9 2e3d 9776 ca3d eb1e 413d f686 4abd
00000130: 29b5 db3c c9bb 5dbc 4f68 823d 3722 443e
00000140: 8c52 6f3d 9f5f db3c bc08 c0bd 2f11 cf3c
00000150: 422b 9a3c 1c03 823b 1021 2c3e 7003 1c37
00000160: 9c43 ed3d d6fc f23b 90dc 4eba 636e 26be
00000170: cd9d 443c cc62 bcbd f668 e73d 8824 01bd
00000180: ebc8 db3c 8aaf c73c 1446 583e 614d 8c3d
00000190: ccc3 fdbd 807f 843d 1d74 b13d 3a53 25bd
000001a0: 608b 21bd 6c67 383d fc7b 0ebd 40ff dc3d
000001b0: 6f13 4dbd a3f2 97bd 0a14 e73d 0526 ac3d
000001c0: f82e fd3d 6e5a 2a3d 419d fcbd 0ab5 cbbb
000001d0: b26f 443c 3299 e63d 9898 503d e10b db3c
000001e0: ca85 1bbd 62b5 3dbd db73 98bc 57b2 a73d
000001f0: fc26 32bc f8e0 8dbd d816 b13d 2192 1c3e
00000200: b556 a03d de5a 043d 0f86 253d 3ce5 b7bd
00000210: c50a 4abd 29a1 413c 95a3 b8bc 3a57 143d
00000220: e772 a0bd d019 0abd 6d13 a43d 14aa 0fbe
00000230: c2a1 23bc 7f4e bc3d d979 2c3d f5b2 b03b
00000240: 1ab0 143d 4982 95bd 0849 893d 05c7 94bd
00000250: 0af7 a8bc fd7b 0e3d ed39 16bd 8d00 893c
00000260: 7a2f 10be baa8 b73d 96b0 90bd 703d 993d
00000270: 04b3 08bc b348 753d 12b1 4a3d 349b 82bd
00000280: f7ad b3bd 87ae 313d e996 92bc ac7b 92bc
00000290: 3fbc 1e3d c054 e53d c5f4 b93c a29a fa3d
000002a0: b17a a8bc 3f0b 17bd 7b7c e53d 63f7 8e3d
000002b0: b11e 42bc 3be3 3e3d ad0b 3f3b b968 913d
000002c0: 9be6 aebc 79b8 91bd 14ca 763d 38d7 073d
000002d0: 3fb5 2c3c e716 803d b3a9 953c d32d 803c
000002e0: 00bc d1bc 39a4 a3bd 5413 ff3c 7375 85bd
000002f0: f18b a3bb 5197 b6bd 6e64 edbb e9a3 313d
00000300: 92e9 813d 980a 2bbd 1b4a 833c 7be6 bdbc
00000310: 2182 773d 7d0f 8cbd 43ba c6bb 8ed7 cbbd
00000320: a5e5 703d 9761 f53c 9d12 8ebc c0fc c73c
00000330: 4c1d 213d a49b 75bd f907 4a3c e5b4 ce3a
00000340: 57cb c9bd 283a b3bd 7251 fa3d f7d8 f1bc
00000350: d37c 38bd 51d1 cb3b 4c02 88bd febe 04be
00000360: 61f2 0ebe decb 3fbd 75dd 93bc b4f6 cabd
00000370: 6647 463d 8df4 ce3c b2ce 99bd 2b32 df3c
00000380: 64cf e43d ca84 b63c d5fd f23c c7cc 71bc
00000390: 0c1d 4c3d c72b e63b cd96 723d 5603 ad3d
000003a0: 9684 01bc 18ac 643d 05ac 44bc 52e3 f3bd
000003b0: b3af e7bd 1aad e83c d416 38bd 8b2a f6bc
000003c0: 3a3c 5c3c ee30 a83c 2a3d b63c 2049 96bd
000003d0: 288c fb3c 2eee 03be 9611 2abd d558 b9bc
000003e0: c24e fe3d db9f 663c ec9b f73c 759f edbd
000003f0: 215b ed3d 2596 9f3d 8cc7 5c3c a8e0 913b

GRU.weight_hh_l1 f4 [384, 128]
-0.20448327 -0.02595455 0.20256256 0.028424 0.037840866 0.28016764 0.21270902 -0.26082343
-0.119800195 0.0138979275 0.031834267 -0.05505202 -0.20528331 0.16639209 0.16693665 -0.13500065
0.07700431 -0.00028684692 -0.26743445 -0.28266206 0.10025173 -0.012488874 0.083894715 -0.0971486
-0.016181968 -0.2624464 -0.022021942 -0.0995943 0.047920913 -0.17082633 -0.21814816 -0.09334286
-0.15184031 0.1717269 -0.037323277 0.2513243 -0.0807238 -0.040966075 0.21087267 -0.018921344
-0.2677924 0.11838149 0.009262185 -0.3361742 0.00036328385 0.000153973 0.28082424 -0.08741234
-0.30228946 0.32306707 0.12568186 -0.26989532 -0.05751756 0.1216019 0.20238066 -0.24525869
-0.03434672 0.0037782188 -0.040219776 -0.005645196 -0.13683721 0.032583296 -0.26159537 -0.076390795
-0.04830438 0.05019928 -0.18115903 0.17370686 -0.19792487 0.25332132 0.014739419 0.16267225
0.16940586 0.06810705 -0.15147482 0.21869096 -0.23352814 0.029738873 0.12894852 0.12193749
-0.24671678 -0.021772616 -0.21164691 -0.25678322 -0.27323365 -0.2001365 0.12305419 0.32879752
0.18232226 0.19629778 -0.016289381 0.047111217 0.321775 0.11438074 0.06803134 0.28957662
-0.25772098 -0.2707459 -0.20512745 0.08657127 0.13228987 0.015162352 0.23153266 -0.24465601
-0.31580165 -0.15900144 -0.14807737 0.2951345 -0.15625225 0.12484101 -0.32988727 0.05004605
-0.335395 -0.15547395 0.32872474 0.27154338 0.04767073 0.05625077 0.18827008 0.25590292
0.290064 0.09579863 -0.23008326 -0.25972643 -0.043197073 0.031008165 -0.35592312 0.02816661
-0.091142684 -0.16694684 0.11682836 0.036793873 0.08139785 0.14846285 0.1953951 -0.21126296
-0.047518704 0.062301345 0.05217654 -0.10069432 -0.024086643 0.099310175 0.09348358 -0.13643031
-0.03382186 -0.058223967 -0.17898646 -0.21223293 0.0918853 -0.06474507 0.12901974 -0.0218772
0.1134238 -0.152889 -0.0074370634 -0.12215252 -0.09372738 -0.20641425 -0.2513751 -0.1533136
-0.22436282 0.20946114 -0.07213783 0.157915 -0.0569519 0.07435769 0.20527153 -0.057007074
-0.108762644 -0.0015539782 0.0034055882 -0.12247993 -0.08465304 -0.01171538 0.19893987 -0.0005667924
-0.054443575 0.25678566 0.088440575 -0.016651189 -0.030888744 0.0037204833 0.13411109 -0.17212589
-0.024940265 0.015116947 0.053155236 0.0511948 -0.0789875 0.0022093582 -0.17057805 0.03828376
0.061226342 0.067385525 0.019555565 0.24621682 0.0018818206 0.21116382 -0.0724463 0.18335685
0.13550353 0.0012418348 0.008011007 0.022571439 -0.13255745 -0.07685804 0.17424001 0.09138777
-0.13314357 -0.0048083914 -0.21458498 -0.14726672 -0.20569572 -0.017020581 -0.014079882 0.12300623
0.029047411 0.17538889 0.06473158 0.020984981 0.14112587 -0.026698481 -0.0005002413 0.2547712
-0.09862699 -0.15885706 -0.029547503 0.08041875 0.00013033069 0.052357316 0.15142795 -0.12430387
-0.19692636 -0.14511223 -0.12093877 0.14133953 -0.12785828 -0.033953577 -0.16172807 0.0068896203
-0.11907534 0.061378274 0.23571295 0.123564266 0.009536104 -0.036131885 0.097397 0.18171777
0.117574826 -0.04416071 -0.2527566 -0.20950519 0.113415375 -0.080892235 -0.2017532 -0.045576964
00000000: 1064 51be a39e d4bc 8f6c 4f3e 73d9 e83c
00000010: 06ff 1a3d 2272 8f3e 65d0 593e a68a 85be
00000020: ce59 f5bd 22b4 633c a664 023d 3a7e 61bd
00000030: ca35 52be b062 2a3e 71f1 2a3e 9c3d 0abe
00000040: 70b4 9d3d f163 96b9 2bed 88be 15b9 90be
00000050: c750 cd3d 229e 4cbc fed0 ab3d d8f5 c6bd
00000060: 0c90 84bc 605f 86be 5c67 b4bc 19f8 cbbd
00000070: b848 443d 19ed 2ebe 3b62 5fbe 8b2a bfbd
00000080: 077c 1bbe 2dd9 2f3e 4be0 18bd 94ad 803e
00000090: 8552 a5bd 0bcc 27bd 01ef 573e ef00 9bbc
000000a0: 161c 89be ff71 f23d 6bc0 173c 061f acbe
000000b0: 2277 be39 d073 2139 32c8 8f3e 3e05 b3bd
000000c0: afc5 9abe 0c69 a53e bfb2 003e b82f 8abe
000000d0: 8897 6bbd 6b0a f93d e03c 4f3e 1825 7bbe
000000e0: 25af 0cbd fe9b 773b 7ebd 24bd 56fb b8bb
000000f0: 0e1f 0cbe 1076 053d d4ef 85be c772 9cbd
00000100: d0da 45bd c39d 4d3d c181 39be 36e0 313e
00000110: d1ac 4abe 55b3 813e 9b7d 713c 8e93 263e
00000120: bb78 2d3e b67b 8b3d 371c 1bbe 86f0 5f3e
00000130: 0022 6fbe f09e f33c 150b 043e 5dba f93d
00000140: 53a3 7cbe 7c5c b2bc f8b9 58be 1779 83be
00000150: 48e5 8bbe 95f0 4cbe d603 fc3d 2658 a83e
00000160: b0b2 3a3e 4902 493e 4f71 85bc b1f7 403d
00000170: b1bf a43e 7340 ea3d 0454 8b3d 6343 943e
00000180: 01f4 83be 359f 8abe ee0c 52be 474c b13d
00000190: ff76 073e 836b 783c e616 6d3e 1b87 7abe
000001a0: c1b0 a1be 46d1 22be 98a1 17be df1b 973e
000001b0: 9700 20be a5ac ff3d fce6 a8be 16fd 4c3d
000001c0: e5b8 abbe 9034 1fbe 9c4e a83e bc07 8b3e
000001d0: 6242 433d 3567 663d dfc9 403e b505 833e
000001e0: 4583 943e 1232 c43d f29a 6bbe ddfa 84be
000001f0: 6aef 30bd d604 fe3c 8e3b b6be aabd e63c
00000200: 04a9 babd 1df4 2abe b543 ef3d 2cb5 163d
00000210: eab3 a63d a506 183e a715 483e 5155 58be
00000220: f9a2 42bd b22f 7f3d 11b7 553d d338 cebd
00000230: 5a51 c5bc 2263 cb3d 5274 bf3d 63b4 0bbe
00000240: ca88 0abd 417c 6ebd 3a48 37be 9753 59be
00000250: 5c2e bc3d 1099 84bd c01d 043e d037 b3bc
00000260: bd4a e83d ef8e 1cbe 9cb2 f3bb 1a2b fabd
00000270: 24f4 bfbd 425e 53be 3db4 80be 3efe 1cbe
00000280: 5ebf 65be fb7c 563e 00bd 93bd 78b4 213e
00000290: 6546 69bd d848 983d b332 523e 4080 69bd
000002a0: f3be debd dbae cbba 4a30 5f3b c2d6 fabd
000002b0: 935e adbd ddf1 3fbc e5b6 4b3e cb94 14ba
000002c0: 3a00 5fbd 6979 833e 5520 b53d 1368 88bc
000002d0: 640a fdbc 5ad3 733b 6b54 093e c541 30be
000002e0: 874f ccbc 12ad 773c 4eb9 593d a3b1 513d
000002f0: 33c4 a1bd e1ca 103b 03ac 2ebe 6fcf 1c3d
00000300: 79c8 7a3d 6c01 8a3d fe32 a03c 4320 7c3e
00000310: 6ca7 f63a 543b 583e ba5e 94bd e6c1 3b3e
00000320: 70c1 0a3e 10c5 a23a 9940 033c bde7 b83c
00000330: 24bd 07be c067 9dbd f96b 323e 8329 bb3d
00000340: ca56 08be b68f 9dbb 2abc 5bbe 16cd 16be
00000350: e6a1 52be bf6e 8bbc 4eaf 66bc b1ea fb3d
00000360: d6f4 ed3c 2599 333e fe91 843d b2e8 ab3c
00000370: 4d83 103e c6b6 dabc a022 03ba 5f71 823e
00000380: f3fc c9bd 6dab 22be 9b0d f2bc 96b2 a43d
00000390: 61a9 0839 a074 563d ee0f 1b3e 0793 febd
000003a0: 10a7 49be 4d98 14be bfae f7bd 4fbb 103e
000003b0: 48ed 02be e812 0bbd 0b9c 25be 53c2 e13b
000003c0: c6dd f3bd c967 7b3d bc5e 713e 430f fd3d
000003d0: 523d 1c3c 07ff 13bd 1478 c73d 3914 3a3e
000003e0: 12cb f03d dce1 34bd 5069 81be 8788 56be
000003f0: 5246 e83d d4aa a5bd 6498 4ebe e9ae 3abd

GRU.bias_ih_l1 f4 [384]
-0.46513808 -0.11190028 -0.084920034 -0.09978041 -0.12241819 -0.15824458 -0.1391574 -0.14655429
-0.18188381 -0.13190679 -0.023684975 0.028082194 -0.25159958 -0.171919 -0.104834154 -0.20140523
-0.12965043 -0.29710916 -0.13729097 -0.18227601 0.027284592 -0.0909775 -0.101306364 -0.043706033
-0.14872046 -0.04269367 -0.17192265 -0.05607508 -0.02287033 -0.19218135 -0.04893946 -0.20239562
-0.068300165 -0.2361098 -0.1591217 -0.14297684 -0.110018976 -0.1286445 -0.21989161 -0.20445283
-0.08499184 0.0008730874 -0.095247224 -0.09655831 -0.19575877 -0.23679274 0.0025013597 -0.13091859
-0.12839186 -0.11852142 -0.08738184 -0.16347276 -0.16165394 -0.12260992 -0.042309456 -0.061721884
0.0020978448 -0.05273725 -0.11245285 -0.10851953 -0.10555145 -0.214171 0.0036726503 -0.23553137
-0.21474868 -0.26609954 -0.20755848 -0.15795292 -0.24590555 -0.15508895 -0.0029752068 -0.10374691
-0.168032 -0.16641305 -0.13927683 -0.1797043 -0.055218246 -0.20194568 -0.08086329 -0.061494466
-0.32819352 -0.012557992 -0.026493592 -0.16131347 -0.11717327 -0.046468526 -0.046692144 -0.0572426
-0.04409359 -0.12187239 -0.24313182 -0.26049232 -0.11692557 -0.20100178 -0.11299934 -0.12057935
-0.22141352 -0.15017116 -0.14135754 -0.34841588 -0.120739564 -0.12436257 -0.18635328 -0.11786668
-0.2995471 -0.2109715 -0.43622762 -0.10209765 -0.13654284 -0.30418012 -0.14255705 -0.030225774
-0.1127282 -0.16466582 -0.08671884 -0.20915945 -0.26257312 -0.26010618 0.015018491 -0.02011736
-0.055699147 -0.21812439 -0.018132964 -0.17693256 -0.026179051 -0.19405353 -0.16390774 0.054768477
0.031631917 -0.09172553 0.08695388 0.14332472 0.07398054 0.12601326 0.10041383 0.029474994
0.16759886 0.19805112 0.13387556 0.013450615 0.13390635 0.07231291 0.17886966 0.10457794
0.15521556 0.13762264 0.045788243 0.109654725 0.019207671 0.10891179 0.10437276 0.20859751
0.05445408 0.08766639 0.114593714 0.04326939 0.064792424 0.078614 0.008430078 0.06773664
0.13503908 -0.0022140944 0.003224417 0.070037305 -0.0008499664 0.07633086 0.08867458 0.14779721
0.11695815 0.050073937 -0.034721337 0.0016877613 0.0849382 0.14816326 0.15586014 0.07274764
-0.053740613 0.08897082 0.1682465 0.014644092 0.11758106 0.19491784 -0.010935607 0.05561109
0.050668083 0.01969315 0.043066327 0.14968027 0.17025554 0.024119198 0.17273287 0.11168682
0.01611843 0.10535885 0.15279187 0.05801472 0.23627119 0.00223353 0.16372907 0.107158035
0.038819503 -0.0053210887 0.16277234 0.14367127 0.22687957 0.1298873 0.010336269 0.08741688
0.08459636 0.076543435 0.14749731 0.07195781 0.022926057 0.08138854 0.097768895 0.1173538
0.21549147 0.12283025 0.007372265 0.09287116 0.1598412 0.020899508 0.061317403 0.052612185
0.013785333 0.036480356 -0.028154992 0.16165751 0.16981092 0.11733844 0.09837237 0.12828134
-0.067460656 0.16767274 0.1305106 0.091843195 0.0980527 0.25898978 0.004429023 -0.043289434
0.07031867 0.13158554 0.028983748 0.0061318474 0.13041759 0.15693182 0.022573562 0.15040094
0.004916916 0.19198973 0.082812496 -0.036380135 0.117246315 0.21811055 0.12694426 0.068804055
00000000: 9426 eebe f92b e5bd 8eea adbd ac59 ccbd
00000010: 63b6 fabd de0a 22be 477f 0ebe 5412 16be
00000020: c03f 3abe 9312 07be fe06 c2bc a10c e63c
00000030: a9d1 80be 890b 30be 4ab3 d6bd 2c3d 4ebe
00000040: 15c3 04be b11e 98be 0196 0cbe 90a6 3abe
00000050: f083 df3c 6952 babd b679 cfbd 1905 33bd
00000060: 2d4a 18be 8fdf 2ebd 7e0c 30be fcae 65bd
00000070: 8f5a bbbc 30cb 44be be74 48bd cc40 4fbe
00000080: f5e0 8bbd c4c6 71be cdf0 22be 8568 12be
00000090: a151 e1bd 62bb 03be 442b 61be 155c 51be
000000a0: 3410 aebd e7df 643a fa10 c3bd 5dc0 c5bd
000000b0: fd74 48be cc79 72be daed 233b 860f 06be
000000c0: 2879 03be 5cbb f2bd 40f5 b2bd 6765 27be
000000d0: 9c88 25be e91a fbbd ae4c 2dbd 16d0 7cbd
000000e0: ff7b 093b 0403 58bd ae4d e6bd 7d3f debd
000000f0: 5c2b d8bd a54f 5bbe d9b0 703b 232f 71be
00000100: 14e7 5bbe 333e 88be 368a 54be 69be 21be
00000110: aace 7bbe a3cf 1ebe b0fb 42bb 4379 d4bd
00000120: 9510 2cbe 2f68 2abe 969e 0ebe 6704 38be
00000130: 872c 62bd d9ca 4ebe a79b a5bd 9fe1 7bbd
00000140: fb08 a8be 09c0 4dbc 1709 d9bc 5c2f 25be
00000150: 8af8 efbd c855 3ebd 4340 3fbd 3777 6abd
00000160: 7b9b 34bd 3b98 f9bd 8cf7 78be 405f 85be
00000170: ac76 efbd 69d3 4dbe 336c e7bd 4ef2 f6bd
00000180: 3aba 62be 78c6 19be 08c0 10be 9163 b2be
00000190: 4e46 f7bd ceb1 febd 65d3 3ebe 1664 f1bd
000001a0: 3d5e 99be ea08 58be 3a59 dfbe 9318 d1bd
000001b0: e3d1 0bbe 7fbd 9bbe 7afa 11be 0b9c f7bc
000001c0: 0bde e6bd 289e 28be a699 b1bd e52d 56be
000001d0: fc6f 86be a32c 85be 1e10 763c 29cd a4bc
000001e0: ca24 64bd 005c 5fbe 958b 94bc cf2d 35be
000001f0: 7375 d6bc f8b5 46be 6ed7 27be e954 603d
00000200: 7890 013d 98da bbbd e014 b23d b7c3 123e
00000210: 1c83 973d 9f09 013e c4a5 cd3d 8b75 f13c
00000220: 099f 2b3e eacd 4a3e ad16 093e f85f 5c3c
00000230: bf1e 093e ca18 943d 9c29 373e f62c d63d
00000240: d4f0 1e3e f3ec 0c3e 748c 3b3d a892 e03d
00000250: 6859 9d3c 250d df3d 63c1 d53d 969a 553e
00000260: 3e0b 5f3d 708a b33d 1cb0 ea3d 3e3b 313d
00000270: e4b1 843d 6000 a13d 4f1e 0a3c 82b9 8a3d
00000280: af47 0a3e 571a 11bb be50 533b b86f 8f3d
00000290: 48d0 5eba 5b53 9c3d 059b b53d 2758 173e
000002a0: c187 ef3d 541a 4d3d f637 0ebd df37 dd3a
000002b0: 14f4 ad3d 1cb8 173e cd99 1f3e b7fc 943d
000002c0: 1e1f 5cbd 5536 b63d cf48 2c3e c6ed 6f3c
000002d0: 57ce f03d 8b98 473e 432b 33bc 74c8 633d
000002e0: 5689 4f3d 8753 a13c 5166 303d c945 193e
000002f0: 7857 2e3e a095 c53c e3e0 303e 0fbc e43d
00000300: cc0a 843c 61c6 d73d 7975 1c3e d8a0 6d3d
00000310: 13f1 713e 6a60 123b 98a8 273e ac75 db3d
00000320: 3301 1f3d 875c aebb cbad 263e 901e 133e
00000330: 1e53 683e 2d01 053e 7459 293c 9f07 b33d
00000340: db40 ad3d cec2 9c3d 8909 173e 9e5e 933d
00000350: 6dcf bb3c 09af a63d 0f3b c83d 3057 f03d
00000360: cca9 5c3e 6d8e fb3d 0b93 f13b 3c33 be3d
00000370: 69ad 233e 7235 ab3c f527 7b3d e07f 573d
00000380: e1db 613c 6d6c 153d 4ca5 e6bc 8c89 253e
00000390: eae2 2d3e 234f f03d 7477 c93d 2f5c 033e
000003a0: d028 8abd 67b2 2b3e 92a4 053e 4918 bc3d
000003b0: dbcf c83d 4f9a 843e 5621 913b 4350 31bd
000003c0: 3c03 903d 5cbe 063e 536f ed3c aaed c83b
000003d0: 308c 053e bcb2 203e 31ec b83c b402 1a3e
000003e0: 151e a13b f598 443e 9999 a93d 5603 15bd
000003f0: d61e f03d 5f58 5f3e adfd 013e 24e9 8c3d

GRU.bias_hh_l1 f4 [384]
-0.3504077 -0.22764367 -0.02769588 -0.124211736 -0.03264063 -0.03748448 -0.06798623 -0.23323186
-0.1679637 -0.061493196 -0.1349955 -0.049270336 -0.18420202 -0.10257547 0.008677617 -0.23287047
-0.11153116 -0.25481972 -0.0305284 -0.16053742 -0.093750946 -0.0691875 0.041991338 -0.0031507646
-0.13620882 0.020029604 -0.14007111 -0.016681835 -0.14124958 -0.21148577 -0.13086429 -0.2311305
-0.11712587 -0.23341759 -0.082834296 -0.12207169 -0.073124304 -0.07998638 -0.30674464 -0.12977374
-0.0006817081 -0.03995878 -0.18131785 -0.113878824 -0.079530366 -0.25848302 -0.09294809 -0.07250786
-0.13043539 -0.18242465 -0.22689472 -0.05086101 -0.07588928 -0.02825643 -0.1470123 -0.023495277
-0.13834794 -0.107074 -0.2195896 0.009130825 -0.21235223 -0.10753935 0.01715135 -0.27458966
-0.33879194 -0.2326312 -0.20365764 -0.08233018 -0.14051941 -0.23261751 -0.069843456 -0.086266994
-0.07534497 -0.058506515 -0.16107444 -0.3257501 -0.11727397 -0.2020102 0.031618115 -0.14502534
-0.3790706 -0.045581624 0.016683122 -0.07402224 -0.19917206 -0.13204932 -0.04148814 -0.11967535
-0.13981713 -0.19395782 -0.17311643 -0.21176797 -0.106278956 -0.06903673 -0.03410352 -0.1368082
-0.17044519 -0.2168183 -0.16115595 -0.2851404 -0.06859985 -0.09747775 -0.048071045 -0.07652057
-0.21374464 -0.06520746 -0.3252773 -0.08051182 -0.026902124 -0.27800465 -0.08345277 -0.13515559
-0.11881071 -0.030397017 -0.011687663 -0.2140124 -0.21051899 -0.28177825 -0.095073774 -0.0729089
-0.16135688 -0.178018 -0.087864496 -0.21207917 -0.17275608 -0.2341875 -0.082606204 -0.026855579
0.11813315 0.031047702 0.16711624 0.08258166 -0.046753295 0.17144804 0.035224393 0.05697583
0.114632525 0.09004824 0.17039801 0.06881533 0.03752541 0.090137444 0.08462679 0.079836875
0.230757 0.22586574 0.08347738 0.063257314 0.054335248 0.06612729 0.009274217 0.1748683
0.009709038 0.01000795 0.05820756 0.16098998 0.12005871 0.050831668 -0.0018599668 0.1987298
-0.013810273 -0.038762625 0.07135386 0.012176541 -0.08869922 0.03253279 0.012912515 0.21054596
0.04411037 0.036424052 0.06323072 0.124040365 -0.004329319 0.12129994 -0.0009379606 0.15030497
-0.042141203 0.053632226 0.15006445 0.069651194 0.036677506 0.23592393 0.03528874 0.11326882
0.16822182 0.07689358 0.20605396 0.14869177 0.07895576 -0.02122215 0.11790633 0.10316052
0.035538387 0.07653192 0.21617945 0.0073475754 0.1912399 0.02079009 0.003777838 0.09781494
0.1754385 0.12605247 0.21260162 0.09636114 0.07172564 0.14518803 0.1263896 0.034640774
-0.011014144 0.019854097 0.05452003 0.0070288996 0.10223551 0.10144628 0.055484354 0.12086195
0.16151689 -0.038263634 0.09148389 0.022780553 0.10921498 0.10386528 0.09707376 -0.03847575
0.03272257 0.0091079185 0.10827353 0.071141325 0.16801538 0.028985105 0.1149457 0.08598005
0.037635554 0.07555684 0.17477632 0.08409679 0.09397348 0.21844813 0.14428976 0.022007609
0.088642925 0.17515855 0.1760037 0.09030454 0.07480634 0.05314557 -0.0069589904 0.06922171
0.04280935 0.24532288 -0.007152072 0.019860985 0.13944003 0.22506729 0.028179163 0.05186444
00000000: a368 b3be 6c1b 69be 78e2 e2bc b962 febd
00000010: 2eb2 05bd 5389 19bd 5d3c 8bbd 55d4 6ebe
00000020: adfe 2bbe 4ae0 7bbd 433c 0abe b1cf 49bd
00000030: 749f 3cbe 1713 d2bd 902c 0e3c 9975 6ebe
00000040: 736a e4bd bb77 82be b216 fabc ec63 24be
00000050: 7f00 c0bd 2db2 8dbd 1cff 2b3d 0f7d 4ebb
00000060: 537a 0bbe 2015 a43c cd6e 0fbe 58a8 88bc
00000070: bba3 10be ba8f 58be 4a01 06be 79ad 6cbe
00000080: b0df efbd 0505 6fbe 07a5 a9bd b900 fabd
00000090: 32c2 95bd e6cf a3bd a20d 9dbe 68e3 04be
000000a0: a8b4 32ba d1ab 23bd 63ab 39be 4d39 e9bd
000000b0: d1e0 a2bd e357 84be 915b bebd 007f 94bd
000000c0: db90 05be 87cd 3abe 1757 68be a253 50bd
000000d0: d76b 9bbd 077a e7bc 648a 16be 2b79 c0bc
000000e0: 15ab 0dbe 9d49 dbbd 19dc 60be 7599 153c
000000f0: dd72 59be 973d dcbd fd80 8c3c 0497 8cbe
00000100: 2376 adbe e036 6ebe a18b 50be ba9c a8bd
00000110: 52e4 0fbe 4933 6ebe 160a 8fbd c0ac b0bd
00000120: 774e 9abd 87a4 6fbd b3f0 24be b8c8 a6be
00000130: 562d f0bd c3db 4ebe ff81 013d 8681 14be
00000140: 8b15 c2be ccb3 3abd 0bab 883c f998 97bd
00000150: c3f3 4bbe f037 07be 78ef 29bd 5a18 f5bd
00000160: 392c 0fbe e19c 46be 6f45 31be b4d9 58be
00000170: c8a8 d9bd 2163 8dbd 22b0 0bbd 7317 0cbe
00000180: 2f89 2ebe 9e05 5ebe 1106 25be ecfd 91be
00000190: 147e 8cbd 6aa2 c7bd 25e6 44bd d1b6 9cbd
000001a0: e0df 5abe 7d8b 85bd bf8a a6be 62e3 a4bd
000001b0: d861 dcbc a056 8ebe 49e9 aabd 3a66 0abe
000001c0: 0853 f3bd 2a03 f9bc 9d7d 3fbc 1126 5bbe
000001d0: 4a92 57be 3d45 90be 0ab6 c2bd 4351 95bd
000001e0: bd3a 25be 5a4a 36be 4df2 b3bd 482b 59be
000001f0: f8e6 30be d9ce 6fbe 712d a9bd 3b00 dcbc
00000200: cbef f13d c057 fe3c 8520 2b3e 9320 a93d
00000210: 6280 3fbd 1390 2f3e 7447 103d 7d5f 693d
00000220: 75c4 ea3d 366b b83d d17c 2e3e 0def 8c3d
00000230: 3fb4 193d fb99 b83d cf50 ad3d 8481 a33d
00000240: 904b 6c3e 5949 673e 30f6 aa3d 0d8d 813d
00000250: a38e 5e3d bf6d 873d e3f2 173c ad10 333e
00000260: a812 1f3c 62f8 233c 0d6b 6e3d 8fda 243e
00000270: 57e1 f53d de34 503d 21ca f3ba d37f 4b3e
00000280: 7c44 62bc 8fc5 1ebd f921 923d 1d80 473c
00000290: f0a7 b5bd 1a41 053d 038f 533c 5c99 573e
000002a0: 13ad 343d 6331 153d 1c7f 813d e008 fe3d
000002b0: f6dc 8dbb 1a6c f83d 78e1 75ba 8ce9 193e
000002c0: 419c 2cbd 77ad 5b3d 7faa 193e 49a5 8e3d
000002d0: 273b 163d 0b96 713e ed8a 103d 7cf9 e73d
000002e0: 5742 2c3e 627a 9d3d cfff 523e a842 183e
000002f0: 8fb3 a13d 13da adbc e078 f13d d345 d33d
00000300: b390 113d c4bc 9c3d 255e 5d3e eec3 f03b
00000310: 64d4 433e fb4f aa3c 9b95 773b 3353 c83d
00000320: 26a6 333e e613 013e 3db4 593e fd58 c53d
00000330: e4e4 923d 2cac 143e 466c 013e 7ce3 0d3d
00000340: ab74 34bc 0fa5 a23c 6550 5f3d af52 e63b
00000350: da60 d13d 11c3 cf3d 9043 633d 7886 f73d
00000360: af64 253e 54ba 1cbd e85b bb3d 489e ba3c
00000370: 1aac df3d 52b7 d43d 9cce c63d bf98 1dbd
00000380: 1a08 063d 6139 153c 83be dd3d 8bb2 913d
00000390: 390c 2c3e 2c72 ed3c a768 eb3d 4f16 b03d
000003a0: bd27 1a3d 8bbd 9a3d 90f8 323e f03a ac3d
000003b0: 2b75 c03d deb0 5f3e b2c0 133e 4d49 b43c
000003c0: 6c8a b53d c35c 333e 503a 343e 96f1 b83d
000003d0: 1134 993d 2baf 593d 3e08 e4bb 1dc4 8d3d
000003e0: db58 2f3d ec35 7b3e ee5b eabb 81b3 a23c
000003f0: 5ec9 0e3e 0a78 663e fdd7 e63c cf6f 543d
