results_NNA_diff_64hu/1677011291.3394449_model.pt (torch, 155027 bytes, 9 tensors)

GRU.weight_ih_l0 f4 [192, 1]
000000 54 13 56 be 62 48 bc 3d 25 43 ba 3b 2a 49 38 3c
       -0.2090581 0.091934934 0.005684274 0.011247912
000010 69 fa 3c bd ec 46 73 be 7c 71 5e be f2 d4 1a be
       -0.046137247 -0.23757523 -0.21722978 -0.15120295
000020 c8 75 b6 bd 8f 5d fe 3c 8b 34 4f be 07 ea dc bd
       -0.08909184 0.031050472 -0.20234887 -0.10786825
000030 b1 16 a3 bd 56 21 af bd 4c 42 10 3d 83 85 55 3b
       -0.079633124 -0.0855128 0.035219476 0.00325808
000040 b8 06 9a be 08 e7 82 be 7a f5 13 be 46 95 82 3d
       -0.3008325 -0.25566888 -0.1444911 0.06376128
000050 75 e5 9b ba 50 4d 90 be ba ea 86 bd ba b5 eb bd
       -0.0011893945 -0.28183985 -0.06587739 -0.11509271
000060 86 eb 94 3c 90 7a 57 be 22 eb 19 be 1e 11 de 3b
       0.018178713 -0.21042848 -0.15031102 0.006776943
000070 d4 b2 55 be 3a 0c 5f 3c cd aa aa 3d 82 be a6 bd
       -0.20868999 0.013613755 0.08333359 -0.08141805
000080 b0 1a bc 3d 7e 95 7b 3b 2a 28 64 be 1a bb c0 bd
       0.09184778 0.0038388665 -0.22280946 -0.09410687
000090 78 3f 26 be b6 3a 30 be a4 f2 bb bd 0b 80 b7 3d
       -0.16235149 -0.17209896 -0.091771394 0.08959969
0000a0 62 0d 0b 3e d6 09 5b bb 91 6b c5 bd b4 c8 81 be
       0.13579324 -0.003342261 -0.09639657 -0.25348437
0000b0 85 88 cb 3d 97 0c 67 be 03 65 52 be 4f 0f 9b be
       0.099381484 -0.22563396 -0.20546345 -0.30285117
0000c0 a6 26 4c be 29 b6 84 bc 6c 4e 47 3d 5b 18 9f be
       -0.19936618 -0.016200142 0.048658773 -0.3107327
0000d0 dc 54 65 be 1d 9a 89 bd 11 8d 1b 3e fb 88 8a bd
       -0.22395653 -0.06718848 0.15190531 -0.06764408
0000e0 ca db 64 be 08 18 6c be 20 e5 3b be f1 d0 55 bc
       -0.22349468 -0.23056042 -0.18349123 -0.013050304
0000f0 28 72 12 be 0d c8 a6 bd b4 11 7c 3d 10 c3 11 3e
       -0.1430136 -0.081436254 0.06154032 0.14234567
000100 3b 37 8f 3c 33 b2 8b be 3e 5e c8 be 58 e6 5f bd
       0.01748239 -0.27284393 -0.391344 -0.054663032
000110 d0 d2 aa be cd f7 c0 be cf 8f d2 be 22 da cf be
       -0.33363962 -0.37689057 -0.41125342 -0.4059611
000120 d9 a3 9b bd 7c 06 9e be 0e 58 98 be c1 1c 22 be
       -0.07599611 -0.30864322 -0.2975468 -0.15831281
000130 7d a0 49 be 2c 22 d4 be 38 5f 7b bb 85 1b 16 3e
       -0.19690128 -0.4143232 -0.0038356315 0.14658935
000140 96 c3 5e be 4a bf ec be 0e 7b a1 be 81 9a 82 bd
       -0.21754298 -0.46239692 -0.31539196 -0.063771255
000150 43 b0 9b be cf d4 b7 be 2f b6 66 ba 83 6f cb be
       -0.30407915 -0.35904548 -0.0008800951 -0.39733514
000160 3b 7a 06 be 0c b4 56 be 10 7a aa be 18 cb 73 be
       -0.13132565 -0.2096712 -0.3329625 -0.23807943
000170 64 e0 73 be 4d 27 70 be aa b9 09 3c d0 f0 27 be
       -0.23816067 -0.23452492 0.008406082 -0.16400456
000180 d6 59 e8 bd 14 e6 7e 3e 6f 54 b4 be 01 fa 84 bd
       -0.1134526 0.24892455 -0.35220668 -0.06492997
000190 85 2b 98 be e1 9e d5 be 8e a8 30 be f0 f5 89 bd
       -0.29720703 -0.41722777 -0.17251799 -0.06736362
0001a0 c0 43 07 be e2 a5 7e be 18 71 15 be 36 93 9b be
       -0.13209438 -0.24867967 -0.14593923 -0.3038575
0001b0 d2 25 a8 be e5 76 07 bf ec d0 d8 be b8 d8 57 be
       -0.32841355 -0.52915794 -0.42346895 -0.21078765
0001c0 ab c9 96 be 95 13 54 3e 3e 79 b4 be 6f a6 e1 be
       -0.29450735 0.20710595 -0.3524875 -0.4407229
0001d0 ba 79 85 be 55 be 99 be a2 9f e7 be 00 a2 9d 3d
       -0.26069432 -0.30028024 -0.45238978 0.07696915
0001e0 e8 04 bb be 7a b3 52 be 02 9b 95 bd 13 8a 8f bd
       -0.3652718 -0.20576277 -0.07304956 -0.070087574
0001f0 46 36 9d be 8c ba 39 be 2c 46 25 bc d8 44 54 be
       -0.3070547 -0.18137568 -0.010087531 -0.20729387
000200 dc eb 72 bc 7f 32 e4 bd f7 35 9f 3d 14 ca f0 3c
       -0.014826741 -0.11142444 0.07773965 0.029393233
000210 e3 10 1f be 02 a3 07 be ca 74 2e 3e 84 65 38 be
       -0.15533786 -0.13245776 0.17036739 -0.18007475
000220 5f cd 75 3c d0 7b 52 be 51 f4 1f be 9d 8d 23 3e
       0.015002578 -0.20555043 -0.15620543 0.1597199
000230 d7 52 12 be e2 db 34 be cc 2c 20 bd ba 2c 83 3a
       -0.14289413 -0.17662004 -0.03910522 0.0010007836
000240 5c 7b 1b be 2b 08 1b be 40 f7 4b 3e 01 f5 ca 3d
       -0.15183777 -0.15139835 0.19918537 0.09910012
000250 c9 10 0a be 2c 7f 4e be 1a 57 16 3e 2c 4a 3b be
       -0.13482966 -0.201657 0.14681664 -0.18290013
000260 70 a3 9b 3d 7f 96 0e be 79 ce 4d 3e 3b d0 00 3e
       0.075995326 -0.13924597 0.20098294 0.12579434
000270 27 7f 00 be 79 49 22 3e 59 22 e4 bc 56 89 00 be
       -0.12548505 0.1584834 -0.02784841 -0.1255239
000280 99 f6 5f 3e 59 66 0a 3d 1b e0 1f be c9 c2 2e 3d
       0.21871413 0.033789013 -0.15612833 0.04266623
000290 01 35 4c 3e 25 31 21 be 97 d2 db 3d 4b 20 e6 bb
       0.19942094 -0.15741403 0.10733526 -0.0070228926
0002a0 0e f9 45 bd dc 15 4d 3e 00 67 19 3e d2 2c 39 3e
       -0.04833322 0.2002787 0.14980698 0.18083504
0002b0 d6 51 fc bd 33 51 1c 3e 0a fb 32 3e 14 38 31 be
       -0.123202965 0.1526535 0.17478576 -0.17306548
0002c0 bd b2 50 3e 53 4e b4 3c 87 fc 70 3e 3f 5f 3e be
       0.20380683 0.022010004 0.23533832 -0.18591021
0002d0 c0 b5 3b be 64 3d 64 3e e9 a4 20 3e e9 f8 7b 3d
       -0.18331051 0.22289044 0.15687908 0.061516676
0002e0 ee 07 37 3e 03 f4 26 be c5 e6 e4 ba 4c f3 9f 3d
       0.17874119 -0.1630402 -0.0017463794 0.07810077
0002f0 4a e7 1a be 8f 8d 90 bd e5 d3 cb bd 65 0d 03 3e
       -0.15127292 -0.0705825 -0.09952525 0.12798078

GRU.weight_hh_l0 f4 [192, 64]
000000 2c d9 0c 3d 66 e9 26 3d ea ad 25 3d 9e 63 e9 bd
       0.0343868 0.04074993 0.04044906 -0.113959536
000010 50 72 a3 bd 35 ee 88 3d cc 34 37 bc 08 ed bc bd
       -0.07980788 0.066860594 -0.011182021 -0.092248976
000020 4d d3 e2 3d 8a 6e a9 bd 30 a3 27 3c e6 d4 f9 3d
       0.11075459 -0.08273037 0.010231778 0.1219881
000030 44 8b ce bd aa 8d ec bd d6 82 50 3c da 64 34 3d
       -0.100851566 -0.11550458 0.012726506 0.044041492
000040 66 2b ec 3c 85 6a 66 3d 3d 28 83 3d 66 c4 24 3d
       0.028829288 0.05625393 0.06404159 0.040226363
000050 8d 90 cf bc 62 41 01 3e a7 83 79 3d 61 11 34 bd
       -0.025337482 0.12622598 0.06091657 -0.043961886
000060 3c 5e a1 bd 19 62 00 3e 0c a8 f3 bc d3 cb 0b be
       -0.07879302 0.12537421 -0.029743217 -0.13651972
000070 d9 a8 c5 bd a7 b3 10 bd 75 5d 12 3e 2c 2b bc 3c
       -0.09651346 -0.03532758 0.14293464 0.022969805
000080 59 81 ad bd 9c 10 68 3d c7 33 89 bd 38 52 81 3c
       -0.08471937 0.056656465 -0.06699329 0.015786275
000090 b2 8d e9 bd 5f 94 ef bd 25 67 13 be a4 a3 f3 3d
       -0.11403979 -0.116982214 -0.14394815 0.11896446
0000a0 1c a0 c8 3c 73 cb 39 bd a5 70 a8 3d 5c fd a3 bd
       0.024490409 -0.04536004 0.0822461 -0.08007309
0000b0 cd eb 0c 3c 7b 1e ad bd 93 c2 8b bb e1 5c eb 3d
       0.008601141 -0.08453079 -0.0042651384 0.114923246
0000c0 12 85 16 be 31 da e3 bc 97 ab 54 3d 84 82 bf bd
       -0.146992 -0.027814003 0.051921453 -0.09351066
0000d0 74 0b a9 3b 7d 27 04 3e e2 0a 09 3d 55 a3 0f 3e
       0.005158836 0.12905689 0.033457644 0.1402715
0000e0 55 b7 3f 3d 91 a6 b3 bd 50 e6 74 3d f0 76 00 be
       0.0468057 -0.087720044 0.059789956 -0.12545371
0000f0 13 e3 64 3c 33 07 a6 bd 46 25 32 be a0 50 24 3e
       0.013970154 -0.08106842 -0.17397031 0.16046381
000100 d4 18 3d bb b1 e1 a5 3e 69 79 b5 3d 0f 5b 1d bd
       -0.002885391 0.3239875 0.08861048 -0.03841692
000110 a1 b5 c1 3d b1 d7 72 bd b1 47 3b 3e 98 75 a5 3d
       0.09458471 -0.05928773 0.18289067 0.0807907
000120 19 27 5f bc 84 b7 f6 bd 18 14 84 bd 24 b5 cc 3d
       -0.013620161 -0.120467216 -0.06449145 0.09995487
000130 9b 2d 9e bc 92 47 db bc 7d 08 98 bd 3a 99 59 3e
       -0.019308856 -0.026767526 -0.07423494 0.21249858
000140 41 50 b9 3d 00 e8 8f bd c0 10 57 bd 1c 83 1a 3e
       0.0904851 -0.07026672 -0.05250621 0.15089077
000150 80 00 d7 bd 53 02 b0 bd 2a 59 d9 bc fd 40 d2 bb
       -0.10498142 -0.08594193 -0.026531775 -0.0064164386
000160 72 e2 55 bd 62 7d ab 3d 60 29 28 3e cd 27 1e 3e
       -0.05221791 0.08373524 0.16422033 0.1544487
000170 ee 8e 5b bd da 40 5b 3e 35 f7 15 bc 08 65 61 ba
       -0.053603105 0.21411458 -0.009153177 -0.00085981237
000180 05 f5 c8 38 74 e6 09 3e d0 09 a9 bd 1b 98 21 bc
       9.5823816e-05 0.13466817 -0.08253825 -0.009862925
000190 61 d9 06 3e 6e 60 97 bc 98 1b 40 3c b0 4b ae 3d
       0.13168861 -0.018478598 0.011725329 0.0851053
0001a0 b0 78 95 3d 13 36 b4 3d 45 c3 95 bd 99 31 18 3e
       0.0729841 0.08799376 -0.07312635 0.1486267
0001b0 81 c0 8e 3c 9a c7 c4 3d 62 f6 31 3e 55 ab fa 3c
       0.017425777 0.096083835 0.17379144 0.030599276
0001c0 23 f3 ef bb 1d 0f 96 3d a8 31 cf bd e0 d2 7d bd
       -0.0073226853 0.073271014 -0.10116893 -0.061968684
0001d0 4f ec 06 be 21 0c 27 bc f8 90 f4 3c 44 85 fe 3c
       -0.13176082 -0.010195763 0.029854283 0.031069405
0001e0 c1 43 ab 3d 89 95 76 3c bc 3a bb 3d c2 32 34 bd
       0.083625324 0.0150503 0.09142062 -0.04399372
0001f0 b9 3c 35 be 13 b9 95 bc bb c4 a0 bd 16 09 ec bc
       -0.17698945 -0.018276727 -0.07850023 -0.028812926
000200 e5 58 f6 bd 72 c1 d3 38 ac 7f af be da 95 f2 bc
       -0.12028674 0.00010097296 -0.34277093 -0.02961247
000210 85 c8 93 bd fb 08 d6 bc 2e 4d 25 3d 09 ec da bd
       -0.072159804 -0.02612733 0.040356807 -0.106895514
000220 bc ca ba 3b 92 44 28 bd 48 12 8a bc 1c 2b f8 3d
       0.0057004374 -0.04108102 -0.01685442 0.121175975
000230 22 8a fb bc dc 86 f4 3d 09 b3 32 be d9 58 9a 3d
       -0.030705515 0.11939785 -0.17451109 0.075364776
000240 cb f7 a2 bd 4b 8a 33 3d e1 0e 97 3d 7a 06 6c 3d
       -0.07957419 0.04383306 0.07375885 0.057623364
000250 db 47 ca 3c 0a e7 ad bd c6 45 0d 3c c0 40 18 3e
       0.024692466 -0.08491333 0.008622592 0.1486845
000260 87 e4 13 3d e6 9b 57 3d c1 ca df 3d 50 ee 80 bd
       0.036106613 0.05263891 0.10927344 -0.062954545
000270 8a 3b 3b 3b 8f 06 50 be 5c 09 a3 3d d4 a0 dd 3c
       0.0028569424 -0.20315002 0.079607695 0.027054228
000280 e1 79 b4 bd fc a4 82 bd 9c 69 c4 bd 0c d4 5b 3e
       -0.08812309 -0.063791245 -0.09590456 0.21467608
000290 54 8b 62 bd c7 87 00 bc ac 51 b4 3d 25 2d ac 3d
       -0.055308655 -0.007844872 0.0880464 0.08407048
0002a0 e5 3b 6d 3d 8b 7a c2 3c da 02 be bd 08 05 db 3c
       0.057918448 0.023740074 -0.09277888 0.026735798
0002b0 46 cc 9c 3d 7a d8 58 bd f1 93 c5 3d b9 f3 0b 3e
       0.076561496 -0.052940823 0.09647358 0.13667192
0002c0 4d cf 00 3d e2 a0 6d 3d 01 68 b8 bc 57 e2 90 bc
       0.031447697 0.058014758 -0.02251053 -0.017686052
0002d0 d5 3d 4c 3d 53 5d 8e 3d df 70 be bd eb ad 82 3d
       0.049863655 0.06951394 -0.09298872 0.063808285
0002e0 5e b1 24 bd f7 4c cb bd e2 44 1a 3e e1 fa 9c bd
       -0.040208213 -0.09926789 0.15065339 -0.07665039
0002f0 b7 07 bb 3d 1d 99 b2 3b 12 b6 62 3c 7b b7 93 bb
       0.09132331 0.0054503814 0.013837354 -0.0045079566
000300 20 4d 95 bc 21 36 91 bc 9f ea 79 3d 43 a6 8b 3e
       -0.018225253 -0.017726006 0.061014768 0.27275285
000310 a2 1c 7d 38 e0 bd d0 3d ab d0 ed bd 05 0b 7e 3d
       6.0346567e-05 0.10192466 -0.11612066 0.062022228
000320 17 25 e8 3c 10 25 20 3e 1b 07 06 3d be 61 20 be
       0.028337998 0.15639138 0.03272162 -0.15662286
000330 5e c8 24 3e 25 25 ba 3d a2 2f 5f 3d ac 0f 03 3e
       0.16092059 0.09089116 0.054488786 0.12798947
000340 32 5e 0b bd 00 c6 2f 3e f0 63 a9 3b 60 b6 d7 3d
       -0.03402538 0.17165375 0.005169384 0.10532832
000350 45 e9 42 bd f9 1f fb bc ab 5e c4 3d a1 5e be bd
       -0.047585744 -0.030654894 0.09588369 -0.09295393
000360 16 10 57 3e 42 99 ce 3d ac 1e b1 3d 73 d7 90 bc
       0.2100223 0.10087825 0.08648428 -0.01768086
000370 a1 55 20 bd 06 be 2e 3e 91 60 65 bd ec ae 65 bc
       -0.039144162 0.17064676 -0.056000296 -0.014018755
000380 4f c1 d3 bd 3a a0 b2 bd 23 f8 dd 3c a1 10 6f 3d
       -0.10339605 -0.08721967 0.02709586 0.058365468
000390 a0 69 92 bc 69 b5 ab 3d 17 17 84 3d ea a6 13 be
       -0.017872632 0.083842106 0.064497165 -0.14419141
0003a0 2a 5b 29 be ec 82 af bd c9 ef 26 3d 45 31 6f bd
       -0.16538683 -0.08569893 0.04075602 -0.058396596
0003b0 a1 e5 d7 bd 61 cf 0e 3e 52 b8 5e be 5d a3 0e be
       -0.10541845 0.13946296 -0.2175 -0.13929506
0003c0 74 fc 04 be d6 60 66 3d 66 e7 13 3e 15 59 12 bd
       -0.12986928 0.056244694 0.1444374 -0.035729486
0003d0 7b 25 cd 3d 7b 30 35 3e 2b 23 3d be fe bd 5d bd
       0.100169145 0.17694275 -0.18470447 -0.05413627
0003e0 31 25 73 bd c3 37 53 3e a4 f4 28 be e2 ce 95 bd
       -0.05936164 0.2062674 -0.16499573 -0.073148504
0003f0 a6 d8 ca 3d eb fe 9e 3d 5d 24 92 bd 4e 81 21 bd
       0.09904604 0.077634655 -0.07135842 -0.039429955

GRU.bias_ih_l0 f4 [192]
000000 fe 64 47 be 8e cb 5d bd d7 39 15 be 95 fc b7 bd
       -0.19472119 -0.054149203 -0.14572845 -0.08983723
000010 9d 68 1e bd 5f 9a f3 3c 6e ae 26 3e 85 2a a3 be
       -0.038673986 0.029736696 0.16277477 -0.31868377
000020 fa 3c a0 bd 98 6b ed bd c0 35 ed 3d 23 f9 09 be
       -0.0782413 -0.115927875 0.115825176 -0.13473944
000030 89 c1 c1 3b 3c f9 d2 3d c7 af cb bd 1b 31 b1 3b
       0.0059129638 0.10301444 -0.09945636 0.005407465
000040 de ed d2 be 8c 2e 9b bc 3b 25 6b be 74 03 1a bc
       -0.41197103 -0.018943094 -0.22963421 -0.009400237
000050 58 cc 01 bd 11 88 97 bd e2 87 ff bb 09 19 75 3d
       -0.031689018 -0.073989995 -0.007798181 0.05983833
000060 8e d4 ad 3d 04 c6 1c 3e 03 a8 1f be 52 52 2c 3e
       0.08487807 0.15309912 -0.15591435 0.16828278
000070 b9 28 67 be 9f 20 37 3d 13 3f 95 3c fe ce 2e bd
       -0.22574128 0.044708844 0.018218553 -0.042677872
000080 24 8f 83 be b5 33 18 bc ec 6f c4 bc ad a9 8f bd
       -0.25695145 -0.009289672 -0.02397915 -0.07014785
000090 62 46 43 be 08 0d 05 bc c8 97 74 bc 0a fd a5 bc
       -0.19069818 -0.008120783 -0.014928766 -0.02026226
0000a0 21 31 a0 bd ef 04 56 be 63 65 56 bd c0 82 23 be
       -0.078218706 -0.2090032 -0.052342784 -0.15967846
0000b0 9f 5e d7 bd 41 2d ec 3d a4 e5 33 3c 31 a6 2f bd
       -0.105160944 0.11532069 0.010980044 -0.0428831
0000c0 f5 9c 00 be 4f 1a 72 bc bd b3 d6 bd 94 e1 86 be
       -0.12559874 -0.01477678 -0.10483501 -0.26343977
0000d0 94 6c 45 bc 10 c6 55 bd ea b2 80 bd 7c fa 88 bd
       -0.012049813 -0.05219084 -0.06284125 -0.06688401
0000e0 63 ac 65 bd 0e 41 cb 3d e7 7a 4e be 83 71 84 bc
       -0.056072604 0.099245176 -0.20164071 -0.016167408
0000f0 5f e4 23 be 4b 2b bb bd 6d 41 05 be ad da 11 bc
       -0.16005085 -0.09139117 -0.13013239 -0.008902234
000100 ac 71 d5 3d c9 b3 56 be 17 e6 ec be 9d 39 1b be
       0.10422072 -0.2096702 -0.46269295 -0.15158696
000110 1e 2b 96 be 17 03 76 be ae 1d ab be c6 fd e2 be
       -0.2932977 -0.24024616 -0.3342108 -0.4433424
000120 74 28 09 be 6a 32 c2 be dd df 0a bf af 5d ff be
       -0.13394338 -0.37929088 -0.5424784 -0.49876162
000130 fa 28 78 be 9e 40 c0 be 20 59 3a bd d4 ee af 3e
       -0.24234381 -0.375493 -0.045495152 0.343619
000140 98 ce 95 bd d0 31 c4 be 53 2a 0b bf 84 f8 1a 3e
       -0.07314795 -0.38319254 -0.54361457 0.15133864
000150 1b 31 a6 be 43 6c e7 be cd 17 b5 3d e0 2c a9 be
       -0.3245934 -0.45199785 0.0884243 -0.3304205
000160 30 7c eb bd 24 12 a9 be 59 59 7d be e2 36 aa be
       -0.11498296 -0.33021653 -0.24741115 -0.33244997
000170 12 be 74 be bd b1 b8 be cb 08 14 be b9 9f cd be
       -0.23900631 -0.36073104 -0.14456479 -0.4016092
000180 eb 5e 88 be d3 fc a1 3e 30 f9 0c bf 3b c0 8b bd
       -0.26634917 0.31638202 -0.5506773 -0.068237744
000190 af 60 9c be c5 09 fc be 7c d1 e9 be 16 04 43 3e
       -0.30542514 -0.49226204 -0.45667636 0.19044527
0001a0 59 0d cc bd 3b 42 b5 be 75 9c 91 be 09 1b de be
       -0.09963483 -0.35402092 -0.2843968 -0.4338
0001b0 74 74 b2 be ad da 02 bf 3b 24 09 bf b0 5b c2 be
       -0.34854472 -0.5111492 -0.5357091 -0.37960577
0001c0 f4 27 5e be fe 1e ca 3d aa 7d bc be a3 16 ba be
       -0.21694928 0.098691925 -0.36814624 -0.36345395
0001d0 67 9b fd be 01 cb ed be 84 52 d7 be cb 77 0c 3e
       -0.49532625 -0.46443942 -0.42055142 0.13717572
0001e0 c9 34 d6 be 1e 2f fc be 7c 21 43 bc 0a c2 81 be
       -0.41837147 -0.49254698 -0.011909839 -0.25343353
0001f0 45 8e c2 be d9 5e a8 be 85 42 f5 3c cd fe 68 be
       -0.37999168 -0.32884863 0.029938946 -0.22753449
000200 65 dc ba 3b d2 50 83 3d 2e 35 66 bd d7 0f ae 3c
       0.0057025426 0.064118996 -0.05620306 0.021247787
000210 3b c0 b9 3d 19 cb 63 3d ea 2d 83 bc 5d 29 c0 3d
       0.09069868 0.05561361 -0.016013104 0.093828894
000220 de 52 46 3c 51 19 f3 3d 60 5e 8b 3a c4 e6 7a bd
       0.012104718 0.11870063 0.0010632984 -0.06125523
000230 f3 33 0c 3c eb 97 bd 3c c4 d9 e7 3c af b9 91 3b
       0.0085573075 0.02314373 0.02830208 0.004447184
000240 14 af 98 3d 8e cf 3f 3d 22 df 99 bd 5c f8 a6 bd
       0.074552685 0.0468288 -0.07513262 -0.081528395
000250 84 26 33 b9 47 b2 77 3d 1a 30 af bd 97 69 dc 3b
       -0.00017085118 0.060472753 -0.085540965 0.0067264545
000260 99 88 fe bb bf 03 a2 bc 4b 8d e5 bd b0 ed 22 bc
       -0.0077677486 -0.019777177 -0.1120859 -0.009944364
000270 5b 44 78 3d 5e b5 d8 bd c7 fc 8d bc ac 4d dd 3c
       0.060612064 -0.10581468 -0.017332448 0.027014576
000280 35 e3 03 be 7e 73 22 3d 91 43 a9 bc 7b 5d be bc
       -0.12879641 0.039660923 -0.020662101 -0.023237934
000290 75 78 92 bd 5e 2b b1 3b 3a ba cb 3c fe 31 a2 bd
       -0.071518816 0.005406781 0.024869073 -0.079196915
0002a0 ff 6a 2c 3d 73 4d 02 be e5 15 dd bc d9 b8 4c bd
       0.042094227 -0.12724857 -0.02698798 -0.049980972
0002b0 f0 fb b6 3d b2 32 cd bb 40 f6 22 bd b2 06 2e 3d
       0.08934772 -0.006262147 -0.039785624 0.042486854
0002c0 86 71 b8 bd 2b c3 b6 3b 73 01 da bd ee 93 a3 3d
       -0.09006028 0.005577465 -0.10644808 0.079872
0002d0 66 cd 41 3d d6 21 61 bd 40 fe e0 bd 04 de c0 ba
       0.047315024 -0.05496391 -0.10985994 -0.0014714603
0002e0 5f 42 91 bc 09 b6 8a 3c ad 2d 68 bc 3d 37 12 bc
       -0.017731844 0.016932504 -0.014171046 -0.008924303
0002f0 b0 73 94 3d b0 ee 06 3d 0b 33 75 3d 47 e5 d1 bd
       0.07248628 0.032942474 0.05986313 -0.10248809

GRU.bias_hh_l0 f4 [192]
000000 89 d2 b9 bd ec 4d 12 be 7e 4b 23 bd 83 cd 8e bd
       -0.090733595 -0.14287537 -0.039866917 -0.06972792
000010 7d 8e e1 bd 23 ef 38 be 9f ec 7f 3c b7 b4 1f be
       -0.110135056 -0.18059973 0.01562038 -0.15596281
000020 0d c5 3f be 79 98 8c bc 19 3c d3 bc 1e fb 6c bc
       -0.18727513 -0.017162548 -0.025785493 -0.014464168
000030 9e c9 ca bd 62 9e a6 3d 76 c4 0f bd 90 10 7a be
       -0.09901737 0.08135678 -0.03509947 -0.2442038
000040 f3 ae 83 be 1d 25 09 bc 27 f7 06 be 8a fe 9e bc
       -0.25719413 -0.008370665 -0.13180219 -0.019408483
000050 cc a9 ba 3c 96 d1 20 3d fc 4a 53 bd 3b 20 a2 3d
       0.022786044 0.039262377 -0.051585183 0.07916304
000060 24 99 ec 3d 24 a4 7d bd c3 6f 8b be 64 2e ff 3d
       0.11552647 -0.061924115 -0.27233705 0.1246002
000070 9b 03 4c be 87 cd 4a bd d0 6d 01 3a b4 81 fd bb
       -0.1992325 -0.049512412 0.0004937323 -0.007736409
000080 ea 3c 52 be 62 08 83 3b c6 3e b8 3d 7e 67 89 be
       -0.2053105 0.003998802 0.08996348 -0.2683677
000090 b2 52 86 bc 31 71 b1 bd a3 74 01 3e b9 77 cd 3d
       -0.016396854 -0.08664168 0.1264215 0.10032601
0000a0 8c 20 a4 bd ed 15 20 be b7 61 a5 bd 5a 70 30 be
       -0.0801402 -0.15633364 -0.08075278 -0.17230359
0000b0 7f bf a4 bd aa ec 38 bb c0 25 7e 3d ca 57 1a be
       -0.080443375 -0.0028217235 0.06204772 -0.15072551
0000c0 9b 04 f0 bd 91 1d 28 be 8d fe f6 bd 2f 56 9e be
       -0.117196284 -0.16417529 -0.120602705 -0.30925128
0000d0 e2 d6 0c be 2d 46 c2 bd e7 38 fd bd 1a 3d 45 bd
       -0.13753846 -0.09486041 -0.12364369 -0.048153974
0000e0 77 d1 bf bd 0f 2f c6 3c d4 d4 e3 bd 59 45 ae 3c
       -0.09366124 0.024192361 -0.11124578 0.021273302
0000f0 f5 fd a7 be f8 6c 93 be 1a 3c bc 3c b6 8f f6 bc
       -0.3281094 -0.28794074 0.022977877 -0.030097824
000100 b2 fd 85 3c 7f f9 3c be 0f c9 d4 be a9 74 19 be
       0.016356323 -0.1845455 -0.41559646 -0.14985909
000110 91 2a d3 be a6 0d b8 be c8 ce 0f bf 53 5d c8 be
       -0.41243413 -0.35947913 -0.561749 -0.391337
000120 8a fe 2b be ae db 82 be db 27 11 bf 22 67 9a be
       -0.16796318 -0.25558227 -0.5670144 -0.3015681
000130 2f 2d 9e be 32 83 b3 be a5 94 8e bd e2 ff 94 3e
       -0.30893847 -0.35061032 -0.069619454 0.29101473
000140 7c 26 97 be db 7e ca be fd 67 04 bf b5 d3 49 3e
       -0.2952155 -0.39549908 -0.51721174 0.19709666
000150 10 3a e9 be 20 9f 97 be 03 c0 82 bd b8 d9 ad be
       -0.4555211 -0.2961359 -0.063842796 -0.3395517
000160 77 db 0c 3c 97 e3 9d be be f1 db be 00 3a b4 be
       0.008597246 -0.308377 -0.42957872 -0.352005
000170 45 07 c2 be 72 93 b1 be 09 1f 2e 3d c2 d2 f1 be
       -0.3789617 -0.34682804 0.042510066 -0.47231108
000180 41 aa 97 be ad c3 8f 3e b8 07 0f bf e9 13 5b 3c
       -0.2962208 0.28078976 -0.5587115 0.013371446
000190 a1 22 f5 be 18 2d f9 be 93 8d d6 be 09 af 14 3d
       -0.47877982 -0.48667216 -0.41904888 0.03629974
0001a0 b0 64 41 be a5 69 b5 be e6 d5 02 be 6b ca b9 be
       -0.18886065 -0.35432163 -0.12776908 -0.36287245
0001b0 8b 91 f7 be ba 84 ba be b4 2c e6 be b6 58 9d be
       -0.48353228 -0.36429387 -0.4495598 -0.30731744
0001c0 85 f5 88 be 30 e7 38 3e 29 a1 8f be b2 03 7c be
       -0.26749817 0.18056941 -0.28052643 -0.24610785
0001d0 71 f9 ea be 18 2b 8d be 47 0b ba be be db 94 3e
       -0.45893434 -0.2757194 -0.3633673 0.290739
0001e0 2d 3d a1 be 7a 28 bd be 00 93 bc bd 3e 70 5d be
       -0.31491986 -0.36944944 -0.092077255 -0.21624848
0001f0 21 03 aa be c5 82 fa be 1c bd 5b 3d 89 20 86 be
       -0.33205512 -0.48927894 0.053647146 -0.26196697
000200 43 29 4f bc 00 62 1f bd 19 f9 2b 3d ec 9b 76 bd
       -0.012644115 -0.03891182 0.041985605 -0.060207292
000210 4d a8 d1 bc c7 ca b6 3c 84 94 f8 bd 0e 26 b0 bc
       -0.025592947 0.022313489 -0.12137702 -0.02150252
000220 92 c1 2a bd 02 13 57 bd 36 9d 0c 3e 7e b1 54 bd
       -0.04168851 -0.05250836 0.13731846 -0.051927082
000230 1c 87 0b 3e cc c9 f1 3d 2f 1a 25 bb 53 6d 98 bc
       0.13625759 0.11806068 -0.0025192609 -0.018606817
000240 9a 03 fd 3b ca 1f 39 3d 0b c6 33 bd a8 da aa 3d
       0.0077213766 0.045196332 -0.04389004 0.083424866
000250 d7 e2 0d 3e 64 2e 94 3d 0f f4 9c 3c fc 6d 13 3e
       0.13856064 0.07235411 0.019159345 0.14397424
000260 91 c8 00 bd ec b3 27 3e d4 0e e4 3c b3 fc bd bd
       -0.031441275 0.16377228 0.027839102 -0.09276714
000270 62 a7 90 bb 66 9c 93 3d 93 bd 63 3d 75 40 88 3d
       -0.004414485 0.07207565 0.055600714 0.06652919
000280 56 11 8f 3d c6 4a db bd 19 6d 3b 3e 67 15 29 bc
       0.069857284 -0.10707621 0.18303336 -0.010320044
000290 19 fc 7a bd e0 c4 2d 3e 95 8a 17 be 8c bb 0e 3e
       -0.061275575 0.16969633 -0.14798959 0.13938731
0002a0 3f cc 46 bd bf d1 a6 3d 2a ef cb bd b7 20 e5 bd
       -0.048534628 0.08145475 -0.09957726 -0.111878805
0002b0 17 34 88 bd e0 50 0a be 54 60 d1 bd 44 6d cf 3d
       -0.0665056 -0.13507414 -0.10223451 0.10128263
0002c0 ab 37 a1 bc 2b c5 b7 bc 4c 40 38 bc bd ae 18 3d
       -0.019679865 -0.022432884 -0.011245798 0.03727602
0002d0 bd 14 e0 3d 14 4a 08 be d1 34 98 3d bb 82 8b bd
       0.109414555 -0.13309509 0.07431949 -0.06812044
0002e0 c4 19 17 be 3c ed e9 3d 69 12 ce 3c 4a 64 56 bd
       -0.14755923 0.11422202 0.025155263 -0.052341737
0002f0 6b c0 11 3c 7c c8 31 3c e5 93 00 bd c6 14 c8 3d
       0.008895974 0.010851022 -0.031391043 0.09769587

GRU.weight_ih_l1 f4 [192, 64]
000000 8e 28 93 bd 31 27 0f bd 78 79 17 3d 9b 2b 4c bd
       -0.071854696 -0.034949485 0.036981076 -0.049846273
000010 bb 9c c8 bd 45 79 b4 bd bb 89 ae bc b0 d1 56 be
       -0.09795519 -0.08812193 -0.02130591 -0.20978427
000020 ff 44 92 3d 30 82 0a be 5a d3 e0 bd 0f b3 f4 3d
       0.07142066 -0.13526225 -0.10977812 0.11948215
000030 7a e6 a7 bd 69 de 90 bd 0e 81 2d bd aa fc 07 3e
       -0.08198257 -0.07073671 -0.042359404 0.13279977
000040 d2 4e 56 bb f5 92 56 3c 15 64 02 3e a7 01 30 3e
       -0.003270079 0.013096561 0.12733491 0.1718813
000050 13 b3 78 3d c2 65 89 bd ba 3a 4c bd d6 df c8 bd
       0.060717653 -0.06708862 -0.049860694 -0.09808318
000060 3c 9b ef 3d b8 9f ad bc 21 d4 6a 3e 32 ee 05 3e
       0.116995305 -0.021194324 0.22932483 0.13079146
000070 86 9f 22 bd b3 c8 30 3d 5a ed 4b 3d 03 f7 db 3c
       -0.039702915 0.04316015 0.049786903 0.026851183
000080 19 0b 03 3d c3 fe 14 3e 30 f7 14 be c1 16 88 3d
       0.031993005 0.14550309 -0.1454742 0.06644965
000090 7b 0a a6 3d 15 30 c1 bd f5 0f 91 3d 1e f2 20 39
       0.08107468 -0.09432999 0.07083122 0.00015348985
0000a0 d6 d7 dd bc 8e f9 10 3e 0e 6c 67 3b 6b 1f 42 3e
       -0.027080458 0.14157698 0.0035312208 0.18957298
0000b0 9c 18 2f bc aa ef be 3d 8f 9d a4 3d 6f ef d0 3c
       -0.01068702 0.09323056 0.080378644 0.025504796
0000c0 84 6b 77 3d b4 c3 f6 3d c6 aa 61 3e 01 1b a2 bd
       0.06040527 0.12049046 0.22037801 -0.07915307
0000d0 22 fa b2 3c 9c 03 c9 3d 35 b7 72 bc 6b ef d3 3c
       0.021847788 0.098151416 -0.014814188 0.025871
0000e0 62 12 e5 3d 1d c6 b9 bd 6b bf 9e 3d e6 87 a3 3d
       0.11185147 -0.0907099 0.07751354 0.07984905
0000f0 f1 e1 36 3d 13 70 dc 3d 84 4b 8c bd 81 1c be 3d
       0.04464907 0.10763564 -0.06850341 0.092827804
000100 b2 df 7e be d4 7a 2d 3d de 48 be bd 2b 5b 82 be
       -0.2489002 0.042353466 -0.09291242 -0.2546018
000110 c3 a0 85 3c 60 a0 56 bd b6 bd 2d 3d f7 b3 ee bd
       0.016312009 -0.05239904 0.04241725 -0.11655419
000120 e5 ea f3 3d d8 6b 90 bc 2d 0b a7 3d 1a 6e d6 3d
       0.11910037 -0.017629549 0.081564285 0.10470219
000130 aa a6 21 3d 0c f8 1c be 89 1a 5f be 17 0b 06 3e
       0.039465584 -0.15328997 -0.21787466 0.13090168
000140 9e 20 2d bd 53 25 e5 bc 53 24 64 3d 5f 5c bb 3d
       -0.042267434 -0.0279719 0.055698704 0.09148478
000150 ae e3 06 3d 3f a2 53 be dd c4 24 3e cf 13 35 be
       0.032931976 -0.2066736 0.16090722 -0.17683338
000160 90 22 de 3d 8b ff 20 3b e8 75 a0 3d f9 52 96 bc
       0.10846436 0.0024566378 0.07834989 -0.018350111
000170 06 55 9c bb 0e c1 b0 bd 82 94 02 3e b0 3f ca 3d
       -0.004770878 -0.08630572 0.12751964 0.09875429
000180 dd a6 26 3e d2 a7 0a 3e cf c8 f8 3b 65 d7 94 3d
       0.16274591 0.13540581 0.0075922976 0.07267646
000190 b6 68 0e bd ce 29 2c bd 67 2e d4 bd b5 4f 5a 3e
       -0.03476783 -0.042032056 -0.10360413 0.21319468
0001a0 79 c3 e7 bd e2 d3 eb 3d a1 3e eb bc ce e5 d0 3d
       -0.1131658 0.11515023 -0.028716387 0.10200082
0001b0 7b 0b ee 3d 32 2f 09 3d 79 b7 14 3d d5 63 f5 bd
       0.116232835 0.033492275 0.036307786 -0.11981932
0001c0 61 f6 30 3d 64 de 46 3c 29 1d e1 3d 2e cc 9b bd
       0.043203715 0.012137983 0.1099189 -0.076073036
0001d0 8f ae 87 bd 18 c0 6b 3d 8f 05 64 bd 18 c4 81 3e
       -0.06625091 0.05755624 -0.055669364 0.2534492
0001e0 e0 a1 b4 3d 4b 3a 5d bd 97 41 34 3e 7a c7 ae 3c
       0.08819938 -0.05401067 0.17603146 0.021335352
0001f0 13 9f 72 bd d2 11 ad 3d 4b 80 c5 bd f6 b9 18 3e
       -0.059233736 0.084506646 -0.096436106 0.14914688
000200 19 4f 4a 3d d0 69 f4 3c 77 2f a0 3d 35 e8 7c bd
       0.04939184 0.029835612 0.07821553 -0.061744887
000210 69 e8 fe bc 18 92 a3 3d 26 40 28 be 61 2a d9 bc
       -0.031116681 0.079868495 -0.1643072 -0.026509466
000220 98 7d 1c 3d 4a a0 37 3e be 19 d1 bc 50 71 64 be
       0.038205713 0.17932239 -0.02552497 -0.2230885
000230 a8 00 b6 3c 13 39 ea bd c9 72 fb ba ce 07 4a bd
       0.02221711 -0.11436667 -0.0019183989 -0.04932385
000240 13 6f d3 bd da a0 a4 bd be 83 8d 3d c5 67 eb bc
       -0.1032392 -0.080384925 0.069098935 -0.028736005
000250 c7 c8 c3 3b bd 77 7e b9 0d c8 5e 3d 3d 15 39 bd
       0.0059748623 -0.00024267934 0.054390002 -0.04518627
000260 86 43 a2 3d 3c 5d 94 3d 0c 2a 94 bc 78 4b 0e bd
       0.07923035 0.072443455 -0.018086456 -0.03473994
000270 e9 4e 10 be 23 7b 03 bd 27 4c 98 38 ab c8 f0 3c
       -0.14092602 -0.032099854 7.262109e-05 0.029392561
000280 02 e7 25 be cf d7 01 3c d6 94 fa bc 10 b2 1b 3c
       -0.16201404 0.007924988 -0.030588549 0.009502903
000290 8a d5 20 be 96 16 57 3d f8 26 d9 3d c3 24 b1 3d
       -0.15706459 0.052511774 0.10603136 0.0864959
0002a0 e5 79 2a be d4 3d c5 bd 69 d1 93 bd ff 95 ef 3b
       -0.16648062 -0.096309334 -0.07217676 0.007311582
0002b0 5f 5b 1c 3d 2f d0 ae bd 75 5a c8 3d ca 52 98 3d
       0.038173076 -0.085358016 0.09782878 0.07437666
0002c0 0d f2 26 bd 26 62 95 bd ea 1c 24 bc 5b 39 a5 3d
       -0.04075818 -0.07294111 -0.010016659 0.0806758
0002d0 ef 39 da bd d8 99 17 bd 9d 48 92 bd ef 8b 7c 3d
       -0.10655581 -0.03701195 -0.07142756 0.06165689
0002e0 88 d9 d7 bc 3f 24 be bc 3c 74 e7 3c 82 f9 a2 3c
       -0.026348844 -0.023210643 0.028253667 0.019894365
0002f0 5b 90 52 bc 4b e8 39 bd d2 ac 73 3c 4c 24 59 3c
       -0.0128518 -0.045387547 0.014872747 0.013253283
000300 47 af 8f 3d 85 77 34 3e 24 a1 b6 b9 62 34 51 3d
       0.070158534 0.17623718 -0.00034833804 0.051075347
000310 a2 8f 51 3d d2 c6 bc bd 19 65 7d 3c f5 cc 93 bc
       0.05116237 -0.092176095 0.015465998 -0.018042067
000320 33 d9 94 bd 91 61 fb 3c 28 ad 34 bd e2 29 b5 3d
       -0.0726799 0.030686172 -0.044110447 0.08845879
000330 71 50 ac 3d db 31 5f 3d 73 04 ca 3b 28 21 96 3d
       0.084137805 0.054490905 0.006165081 0.07330543
000340 77 0e 7f 3d f9 17 02 bc 74 8e 29 3d 4f 0d 91 3d
       0.062269654 -0.007940286 0.04139562 0.070826165
000350 da ef a9 3d d5 ab 8b bd 4f 58 67 bc 49 af 99 bd
       0.08297701 -0.06819884 -0.0141201755 -0.07504136
000360 2f 43 4f 3d cf 52 6b 3d 78 81 ff bd 8c af c4 bd
       0.05060118 0.05745202 -0.12475866 -0.096037954
000370 d0 2b bd 3d 51 d7 0c be a6 58 35 bc 59 71 d8 bd
       0.09236872 -0.13754012 -0.011068499 -0.10568494
000380 35 b2 1b 3d 0d 6c 0c 3d d8 9e 79 bd 82 53 02 bd
       0.03801175 0.034282733 -0.0609425 -0.03181792
000390 ac 02 c9 3d 1a d8 cf 3b c9 5a 53 3c 14 fd 0c 3e
       0.09814963 0.0063429 0.012900063 0.13768417
0003a0 ae c2 f7 bd 66 2f e8 bd 27 2b c9 bc bd e2 aa bd
       -0.12097679 -0.113371655 -0.02455671 -0.08344028
0003b0 cc 64 1b 3d 7c b5 b2 bd 2d 8f d6 3d 19 9f ae bd
       0.037937924 -0.08726022 0.10476527 -0.08526439
0003c0 6d e8 f9 bd 3c 59 b2 bb 1e 4b 2d 3d f2 70 72 bd
       -0.12202535 -0.0054427665 0.042307965 -0.059189744
0003d0 7b 5f 79 bd be 8c 3b bd 93 c1 d1 3d 3e 45 59 3c
       -0.060882073 -0.04578852 0.102419995 0.0132611375
0003e0 d5 92 bc 3d 92 f1 e1 3c 3c 48 2b 3c ef 65 6d 3d
       0.092076935 0.02758101 0.010454234 0.05795854
0003f0 e9 05 10 3b 20 3b a5 3d bc 75 e6 3d b8 7c f0 3b
       0.002197618 0.08067918 0.11252925 0.0073390864

GRU.weight_hh_l1 f4 [192, 64]
000000 6d 91 da 3c 2a ec 0e bd a8 ef 1d bd 5a bc ad bd
       0.026680673 -0.034893192 -0.038558632 -0.08483191
000010 f6 0f 25 3c cb ee 19 3b 2f 51 80 bb 77 31 72 bc
       0.010074606 0.002348828 -0.003915928 -0.014782301
000020 27 6f 00 3e 1c a3 54 3d 89 3b 02 bc 4a 75 1c be
       0.12542401 0.051913366 -0.007948765 -0.15279117
000030 32 99 7b 3d ac c3 aa bd 76 62 95 bd 78 a9 b0 3d
       0.061425395 -0.08338103 -0.072941706 0.086260736
000040 9f 8d fc 3d 15 7e 08 bb 59 5f 18 3e 4f dd 0b bd
       0.123316996 -0.0020827104 0.14880122 -0.034146603
000050 d4 21 8c 3d e3 17 7e 3d 6d fa 23 3d f6 6b 0b 3e
       0.0684239 0.0620345 0.040033747 0.13615403
000060 0f 5b db bd 3b 69 b8 bc 17 f7 53 bc 6f 26 a9 3a
       -0.107107274 -0.022511115 -0.012937329 0.0012905131
000070 b4 de f5 bd f4 04 17 3e 98 7b c1 3c 42 b4 1b bd
       -0.12005368 0.14747983 0.023618504 -0.038013704
000080 d6 6d 3f 3b 41 31 14 be 9c 31 b0 bd 1b 4a c4 bd
       0.0029209754 -0.14471914 -0.08603212 -0.09584447
000090 a0 41 22 3d 0e b9 1d 3e 81 56 d9 bd ce d6 04 be
       0.039613366 0.15402624 -0.106122024 -0.12972566
0000a0 56 23 9a bc b7 78 23 bd 0c 58 18 3e 63 ed 23 bc
       -0.018815678 -0.039910045 0.14877337 -0.010005328
0000b0 44 f3 72 3d b1 9e 0a 3e 67 2a 2a be 24 2c 1b bd
       0.059314027 0.13537098 -0.16617738 -0.037883893
0000c0 fc 5e ed 3d 20 e1 a1 bd 62 1e 47 3e ba aa 95 bd
       0.115903825 -0.07904267 0.19445184 -0.07307954
0000d0 c9 30 a3 bd d9 23 24 be 98 eb 7e bd 29 1a 2c 3b
       -0.079682894 -0.160293 -0.0622364 0.002626071
0000e0 f9 96 1d be a6 d7 75 bc c9 ef 29 3d 62 ab fa bd
       -0.15389623 -0.015005028 0.041488443 -0.1223972
0000f0 1e 1a e0 bc 37 74 b1 bd 33 bf 97 bc 47 4a 7a 3d
       -0.027356204 -0.08664744 -0.018523788 0.061105993
000100 9d ad 26 be a2 ce ea bd 21 88 98 bc 00 58 df 3d
       -0.16277166 -0.11465193 -0.018619599 0.109054565
000110 9c c3 4c 3d b6 08 17 bd 85 62 13 3e 95 5e 56 3e
       0.049991235 -0.03687354 0.14393051 0.20934518
000120 8f 37 46 3d 06 21 2c 3d 5c 85 06 be 73 ba 90 bc
       0.04839283 0.04202368 -0.1313681 -0.01766703
000130 c3 0e 0e be d7 9f 97 bd 33 ec 0c be 76 98 3b 3e
       -0.13872819 -0.07403534 -0.13761978 0.18319878
000140 86 af 79 3d 61 6f 07 3d 0e c4 04 3e a6 1b b5 bd
       0.060958408 0.033065204 0.12965414 -0.08843164
000150 d8 e4 2c 3e 33 06 72 3e 90 d6 e2 bd ba e8 4b 3d
       0.16884172 0.23635177 -0.11076081 0.049782492
000160 85 e1 a9 bc 54 41 7f bd 6c 69 2a 3e 3c 9f d1 bd
       -0.020737419 -0.06231816 0.16641778 -0.1023545
000170 5d 7e 5a bd 76 db 1e 3e 7f 9f 2f 3d df 81 4d 3d
       -0.053343166 0.15513405 0.042876717 0.050172683
000180 9f d5 22 3e d4 a0 86 bd 78 bd 1f 3d b8 9c b1 3d
       0.15901802 -0.06573644 0.03899905 0.0867247
000190 7b 68 c2 3d f4 26 b9 bc a2 74 cb bd bf 59 a1 bd
       0.09492584 -0.022601582 -0.09934355 -0.07878446
0001a0 aa 1b 84 3e 02 be 0b be dc cc 2b 3e e9 0c 82 bd
       0.25802356 -0.13646701 0.16777366 -0.06350119
0001b0 97 04 f0 3d 88 a0 9d 3d 77 cb 58 be 87 df 06 be
       0.117196254 0.076966345 -0.21171366 -0.13171206
0001c0 fe bf 51 3e 9a 15 60 be c7 83 41 bd 0f 88 68 bc
       0.20483395 -0.2188324 -0.047244813 -0.014192595
0001d0 63 df 16 3e 8d ea 89 bd 42 33 8b be 4b 46 86 3d
       0.14733653 -0.0673419 -0.27187544 0.06556376
0001e0 9d da 73 be e1 a7 5f bd 19 34 6e be 37 ae 20 bc
       -0.23813863 -0.05460346 -0.23262061 -0.009807161
0001f0 d2 0e b2 3c 77 44 91 3d f1 56 44 bd de 2b 52 3e
       0.021735583 0.07093137 -0.047934476 0.20524547
000200 fe 79 0d be df 5a 5c be 24 67 e8 bd 81 24 0d 3e
       -0.13816068 -0.2151904 -0.113477975 0.13783456
000210 a7 63 97 3c 5d 74 9c 3d b4 f6 56 3d 2b 23 74 3e
       0.018480135 0.07639382 0.05248137 0.2384154
000220 f9 7a 5f 3c c8 81 02 be 14 22 ac bd 30 69 3f be
       0.013640159 -0.1274482 -0.084049374 -0.1869247
000230 6b 0c 47 be 26 69 23 be 1f 38 e5 3d 35 d8 95 3d
       -0.19438331 -0.1595808 0.11192345 0.07316629
000240 13 62 3b 3d a7 59 c8 3d da 0a d5 3d fe 4a ac bc
       0.045747828 0.09782725 0.104024604 -0.021031853
000250 a8 fc 84 3e d0 85 55 3e 47 ac 69 be 44 d7 01 3e
       0.2597401 0.20851827 -0.22819625 0.12679774
000260 f9 ad f2 bd 7f ec 87 bd 23 6d 7d 3d 4a 70 9c 3d
       -0.11849589 -0.06636905 0.06187166 0.07638605
000270 fb 50 fc bd ff e3 1f 3e 7d 12 9a 3d 03 42 0e 3e
       -0.12320133 0.15614317 0.075230576 0.13892369
000280 7e 4d 67 3e a8 08 19 be 50 c3 f3 bd 91 b0 01 be
       0.22588155 -0.14944708 -0.11902487 -0.12665011
000290 2e 58 f8 3a 30 4a a5 bd ae 11 8a be c3 88 0c be
       0.0018947178 -0.08070791 -0.26966614 -0.13724045
0002a0 b6 a8 b5 3d 76 60 19 be 0a f2 b7 bd b9 59 a8 3d
       0.0887007 -0.14978203 -0.08981712 0.08220238
0002b0 c4 13 37 3d c8 3b 22 bd 69 cd 78 bd bd cf 78 bb
       0.044696584 -0.039607793 -0.06074277 -0.0037965619
0002c0 fd 98 88 3e b6 ac 89 be 59 c0 e4 3d 8e 7a 96 3d
       0.2667922 -0.2688958 0.111695 0.07347594
0002d0 32 ce ed bc 59 ee ce bd 4e 14 aa bd 9a b2 97 bd
       -0.029028986 -0.10104055 -0.08304654 -0.074071124
0002e0 f0 e9 0a be c7 d1 32 3e e2 4c 3d be f5 3b 4e 3d
       -0.13565803 0.17462836 -0.1848636 0.05035015
0002f0 b1 08 38 bd f4 6e 9d bc b6 bb 00 be c4 b7 07 3e
       -0.044930164 -0.019217946 -0.12571606 0.13253695
000300 37 0e 8a bc f8 73 25 be 07 99 c6 bd bd 64 92 3e
       -0.016852481 -0.1615752 -0.096971564 0.28592482
000310 99 1d 89 3d 06 0f 3a bc 52 27 aa 3d 2f 5d 0d 3e
       0.066950984 -0.011356121 0.08308281 0.13805078
000320 42 b9 07 3e 64 af 0f be 25 c2 e1 3d a5 08 e2 bd
       0.13254264 -0.1403175 0.11023358 -0.11036805
000330 2a 61 48 be 11 9c 02 be f3 ac 44 3e 70 c8 f5 3a
       -0.19568315 -0.12754847 0.192066 0.0018751752
000340 c5 3d 1a 3e 69 76 ae 3d 88 cd f3 bc dc 40 1d bd
       0.15062626 0.08518679 -0.02976109 -0.038391933
000350 b4 17 0f 3e 5f 20 9e 3a b5 81 ac bd fe da 93 3d
       0.13973886 0.0012064091 -0.08423177 0.07219504
000360 98 3f 1e bb 21 a0 fd 3d 81 01 c6 3d 1c 1a 2f 3d
       -0.0024146792 0.12384058 0.096682556 0.04274951
000370 9b 2c 88 bd de 75 45 3e 99 4a 0b 3e 26 c4 73 bc
       -0.06649133 0.19283244 0.13602675 -0.014878308
000380 89 d0 6f 3e 65 ee 4d bc 8e 0f f2 bd 33 d3 d6 bd
       0.23419394 -0.012569045 -0.11819373 -0.10489502
000390 68 21 fd 3c 19 1c a1 bd e8 a4 50 bd ae 9e 0b be
       0.030899718 -0.07866687 -0.050938517 -0.1363475
0003a0 0b 53 42 3c 4e 86 60 bd 33 37 c9 bd a5 48 75 3d
       0.011860619 -0.054815583 -0.098249815 0.059883732
0003b0 81 13 f4 bc a7 fc 32 bc f4 60 76 bd eb ca d2 bd
       -0.029794456 -0.010924495 -0.060151055 -0.1029261
0003c0 f8 89 87 3d 3b 36 e3 bc f4 7a 2f bd 32 3d 2c 3d
       0.06618112 -0.02773582 -0.042841867 0.042050548
0003d0 dc be 0a bd 90 83 88 bb 8b bb 46 be 2f 62 a4 3d
       -0.033873424 -0.004166074 -0.1940748 0.080265395
0003e0 88 86 4f bd 8e f1 fd 3d f2 1d 2d bd 2e 35 a8 bd
       -0.05066541 0.123995885 -0.042264886 -0.08213268
0003f0 d9 6f 50 bd 25 d8 59 bd 7b 34 7a bd 77 2f 38 bd
       -0.050887916 -0.053184647 -0.061085206 -0.04496714

GRU.bias_ih_l1 f4 [192]
000000 85 05 8a 3d 26 da 84 be cd 92 60 be cd 4a a3 3c
       0.06739334 -0.25947684 -0.21931 0.019933129
000010 72 13 4e 3d 0c e4 07 3b 04 1a 86 bd 1f f2 1a be
       0.050311513 0.0020735292 -0.06547931 -0.15131424
000020 f9 14 13 3b 41 9b 3f be 7a 1e fd bb 7f ed d3 bd
       0.002244292 -0.18711568 -0.0077245804 -0.10348033
000030 a4 82 aa bd e4 7e 10 3d 18 ae 00 be 2a bb cc bd
       -0.08325699 0.035277262 -0.12566411 -0.09996636
000040 6a 91 0d 3c d4 d4 88 3d a4 79 9b bd e8 b5 90 3c
       0.008640626 0.06681219 -0.075915605 0.017664865
000050 58 5a 20 be 32 47 8a bd 1b 1c 6d bd e3 a5 56 bc
       -0.15659463 -0.06751861 -0.05788813 -0.013101074
000060 67 1b 43 bd 56 21 8a be e3 e9 4e 3d fc 3f f3 3c
       -0.047633555 -0.26978558 0.05051602 0.029693596
000070 73 33 09 be b4 66 ab 3c 92 9b ef bd d5 31 ea bd
       -0.13398533 0.020922996 -0.116995946 -0.11435286
000080 7b be b7 bd 41 95 99 be 4f 4d 7c be 3e a4 56 3d
       -0.08971878 -0.29996684 -0.24638866 0.052402727
000090 2e 06 22 bd 32 ff df bd 4f 52 d6 bd 0c 39 f4 3c
       -0.039556675 -0.109373465 -0.10464918 0.029812358
0000a0 47 74 17 be 22 1c 78 be 1b b8 0f be f6 d6 ee bd
       -0.1479045 -0.24229482 -0.14035074 -0.11662094
0000b0 18 17 05 3e 2c 1a 2f bd 25 a0 72 3d 56 59 9a bd
       0.12997091 -0.04274957 0.059234757 -0.07536571
0000c0 e6 2d d6 be be 46 5c be a4 8e 7e bc 99 2c 18 be
       -0.41831893 -0.21511361 -0.015536938 -0.14860763
0000d0 84 17 18 be 00 77 25 bd 02 66 92 be 95 81 ad 3b
       -0.1485272 -0.04039669 -0.2859345 0.0052949884
0000e0 9f 7c 60 be 69 55 8f bc 6c d0 54 bd be f3 96 3d
       -0.21922539 -0.017496781 -0.05195658 0.07370709
0000f0 aa 73 97 3d aa b1 20 be 99 a1 e0 bd 35 18 15 be
       0.07395108 -0.15692773 -0.10968322 -0.14560015
000100 81 35 c6 3d 14 29 62 3e f2 96 15 3e c3 c4 ab 3e
       0.09678174 0.22085983 0.14608362 0.33548555
000110 2c 3e 39 bd 71 40 1e 3e 81 79 da bd e4 ea 6f 3e
       -0.045225307 0.1545427 -0.10667706 0.23429447
000120 17 a0 56 bc 53 4d f1 bd 12 3a 34 be 32 11 d2 bd
       -0.013099692 -0.117823265 -0.17600277 -0.10257186
000130 ec b7 a0 bd a1 0c c3 bd de 4a 28 3e 2b 37 14 be
       -0.0784758 -0.09523893 0.1643481 -0.1447417
000140 6e 5c dd 3d 7b d5 77 bd 14 e4 0e 3e 06 3d 6a 3d
       0.10808645 -0.060506325 0.13954192 0.057187103
000150 30 b0 0b 3d 80 ed be 3b 63 a6 e8 bd 6c d9 9f 3d
       0.034103572 0.005826652 -0.11359861 0.07805142
000160 94 6f 42 be 73 76 dc bd 2c 6e 2f bd d9 18 f7 bc
       -0.18987876 -0.1076478 -0.042829677 -0.030163215
000170 0f ba 2f be e5 62 6b be a9 95 9f 3d bd 64 41 3e
       -0.1716082 -0.22986944 0.07792217 0.18886085
000180 3b 17 6c 3c 7b e0 6b 3a 59 88 8a bd ac ce 6e 3b
       0.014409835 0.0008997989 -0.067642875 0.0036439104
000190 4b c3 b2 bd 9c 1c a4 bd 14 7c 1e bd df 8b 63 be
       -0.087286554 -0.08013269 -0.03869255 -0.22221325
0001a0 5f 6e 5f 3e 12 ff 09 3e 5b 9f 14 3e ce d7 02 3e
       0.21819447 0.13476208 0.14513914 0.12777635
0001b0 29 3b 42 3c 5e 1c 79 3d a2 26 f0 3d 58 d4 71 bd
       0.011854925 0.06081807 0.117261186 -0.059040397
0001c0 fc 24 83 3d d6 94 a3 3d 6c 1d 1c bd 2f d8 91 bd
       0.064035386 0.079873726 -0.038113996 -0.07121312
0001d0 4f ce 5e 3e 4d dd f6 bc 37 9e 2e be 73 16 ee bd
       0.21758388 -0.030134821 -0.17052542 -0.116253756
0001e0 38 dd 4a bd 00 62 ba bd 8a f1 62 3e ce d9 ad bc
       -0.049527377 -0.09100723 0.22162452 -0.021222021
0001f0 07 fa 53 be 18 06 16 be a8 ef bb bd 33 23 29 3e
       -0.20700847 -0.14650762 -0.0917657 0.16517334
000200 ab 4d d4 3d 1f c0 07 3d 76 3a 2b bc fa 95 08 3d
       0.103663765 0.033142205 -0.01045095 0.033346154
000210 e2 54 e9 b9 a5 e6 e6 bb ea 5f 84 bd 51 d2 16 be
       -0.00044504466 -0.007046538 -0.06463607 -0.14728667
000220 aa 9c 93 bd 97 be 67 3c 5c ac e3 3b 77 09 73 3c
       -0.07207616 0.014144561 0.006948037 0.0148338
000230 8f 4c 1d 3e e6 99 de 3d b2 6f 34 bd f4 66 9e bd
       0.15361236 0.108691975 -0.044051833 -0.077344805
000240 06 25 91 bd ec ca 13 3d 9f a8 7c bd 42 bf f0 3c
       -0.0708714 0.036082193 -0.061684247 0.029388074
000250 81 87 d6 bd da 01 98 bd f7 1a b3 3d e5 64 b5 bd
       -0.10475064 -0.07422228 0.087453775 -0.08857135
000260 6c bf 46 bb 53 fd 39 bc f3 9f a0 3c 23 f2 41 3d
       -0.0030326499 -0.011351901 0.01960752 0.04735006
000270 87 73 09 3e d8 fb 05 bd 36 32 d5 3c 2c ab 9a bd
       0.13422976 -0.03271088 0.026024919 -0.0755218
000280 f2 5c e1 bb db b3 c2 3d d1 f6 51 3d d0 ef c0 bc
       -0.006877535 0.09506961 0.051260773 -0.023551852
000290 bd 7c 12 bd 84 06 e3 3c e6 cf 18 3d 78 b8 87 3d
       -0.03576349 0.027713068 0.037307642 0.066269815
0002a0 1a d2 10 bd 52 7f ba 3d da e5 27 bd 99 61 99 3c
       -0.03535662 0.09106316 -0.040990688 0.018723296
0002b0 c9 9b 26 bd 49 2c 46 bd 53 98 1c 3c bb 55 7f bc
       -0.040675912 -0.048382077 0.009557801 -0.015584405
0002c0 60 00 7e bd af 3f e4 3d b6 c9 a2 bb 13 a3 42 bc
       -0.062012076 0.11144959 -0.0049678935 -0.0118797
0002d0 7e 1f cc ba b2 63 9a bc 64 c4 05 3e 0c 68 dc 3b
       -0.001557335 -0.018846367 0.13063198 0.0067262705
0002e0 93 ea 66 3d 04 7e 68 3c 69 0f 8e 3d c7 cd 0b bd
       0.05637605 0.014190201 0.06936533 -0.03413179
0002f0 38 8f 80 bc 46 5e f8 3c ea 5b b5 3d 4d 4c 39 bd
       -0.015693292 0.03031839 0.08855422 -0.04523878

GRU.bias_hh_l1 f4 [192]
000000 0d bf f7 bc f1 ec 06 be ab 78 58 be 4e c0 5e bc
       -0.030242467 -0.13176323 -0.21139781 -0.013595654
000010 0b 1e 82 bd 42 ca 07 be 12 0e fc b9 86 83 61 bc
       -0.063533865 -0.13260749 -0.0004807567 -0.013764268
000020 36 a5 df 3d cd 15 93 bd bd c8 a1 3c 9e ac 5c bc
       0.10920183 -0.071818925 0.01974904 -0.0134688895
000030 0d fa 0a 3d a1 42 6f bd 18 3c d3 bd f8 83 32 be
       0.033929873 -0.05841315 -0.10314196 -0.17433155
000040 b8 75 46 3d 39 4c 4a 3d ac 11 ab 3d 5c 92 13 be
       0.04845211 0.049389098 0.0835298 -0.144113
000050 cd 60 92 be 5e 69 10 bd 58 2b bf bd f8 9a 07 be
       -0.28589478 -0.035256736 -0.09334439 -0.1324271
000060 fe 97 e3 bd 3a 42 83 be 5f b6 e4 3d e9 8c 02 be
       -0.111129746 -0.25636464 0.11167597 -0.12749065
000070 d3 6c 9e bd ea c1 f3 bd cc 44 d1 3c b2 9c 33 be
       -0.077356 -0.119022205 0.0255455 -0.17540243
000080 d8 1b 63 3d 61 65 3f be 99 55 14 be 7e ed 78 3c
       0.055446476 -0.18691017 -0.14485778 0.015193341
000090 5f c3 07 be 33 e2 04 bd 7e 79 78 3d e9 93 03 3e
       -0.13258122 -0.032442283 0.06066274 0.12849392
0000a0 1f 6a 3e be 32 d7 6f be f8 cb 31 be e6 2f af bd
       -0.1859517 -0.23421934 -0.17362964 -0.08554058
0000b0 51 32 97 bd da 44 10 3c d8 4d 73 3d 62 e6 4b 3d
       -0.07382644 0.008805478 0.05940041 0.049780257
0000c0 ce e0 c8 be 19 34 40 bd 65 94 df ba 73 63 28 3d
       -0.39234012 -0.046924684 -0.0017057775 0.041110467
0000d0 19 7e b4 be a6 41 ee 3b 25 90 d7 bd f6 ad 19 be
       -0.35252455 0.0072710095 -0.1052554 -0.15007767
0000e0 94 81 4e bd 55 7b 91 bd 1a 6e 8f bd ae 92 08 be
       -0.050416544 -0.07103602 -0.07003422 -0.13337204
0000f0 25 0d 4d 3d c6 b0 0c be aa 7d 41 be 99 5a 5c be
       0.050061364 -0.13739309 -0.18895593 -0.21518935
000100 c9 1d 0b 3e 38 79 86 3e 57 62 41 3e 70 ce 69 3e
       0.13585581 0.26264358 0.1888517 0.22832656
000110 03 c4 7e 3c e9 77 05 bd 93 a1 aa bd 93 9b 90 3e
       0.0155496625 -0.03258506 -0.08331599 0.28243694
000120 65 cd 04 3d 51 9e a6 3c 61 ee e0 bd 47 d7 f2 bd
       0.032422442 0.020339163 -0.10982967 -0.11857467
000130 08 96 f7 bd 37 e2 b6 3c 59 52 82 3c b4 b8 a0 3c
       -0.12089163 0.022324665 0.015908407 0.019619323
000140 3b 1d 0c bd ed 78 c4 3d a0 d5 86 3d 9d 4a 39 bd
       -0.034207564 0.09593377 0.065837145 -0.045237172
000150 07 12 28 3d 43 16 44 bd 19 fa f1 bd b4 a0 01 3e
       0.041032817 -0.047872793 -0.118152805 0.1265896
000160 f7 14 cb bd 58 23 3e bd 88 73 d4 bd ff 85 34 bd
       -0.09916108 -0.046420425 -0.10373598 -0.0440731
000170 64 11 01 bd a4 e3 dc bd e6 c8 2d 3e 42 fb b6 3e
       -0.031510726 -0.107856065 0.16971168 0.3573857
000180 30 11 16 be e6 98 8c bd 25 c1 10 be d4 10 46 be
       -0.14654994 -0.068651006 -0.14136179 -0.19342357
000190 8d 6a a6 bd 14 9c ea bb 92 d8 c2 bd 57 58 0b bd
       -0.08125792 -0.0071597192 -0.09513964 -0.034019794
0001a0 b3 f4 26 3e 82 08 17 3e e2 d1 07 3e 0d ab 94 3d
       0.16304283 0.14749339 0.13263658 0.07259188
0001b0 71 68 2b 3d 47 60 c1 bd 04 20 15 bc 0a f7 e2 bc
       0.04184765 -0.094421916 -0.009101871 -0.027705688
0001c0 45 90 09 3d 11 74 e3 3b ac 2d 70 3c 05 77 c0 3d
       0.03358485 0.0069413264 0.0146593265 0.09397701
0001d0 2d 99 5d 3e 7c ac 28 be 9d a3 0e be 4c 98 94 bd
       0.21640463 -0.16472048 -0.13929601 -0.07255611
0001e0 28 5e 1c be f3 e0 7a 3c 60 e9 5a 3e 39 54 c0 3d
       -0.15270293 0.015312421 0.21378088 0.09391064
0001f0 f3 ab 19 be 94 33 47 be c4 62 90 bd a8 7d b2 3c
       -0.15007 -0.19453269 -0.07050088 0.021788433
000200 48 8b 13 3e 65 41 38 bb ea 70 75 bd 10 2e 9e bd
       0.144086 -0.002811515 -0.059922136 -0.077236295
000210 55 f4 3c bd e4 a5 7f bb 7f 0a e7 bd dd 41 5c bd
       -0.04613145 -0.003900879 -0.11281299 -0.05377375
000220 bd 50 26 bd f7 f6 c1 3c 07 d0 16 bd 4a 53 72 3d
       -0.04060434 0.023677332 -0.036819484 0.059161462
000230 eb 64 22 3e 18 25 0e 3e ff ff 95 3d 5d e9 3a 3d
       0.1585881 0.13881338 0.07324218 0.04563271
000240 96 59 df bd 95 21 96 bd 34 d0 e7 bd 82 75 b9 bc
       -0.10905759 -0.07330624 -0.113190085 -0.02263904
000250 72 7c 85 bb 82 b2 24 bd 28 eb 65 3c a5 bd 9c bd
       -0.004073673 -0.0402093 0.014033116 -0.07653359
000260 4d d0 98 3d 8b dc ef 3c 52 a4 22 be 6f 41 6b bc
       0.07461605 0.029279968 -0.15882996 -0.014358862
000270 12 3f 11 3e 55 c5 e2 bd 19 30 5c bd 68 96 9a 3c
       0.14184216 -0.11072794 -0.053756807 0.018870547
000280 66 9f 37 be cf 0a 1f 3d 0d f7 1f bd f1 3b 18 3e
       -0.179319 0.038828667 -0.039053965 0.14866616
000290 34 d8 2e bc f4 40 18 be 7b d9 01 3e 2f e4 1d 3e
       -0.010671664 -0.14868528 0.12680618 0.15419076
0002a0 a6 9d a6 bd 12 ad 20 3d 37 95 a9 bc 7e 05 09 bd
       -0.08135538 0.039227553 -0.020701034 -0.033452503
0002b0 55 4e a7 3d dd a5 fd bc 9f fb 09 3e b3 67 21 3c
       0.081692375 -0.030962879 0.13474892 0.009851384
0002c0 ab fc cf 3b c9 61 32 3d 3f f7 a3 bd ff fb eb bc
       0.006347259 0.043550286 -0.08006143 -0.028806685
0002d0 85 77 f8 bc da 98 94 3d 4e c3 63 3d 76 67 55 bd
       -0.030330429 0.072557166 0.05560618 -0.05210062
0002e0 e7 55 87 bc 8a 3d b7 bd cc ff 27 bd 06 72 fe 3d
       -0.016520454 -0.089472845 -0.04101543 0.12424092
0002f0 5a 9f 1d 3e ba d1 47 3c 75 90 9d 3a 3e 0d 7e 3c
       0.15392819 0.012195999 0.0012021201 0.015506087

linear.weight f4 [1, 64]
000000 03 4e 07 3e 77 43 49 3c 23 ef 64 bc 89 1b 60 bb
       0.13213353 0.012284151 -0.01397303 -0.00341961
000010 21 be 89 bd 50 5d 0e bd 19 39 95 bd ea 56 9a bd
       -0.06725717 -0.03475696 -0.07286281 -0.07536109
000020 43 6f 5a bd ec 02 21 3d c4 ab b5 bc 55 ac f3 3d
       -0.053328764 0.039309427 -0.02217663 0.11898104
000030 50 05 2a 3e db 67 86 3d 9a 26 9c 3c 39 28 b8 bd
       0.16603589 0.065627776 0.019061375 -0.08992047
000040 59 e8 b9 bd 75 d5 2e bd eb 7a f8 bd 8c b6 a8 3c
       -0.0907752 -0.042684037 -0.1213282 0.020594858
000050 62 61 b9 bd 1b 36 ab bd c9 09 08 3d 2d f9 cd bd
       -0.090517774 -0.08359929 0.033212457 -0.10057292
000060 4b b7 7f 3d b5 4a 76 bd 5e 3f bd bd b3 f7 dc 3c
       0.06243066 -0.06012984 -0.09240602 0.026973581
000070 99 c3 b3 3d f7 f8 29 be bc c5 66 b9 c9 a6 24 bc
       0.08777542 -0.16598879 -0.00022008171 -0.01004953
000080 7a 92 0b be 19 d5 e4 3d f8 17 78 3d 07 af 88 3d
       -0.13630095 0.11173458 0.060569733 0.06674009
000090 1e 53 b0 bd f4 89 74 bd a0 25 af 3d c6 69 0f 3e
       -0.08609603 -0.059701875 0.08552098 0.14005193
0000a0 fb 20 b7 bd cd a3 0a 3e 5b 95 a7 bc e4 10 51 3c
       -0.089418374 0.13539048 -0.02045696 0.012760375
0000b0 22 0d 33 3c eb be fc bb 1f 07 9a 3c 80 97 8b bd
       0.010928424 -0.007713189 0.018802224 -0.06816006
0000c0 59 d4 a9 bd 03 46 cb 3d 15 76 ae bd bd 6e 08 bd
       -0.08292455 0.09925463 -0.08518616 -0.033308733
0000d0 82 1b ad 3c 55 b7 b8 3d 8b d4 16 3e a6 96 11 bd
       0.02113128 0.09019343 0.14729516 -0.03554406
0000e0 79 9a 73 3d 61 fe 68 bd 0a 6c 93 3b 72 8c e5 3c
       0.05947349 -0.05688322 0.0044989632 0.028021071
0000f0 18 f2 a7 3d 81 b5 ae 3d fd 4f c2 3d d3 14 98 bc
       0.082004726 0.08530713 0.09487913 -0.018564617
