results_NNA_diff_64hu_TSLA/1677011291.3394449_sentiment_model.pt (torch, 155915 bytes, 9 tensors)

GRU.weight_ih_l0 f4 [192, 2]
0.00019771757 -0.05471288 -0.21466723 -0.20673041 -0.05169085 -0.08048262 0.13536234 -0.043809153
-0.15178367 -0.15182528 -0.14917377 -0.10589625 -0.08790595 -0.12571366 -0.33365625 -0.22980651
-0.06154645 0.06552966 0.07099535 -0.06352201 -0.17318884 -0.025227426 -0.1481046 -0.28777477
-0.1048081 -0.23318732 -0.041192867 -0.032005854 -0.062846296 -0.040389653 -0.2595012 -0.02535678
-0.113069996 0.01145792 -0.23010108 -0.12523346 -0.13952982 -0.054895006 -0.19108547 -0.100399144
-0.17893061 -0.16996656 -0.047480084 -0.048614714 -0.14851296 -0.032617934 -0.14556098 -0.07419501
-0.061394982 -0.15203093 -0.11209937 -0.1610285 -0.16159475 -0.2050405 0.07845214 0.099231586
-0.11163346 -0.21158525 -0.24654779 -0.04309058 -0.037367497 -0.2025619 0.13612509 0.03757506
0.12675223 -0.20077696 0.024021184 -0.0020428065 -0.20748825 -0.17378591 -0.02525235 -0.1549021
-0.050041568 -0.1471517 -0.16096301 0.062349133 -0.06604137 0.033272184 -0.12128723 0.05743626
-0.21889104 -0.15475355 -0.047497716 -0.100242734 0.06599495 -0.042001225 -0.122722335 -0.09122999
-0.2900182 -0.17545189 -0.11101955 -0.07722286 -0.23187079 -0.04996448 -0.022944093 -0.1430513
-0.16305104 -0.14177603 -0.32616505 -0.13975173 -0.26438725 0.02468049 -0.015420495 -0.009261392
-0.27520356 -0.29557562 -0.16827738 -0.009780712 -0.17809044 -0.14444251 -0.14080806 -0.080165625
-0.010817356 -0.0520237 -0.25952294 -0.25087366 -0.094320595 -0.0876855 0.03715316 -0.2133471
-0.17170961 -0.095665 -0.042136807 -0.041913193 -0.033298258 -0.14522801 -0.10854198 -0.08133644
-0.28850338 -0.14139676 -0.39443624 -0.28272447 -0.06735017 -0.08990488 -0.3354906 -0.47303712
-0.1868798 -0.37909728 -0.27608797 -0.42386946 -0.016244672 -0.11234815 -0.3575323 -0.31900734
-0.11571241 -0.18958047 -0.10715668 -0.260607 -0.43956095 -0.4532875 -0.31562817 -0.45789906
-0.3871936 -0.3829574 -0.4767264 -0.45524037 -0.39048475 -0.31668898 -0.40160334 -0.45079634
0.20927626 0.028217843 -0.27477497 -0.32020068 -0.23569155 -0.2894496 -0.3544919 -0.18971108
-0.19098726 -0.47334096 0.22075658 0.17733252 -0.44630826 -0.4264071 0.21400373 0.2256611
-0.28210396 -0.22213167 -0.0911156 -0.16427156 -0.2648085 -0.39149642 -0.018095493 0.009023312
-0.36644608 -0.5189615 -0.24595115 -0.30950737 -0.004502649 0.08308907 -0.097729415 -0.1830841
-0.31170857 -0.3147408 -0.42752922 -0.38628972 0.036142167 0.0039286106 0.2258072 -0.025492046
-0.43197784 -0.29427424 0.092775315 0.12181508 -0.32135472 -0.31797224 -0.23934823 -0.23476188
-0.27993056 -0.39700645 -0.10088851 -0.0070696883 0.13283458 -0.047009595 0.19315289 0.18289346
-0.45284238 -0.43955553 -0.40037712 -0.37727204 0.18263343 0.06589383 -0.35697192 -0.33521548
-0.122679085 -0.2781411 -0.28786883 -0.4955874 -0.3602257 -0.35731468 -0.4426482 -0.40577725
0.06875385 0.08041852 -0.29334906 -0.3956067 -0.27031696 -0.34462565 -0.13885817 -0.23827584
0.13051197 -0.014716041 0.39601582 0.124934666 -0.13802636 0.024230024 -0.22896442 -0.41769817
-0.26057437 -0.3698412 -0.046983354 -0.18801245 -0.44096664 -0.4427945 0.023763012 -0.023355475
00000000: 6852 4f39 9d1a 60bd bad1 5bbe 23b1 53be
00000010: c9b9 53bd 12d4 a4bd 6d9c 0a3e 3a71 33bd
00000020: 2e6d 1bbe 1678 1bbe 02c1 18be 22e0 d8bd
00000030: 0908 b4bd 15bb 00be fed4 aabe 6652 6bbe
00000040: 2118 7cbd 6a34 863d 0366 913d d417 82bd
00000050: 6a58 31be bfa9 cebc bba8 17be 3757 93be
00000060: a1a5 d6bd a8c8 6ebe dab9 28bd 9218 03bd
00000070: 8fb5 80bd 9f6f 25bd 57dd 84be 06b9 cfbc
00000080: 3e91 e7bd 00ba 3b3c 9e9f 6bbe 333d 00be
00000090: e8e0 0ebe 96d9 60bd e9ab 43be 119e cdbd
000000a0: 9639 37be b70b 2ebe 7a7a 42bd 3920 47bd
000000b0: c813 18be 629a 05bd f00d 15be 8ef3 97bd
000000c0: 4e79 7bbd ffad 1bbe 5b94 e5bd a8e4 24be
000000d0: 1879 25be 23f6 51be 84ab a03d ee39 cb3d
000000e0: 15a0 e4bd cea9 58be 0677 7cbe bf7f 30bd
000000f0: a90e 19bd 636c 4fbe 6064 0b3e 4ee8 193d
00000100: 56cb 013e 7a98 4dbe 13c8 c43c 9be0 05bb
00000110: cd77 54be eff4 31be 04de cebc a89e 1ebe
00000120: 63f8 4cbd efae 16be 7dd3 24be ce61 7f3d
00000130: b340 87bd 6a48 083d 7065 f8bd 4942 6b3d
00000140: f924 60be b777 1ebe f78c 42bd 104c cdbd
00000150: 5c28 873d 7a09 2cbd d955 fbbd cad6 babd
00000160: 447d 94be a9a9 33be 385e e3bd 0527 9ebd
00000170: 896f 6dbe 8ea7 4cbd 40f5 bbbc 0a7c 12be
00000180: daf6 26be bc2d 11be 1bff a6be 141b 0fbe
00000190: c45d 87be bd2e ca3c 3ea6 7cbc 18bd 17bc
000001a0: 7be7 8cbe b055 97be e850 2cbe 483f 20bc
000001b0: 575d 36be bde8 13be fd2f 10be e02d a4bd
000001c0: 483b 31bc ce16 55bd 31e0 84be 8372 80be
000001d0: 282b c1bd 7594 b3bd e92d 183d aa77 5abe
000001e0: a5d4 2fbe 03ec c3bd a597 2cbd 2bad 2bbd
000001f0: c163 08bd a7b6 14be 424b debd b893 a6bd
00000200: b7b6 93be 50ca 10be 8cf3 c9be 43c1 90be
00000210: e3ee 89bd 0d20 b8bd 6dc5 abbe ec31 f2be
00000220: 6b5d 3fbe 0a19 c2be 675b 8dbe 6b05 d9be
00000230: 8c13 85bc c916 e6bd 790e b7be ee54 a3be
00000240: a1fa ecbd 6221 42be f674 dbbd 486e 85be
00000250: 220e e1be 4d15 e8be 049a a1be bf71 eabe
00000260: 3d3e c6be fe12 c4be 7c15 f4be 4415 e9be
00000270: 9eed c7be 0f25 a2be f49e cdbe c7ce e6be
00000280: 844c 563e 1b29 e73c 4eaf 8cbe 58f1 a3be
00000290: 2059 71be bd32 94be f67f b5be 9f43 42be
000002a0: 2a92 43be bf59 f2be 030e 623e a896 353e
000002b0: 8482 e4be 0852 dabe cb23 5b3e b413 673e
000002c0: ee6f 90be 7c76 63be d19a babd ce36 28be
000002d0: fb94 87be 3872 c8be 003d 94bc 83d6 133c
000002e0: d29e bbbe a9da 04bf 9eda 7bbe c077 9ebe
000002f0: f58a 93bb 9a2a aa3d 5c26 c8bd 667a 3bbe
00000300: 4498 9fbe b525 a1be 1ce5 dabe c4c7 c5be
00000310: cf09 143d 93bb 803b 013a 673e b2d4 d0bc
00000320: 332c ddbe 1dab 96be fc00 be3d 2f7a f93d
00000330: 9b88 a4be 42cd a2be b417 75be 6b65 70be
00000340: 0f53 8fbe 6e44 cbbe a39e cebd d8a8 e7bb
00000350: ca05 083e 228d 40bd dfc9 453e 6c48 3b3e
00000360: f5da e7be 6c0d e1be 3bfe ccbe cd29 c1be
00000370: 4204 3b3e 58f3 863d 06c5 b6be 5da1 abbe
00000380: 2c3f fbbd 8368 8ebe 8b63 93be a2bd fdbe
00000390: 816f b8be f3f1 b6be c9a2 e2be 09c2 cfbe
000003a0: d2ce 8c3d 77b2 a43d d931 96be f68c cabe
000003b0: fc66 8abe c672 b0be d630 0ebe 95fe 73be
000003c0: eea4 053e 8d1b 71bc 96c2 ca3e bfdd ff3d
000003d0: c856 0dbe 0b7e c63c a675 6abe 89dc d5be
000003e0: 016a 85be d35b bdbe 9e71 40bd 5686 40be
000003f0: 61c6 e1be f6b5 e2be a6aa c23c fb53 bfbc

GRU.weight_hh_l0 f4 [192, 64]
0.3614663 0.22217768 0.056336366 0.044650346 -0.032402948 0.07637089 -0.08598444 0.06390253
0.14918938 -0.029096803 0.1029286 -0.02541629 -0.06371124 0.06305576 0.103828035 -0.031947453
-0.0008314674 0.20261592 -0.20574002 0.038520973 0.02403932 -0.14851959 0.0071433615 0.07288977
0.037058678 -0.0009379627 -0.022755181 0.037969742 0.24583188 0.06381568 -0.07277369 0.1695307
-0.100126 0.065347396 -0.013810987 -0.06153326 -0.036620338 -0.027699765 0.08644234 0.05042068
0.06730928 -0.05220579 -0.10463071 -0.09417386 -0.092181444 0.030098079 0.047879558 0.007823685
-0.028107947 0.015027259 0.023052184 0.03787074 -0.03821926 -0.001988898 0.08092516 -0.009016651
-0.17045574 -0.091990314 -0.05576237 0.0073287305 -0.16133681 -0.017822906 -0.036711738 0.10266662
-0.07214991 -0.17911258 0.045634165 -0.07350178 0.11376644 -0.09145329 -0.16450122 0.060914397
0.02808277 -0.084631324 0.11989166 0.08791717 -0.098185025 0.033803824 -0.1294858 -0.017279044
0.11503242 -0.07780333 -0.10317456 0.003846619 -0.08770325 0.07548499 -0.022063594 -0.09384546
0.034860007 -0.058936153 -0.011632 0.10015927 0.0071958196 0.15048155 -0.0050674463 -0.01603597
-0.14470845 -0.0917907 0.109684 0.17388496 -0.13763113 -0.09945042 -0.01761767 -0.1265771
-0.09341634 -0.11483773 -0.0041723615 0.1077415 -0.00021794716 -0.031307034 -0.1066291 -0.09197841
-0.24274231 0.089607656 0.21874832 0.052102607 -0.025579397 0.15697327 0.08966375 0.0044935844
0.010050192 -0.05742637 -0.14740328 0.15585724 -0.12708649 0.098466784 -0.101841085 0.046066605
0.0072849314 0.20006597 0.30432546 -0.036791615 -0.058383692 0.10236752 -0.17301355 -0.0025099162
0.02130225 0.1706916 0.037779704 0.117853664 -0.18922102 0.13364261 -0.004417473 0.056243792
-0.11435433 0.07584862 -0.12665915 0.0044300985 -0.10021273 -0.14117391 -0.00022563164 0.08355854
0.1187132 -0.19758673 0.19263148 -0.0154510075 0.16794658 0.18171924 0.057755027 0.18178372
0.06382399 0.019143462 -0.053065393 -0.02616597 0.025839455 -0.1321335 0.10281438 -0.04841107
0.0024443935 -0.033943 0.020422922 0.07067169 -0.03483919 0.16814715 0.0041897497 0.11362586
-0.023343462 0.103884004 0.18606634 0.021228183 -0.11008745 0.14551565 0.2528388 -0.19440274
0.006210157 -0.19356236 -0.09802951 0.084193505 -0.2480902 0.120333806 -0.16697648 0.15248667
-0.15283704 0.10418898 -0.07571776 0.24579129 0.08556136 0.06825111 -0.16487332 -0.02055936
0.040240463 0.06656915 -0.09110018 0.054933205 0.0062743947 0.06182198 0.015643856 -0.08710621
0.07026008 -0.01708175 -0.021959461 -0.0076686344 0.069276325 -0.11713142 -0.011290048 0.2258972
-0.052122142 0.013911146 0.07482782 0.09081648 0.049932092 -0.0036475337 -0.122065246 -0.09472367
-0.1091251 0.034959923 0.014709561 -0.05448113 -0.0025547873 0.14349936 0.0151972445 -0.00010329439
0.047373984 0.015451336 -0.116412066 -0.1038565 -0.043943968 0.15405299 0.112169795 -0.10146692
-0.125871 -0.10574991 -0.0035324045 0.059000053 -0.1767695 0.04461894 0.021299222 -0.062725395
0.0121460175 -0.018777201 -0.017033048 0.05311982 0.030094597 -0.04912658 -0.030357441 -0.053454682
00000000: 1c12 b93e 8c82 633e f6c0 663d 48e3 363d
00000010: f4b8 04bd 5768 9c3d 9c18 b0bd 54df 823d
00000020: 1ac5 183e 6b5c eebc 3bcc d23d d335 d0bc
00000030: 0a7b 82bd 6123 813d cba3 d43d 55db 02bd
00000040: d5f6 59ba 8c7a 4f3e 83ad 52be 2bc8 1d3d
00000050: 1cee c43c 8515 18be dc12 ea3b 3b47 953d
00000060: d7ca 173d 9ce1 75ba 1369 babc 2986 1b3d
00000070: 5abb 7b3e ccb1 823d 5f0a 95bd 7599 2d3e
00000080: dc0e cdbd dbd4 853d 7a47 62bc 4d0a 7cbd
00000090: 35ff 15bd 9eea e2bc ae08 b13d ea85 4e3d
000000a0: 73d9 893d bdd5 55bd a048 d6bd 3ade c0bd
000000b0: a0c9 bcbd 3f90 f63c 5b1d 443d ea2e 003c
000000c0: a342 e6bc e434 763c efd7 bc3c 591e 1b3d
000000d0: cc8b 1cbd 2c58 02bb 17bc a53d 93ba 13bc
000000e0: f38b 2ebe 6b65 bcbd 1567 64bd d925 f03b
000000f0: 7a35 25be 5801 92bc 0c5f 16bd e042 d23d
00000100: 55c3 93bd 4a69 37be e4ea 3a3d 1a88 96bd
00000110: 61fe e83d dd4b bbbd 0273 28be 6081 793d
00000120: d60d e63c 3053 adbd c289 f53d eb0d b43d
00000130: 3b15 c9bd e175 0a3d ed97 04be c88c 8dbc
00000140: 1e96 eb3d 5a57 9fbd 2f4d d3bd 8f17 7c3b
00000150: c39d b3bd e097 9a3d b6be b4bc 0c32 c0bd
00000160: 5ec9 0e3d 0967 71bd 2594 3ebc 4e20 cd3d
00000170: e9ca eb3b d617 1a3e d20c a6bb de5d 83bc
00000180: 742e 14be c3fc bbbd 01a2 e03d e60e 323e
00000190: 2def 0cbe a9ac cbbd ef52 90bc 6d9d 01be
000001a0: 1151 bfbd 0b30 ebbd 4eb8 88bb 93a7 dc3d
000001b0: bf88 64b9 ce3b 00bd 5c60 dabd 2d5f bcbd
000001c0: 7191 78be 3884 b73d 8fff 5f3e 8b69 553d
000001d0: e28b d1bc 9abd 203e a1a1 b73d eb3e 933b
000001e0: 8fa9 243c ea37 6bbd e3f0 16be 0a99 1f3e
000001f0: f622 02be f4a8 c93d 0f92 d0bd 56b0 3c3d
00000200: 6fb6 ee3b 18de 4c3e 8cd0 9b3e ceb2 16bd
00000210: bd23 6fbd 10a6 d13d 772a 31be 687d 24bb
00000220: 0e82 ae3c c7c9 2e3e e4be 1a3d 435d f13d
00000230: 28c3 41be 9cd9 083e 73c0 90bb e45f 663d
00000240: 9a32 eabd 8556 9b3d f0b2 01be 5c2a 913b
00000250: 553c cdbd e58f 10be 8897 6cb9 bd20 ab3d
00000260: e81f f33d 2d54 4abe 3041 453e 3926 7dbc
00000270: 30fa 2b3e 9c14 3a3e 8990 6c3d 8325 3a3e
00000280: 27b6 823d c0d2 9c3c 195b 59bd 045a d6bc
00000290: 44ad d33c 014e 07be 5890 d23d b04a 46bd
000002a0: 1e32 203b d107 0bbd f94d a73c 52bc 903d
000002b0: 8ab3 0ebd c42e 2c3e 2b4a 893b adb4 e83d
000002c0: ca3a bfbc 23c1 d43d 2d88 3e3e bae6 ad3c
000002d0: 8775 e1bd 0e02 153e 1674 813e 8311 47be
000002e0: 937e cb3b 3635 46be b2c3 c8bd a56d ac3d
000002f0: 5b0b 7ebe 9271 f63d e2fb 2abe 7725 1c3e
00000300: 5081 1cbe 0861 d53d ea11 9bbd b6b0 7b3e
00000310: cb3a af3d 3dc7 8b3d 8dd4 28be 1a6c a8bc
00000320: 2fd3 243d 6855 883d bb92 babd a401 613d
00000330: 7099 cd3b 0b39 7d3d 8b27 803c be64 b2bd
00000340: 84e4 8f3d 07ef 8bbc 54e4 b3bc 2b49 fbbb
00000350: bfe0 8d3d 99e2 efbd e5f9 38bc 9851 673e
00000360: 077e 55bd 93eb 633c 543f 993d fefd b93d
00000370: 9885 4c3d 760b 6fbb 58fd f9bd 7cfe c1bd
00000380: fb7c dfbd 2332 0f3d 5f00 713c 9b27 5fbd
00000390: 386e 27bb 7ff1 123e ddfd 783c c19f d8b8
000003a0: 390b 423d 9a27 7d3c 7369 eebd b7b2 d4bd
000003b0: 97fe 33bd 11c0 1d3e 47b9 e53d e3cd cfbd
000003c0: 54e4 00be 6993 d8bd ea7f 67bb 0aaa 713d
000003d0: 1003 35be 5ac2 363d b57b ae3c 2c76 80bd
000003e0: 1700 473c a5d2 99bc e488 8bbc 2b94 593d
000003f0: f288 f63c f438 49bd 2bb0 f8bc 4cf3 5abd

GRU.bias_ih_l0 f4 [192]
-0.24867101 -0.10944147 -0.0890562 -0.022493683 -0.28823686 -0.055271685 -0.25013644 -0.18008019
-0.17763431 0.0042824866 0.07795674 -0.44805452 -0.426379 0.021657547 -0.20643593 -0.19790235
0.07264907 -0.20805082 -0.2715915 -0.08132543 0.00551587 0.060010884 0.12919061 -0.13863324
-0.13025464 -0.09324131 -0.1108101 0.025164658 -0.2940999 -0.18076497 -0.1872445 0.0007710137
-0.23382054 -0.15203385 -0.10065404 -0.044937264 -0.25692418 -0.06366627 -0.1571042 -0.13988996
-0.09120836 -0.13329494 -0.060931303 -0.16698782 -0.05249987 -0.020201582 -0.094822526 -0.16252944
-0.16968189 -0.2701973 -0.013901106 -0.12907901 -0.3058985 -0.09015969 -0.01226289 -0.10835012
-0.13517882 -0.09069388 0.07102649 -0.14124006 -0.25761974 -0.18915944 -0.061240017 -0.09989622
-0.1378112 -0.41296682 -0.083768785 -0.6228495 -0.44912514 -0.43983898 -0.17208931 -0.43523493
-0.35152647 -0.1755572 -0.4813989 -0.498891 -0.5883304 -0.49325895 -0.4715377 -0.22351635
0.022955287 -0.30803445 -0.45786738 -0.43961367 -0.3615843 0.18848287 -0.3871242 0.25150687
-0.29449344 0.0011867498 -0.5148034 -0.1366801 -0.52049816 -0.35086423 -0.09526366 -0.19430746
-0.4453844 -0.44836867 0.07906647 0.024029683 -0.50603706 0.111675814 -0.48796278 -0.1879947
-0.34015542 -0.060519394 -0.12085655 0.0049712616 -0.36425972 -0.34417164 0.26113647 -0.44468397
-0.15706366 -0.44683844 -0.3842431 -0.31203756 0.19971573 -0.53359383 -0.4994096 -0.18686081
-0.07088726 0.30603358 -0.079196505 -0.3503153 -0.49368882 -0.29820952 -0.30320892 -0.16915636
0.07758364 0.013948603 0.052667487 0.11417196 0.096414976 0.052095756 0.018011991 0.103155226
0.052143123 0.014768784 -0.03456329 0.07446265 -0.06595139 -0.0013121295 0.111705944 0.08811284
0.079105355 0.038078222 -0.091441065 -0.07319913 -0.078400515 0.0529397 0.018975819 -0.042936645
0.024543017 0.02252083 0.025125256 -0.041267846 0.10736517 0.07590799 0.0008669655 -0.11141017
-0.08995188 -0.119069785 -0.047679126 -0.03183389 -0.10971878 -0.00776384 0.044191062 0.023606734
-0.07139879 -0.01325637 0.07003389 -0.0032707658 0.035033464 0.06196369 -0.032299504 0.102376156
0.05032707 -0.1107752 0.052533917 0.06244296 0.033501744 0.062405974 0.04393971 0.012872104
0.026361497 0.024753233 0.023090372 0.09484402 -0.08812638 0.027070662 -0.05319569 0.0069094663
00000000: 9da3 7ebe d922 e0bd 1963 b6bd ac44 b8bc
00000010: c893 93be 9064 62bd e211 80be f166 38be
00000020: c5e5 35be 1a54 8c3b c9a7 9f3d 6767 e5be
00000030: 594e dabe 2b6b b13c f163 53be eaa6 4abe
00000040: 09c9 943d 460b 55be 0b0e 8bbe f28d a6bd
00000050: 79be b43b f9cd 753d 8b4a 043e dff5 0dbe
00000060: 7961 05be 4df5 bebd 68f0 e2bd 1d26 ce3c
00000070: 4394 96be 741a 39be 06bd 3fbe db1d 4a3a
00000080: a76e 6fbe c3ae 1bbe b523 cebd 2310 38bd
00000090: 918b 83be 7663 82bd ecdf 20be 503f 0fbe
000000a0: 73cb babd 787e 08be 1a93 79bd dbfe 2abe
000000b0: 1b0a 57bd ca7d a5bc 5032 c2bd 1e6e 26be
000000c0: 17c1 2dbe 4d57 8abe 77c1 63bc 4a2d 04be
000000d0: ba9e 9cbe a5a5 b8bd 4aea 48bc abe6 ddbd
000000e0: 516c 0abe b7bd b9bd 5676 913d 3ca1 10be
000000f0: bce6 83be 03b3 41be d0d6 7abd 6496 ccbd
00000100: 611e 0dbe 6370 d3be f88e abbd 1173 1fbf
00000110: bbf3 e5be 9332 e1be 2e38 30be 1dd7 debe
00000120: 47fb b3be 44c5 33be eb79 f6be a46e ffbe
00000130: d29c 16bf 708c fcbe 646d f1be 78e1 64be
00000140: ba0c bc3c b1b6 9dbe 986d eabe 0b15 e1be
00000150: 9421 b9be a701 413e 2535 c6be 82c5 803e
00000160: d8c7 96be b78c 9b3a 28ca 03bf def5 0bbe
00000170: 5e3f 05bf 7aa4 b3be 9819 c3bd 89f8 46be
00000180: 6d09 e4be 9490 e5be 9aed a13d e6d9 c43c
00000190: a58b 01bf 4ab6 e43d 42d6 f9be af81 40be
000001a0: da28 aebe 2fe3 77bd a483 f7bd f7e5 a23b
000001b0: 4080 babe 4437 b0be aeb3 853e 9ead e3be
000001c0: 4cd5 20be 02c8 e4be 83bb c4be 63c3 9fbe
000001d0: 4882 4c3e 9b99 08bf 9db2 ffbe 7158 3fbe
000001e0: 572d 91bd 6fb0 9c3e c731 a2bd 875c b3be
000001f0: c8c4 fcbe ebae 98be 333e 9bbe 5337 2dbe
00000200: 2ce4 9e3d ae88 643c ddb9 573d fdd2 e93d
00000210: 3775 c53d 5c62 553d e28d 933c 0c43 d33d
00000220: 0794 553d c5f8 713c 3d92 0dbd e07f 983d
00000230: 8611 87bd c3fb abba 16c6 e43d 8174 b43d
00000240: fd01 a23d e9f7 1b3d 7445 bbbd 6de9 95bd
00000250: 7390 a0bd 4dd7 583d 2d73 9b3c 56de 2fbd
00000260: 700e c93c 9b7d b83c 7bd3 cd3c 7908 29bd
00000270: 45e2 db3d a675 9b3d 1245 633a 042b e4bd
00000280: b138 b8bd dcda f3bd 304b 43bd 4164 02bd
00000290: 3db4 e0bd cf67 febb b001 353d e962 c13c
000002a0: 8739 92bd 3f31 59bc ee6d 8f3d 585a 56bb
000002b0: 407f 0f3d a3cd 7d3d 7c4c 04bd 97aa d13d
000002c0: c223 4e3d 1cde e2bd ce2d 573d 30c4 7f3d
000002d0: 2039 093d 689d 7f3d 20fa 333d 84e5 523c
000002e0: 11f4 d73c 4bc7 ca3c 0528 bd3c 953d c23d
000002f0: 9b7b b4bd 4bc3 dd3c b9e3 59bd ce68 e23b

GRU.bias_hh_l0 f4 [192]
-0.15604609 -0.039402194 -0.07638467 -0.042418312 -0.21085818 -0.04138063 -0.20301618 -0.24321613
-0.016027728 0.01202635 -0.10177281 -0.2562495 -0.26155 0.13146637 -0.12279975 -0.21664211
-0.015227396 -0.21010731 -0.22897589 -0.015011541 -0.07728144 0.013574281 -0.05735036 -0.16787094
-0.09807189 -0.080419786 0.009368687 0.1755858 -0.21794336 0.052525204 -0.2028182 0.060897626
-0.2171625 -0.10043988 -0.015301753 -0.07576496 -0.060495265 0.061181962 0.058755163 -0.13585696
-0.17856684 -0.15924937 -0.1597366 -0.19609736 -0.113136806 -0.09273299 -0.08008361 -0.21466085
-0.07547234 -0.33121952 -0.0046256827 0.010926038 -0.5136917 -0.03215047 -0.11006379 -0.0633592
-0.08249643 -0.14820486 -0.0109680435 -0.095736235 -0.17835629 -0.22094615 0.011474987 -0.10280084
-0.19601254 -0.31880268 -0.022896567 -0.42605022 -0.27654472 -0.52044696 -0.019845795 -0.38471836
-0.2872768 -0.34741336 -0.5352662 -0.5526703 -0.4999316 -0.39032632 -0.37203512 -0.3357237
0.0014376678 -0.27524608 -0.29585567 -0.3394117 -0.57205284 0.18677205 -0.5092553 0.062237345
-0.41883317 -0.11497617 -0.44292825 -0.094103284 -0.41456836 -0.4876063 -0.0138062555 -0.055609297
-0.38034353 -0.49742907 0.04110973 0.0851226 -0.48267815 0.06400154 -0.35134378 -0.25767964
-0.45582524 -0.031385962 0.030690508 0.23744331 -0.53392065 -0.34398156 0.12352468 -0.40178448
-0.2046095 -0.56271774 -0.42325404 -0.47190174 0.19064143 -0.5169192 -0.32888314 -0.109203435
0.061501108 0.40357718 -0.16177313 -0.372152 -0.3310758 -0.34602785 -0.3289314 -0.02673615
-0.060426854 0.093269125 -0.04223447 -0.05808809 -0.016069716 0.07901764 0.016701099 0.02307432
-0.030477628 0.045205988 -0.06619893 0.0016042088 -0.0023743005 0.19100031 -0.06108031 0.02515834
-0.044267926 0.027849922 0.040061668 -0.07601319 -0.049151845 -0.045991212 0.13461609 -0.016194317
0.12538876 0.014046618 0.08711795 0.038229126 -0.036668215 0.03578553 0.07293053 0.079367995
0.0283134 0.024977637 -0.03987569 -0.058720578 0.027782677 -0.033577245 0.1091982 0.020409184
-0.03716676 0.053163704 -0.0781264 -0.032673083 0.12717085 0.03177963 -0.015611166 0.065714344
0.047318924 0.0014452218 0.09582929 0.031907197 0.005520256 0.03744161 0.058911227 -0.006360641
-0.017951965 0.007925472 0.035283256 -0.026115654 0.0044076103 0.008395026 -0.020146841 0.0017418206
00000000: 8cca 1fbe 3264 21bd 916f 9cbd d3be 2dbd
00000010: 35eb 57be bc7e 29bd 79e3 4fbe a60d 79be
00000020: 954c 83bc 2b0a 453c 436e d0bd 2233 83be
00000030: e2e9 85be 1f9f 063e 6f7e fbbd 6ed7 5dbe
00000040: 547c 79bc 5f26 57be a878 6abe f7f2 75bc
00000050: bb45 9ebd a966 5e3c 36e8 6abd 5ce6 2bbe
00000060: ead9 c8bd 21b3 a4bd 1f7f 193c c4cc 333e
00000070: 8b2c 5fbe ab24 573d 93af 4fbe ca6f 793d
00000080: d95f 5ebe 6cb3 cdbd 34b4 7abc a92a 9bbd
00000090: e2c9 77bd f099 7a3d 41a9 703d 161e 0bbe
000000a0: 3ada 36be 4412 23be fe91 23be bfcd 48be
000000b0: 45b4 e7bd cbea bdbd e002 a4bd 0ed0 5bbe
000000c0: 3e91 9abd 9b95 a9be 0a93 97bb 2003 333c
000000d0: 4d81 03bf 36b0 03bd 2069 e1bd 78c2 81bd
000000e0: e3f3 a8bd 04c3 17be 4fb3 33bc 5c11 c4bd
000000f0: 08a3 36be b53f 62be 9501 3c3c 3f89 d2bd
00000100: 83b7 48be 1b3a a3be 9591 bbbc 4123 dabe
00000110: 4597 8dbe 033c 05bf a693 a2bc cef9 c4be
00000120: f215 93be 2ae0 b1be 3507 09bf cd7b 0dbf
00000130: 09f7 ffbe dad8 c7be 637b bebe fae3 abbe
00000140: 2070 bc3a 0eed 8cbe 657a 97be 5fc7 adbe
00000150: 0e72 12bf 2c41 3f3e 8e5e 02bf 96ec 7e3d
00000160: 4d71 d6be a078 ebbd 7ec7 e2be 39b9 c0bd
00000170: 4e42 d4be 88a7 f9be a233 62bc 93c6 63bd
00000180: 63bc c2be 06af febe ad62 283d c254 ae3d
00000190: 9721 f7be 3d13 833d 55e3 b3be 96ee 83be
000001a0: ed61 e9be 918e 00bd a96a fb3c 5724 733e
000001b0: 06af 08bf 5a1e b0be 82fa fc3d b2b6 cdbe
000001c0: 2785 51be 450e 10bf c1b4 d8be 1b9d f1be
000001d0: 8237 433e d154 04bf 5f63 a8be 0da6 dfbd
000001e0: 96e8 7b3d aba1 ce3e dba7 25be b58a bebe
000001f0: c482 a9be 902a b1be b269 a8be c505 dbbc
00000200: 2682 77bd e203 bf3d 0dfe 2cbd c7ed 6dbd
00000210: a3a4 83bc 00d4 a13d bed0 883c 5b06 bd3c
00000220: 38ac f9bc ea29 393d 4e93 87bd 5144 d23a
00000230: 279a 1bbb 9695 433e 592f 7abd dd18 ce3c
00000240: 4952 35bd 8525 e43c b417 243d ceac 9bbd
00000250: 7253 49bd 4861 3cbd cdd8 093e f2a9 84bc
00000260: e965 003e c923 663c e56a b23d 2596 1c3d
00000270: 6931 16bd d993 123d 9a5c 953d b08b a23d
00000280: 81f1 e73c e79d cc3c b154 23bd fd84 70bd
00000290: 7f98 e33c 4b88 09bd 4ea3 df3d 2931 a73c
000002a0: 2c3c 18bd 2fc2 593d bc00 a0bd 36d4 05bd
000002b0: 1339 023e 5b2b 023d fac5 7fbc 3e95 863d
000002c0: 7dd1 413d 996d bd3a 2642 c43d 1fb1 023d
000002d0: 43e3 b43b 605c 193d e64c 713d ed6c d0bb
000002e0: 0010 93bc d7d9 013c 2d85 103d 7ff0 d5bc
000002f0: b76d 903b 4b8b 093c fd0a a5bc cd4d e43a

GRU.weight_ih_l1 f4 [192, 64]
-0.037218258 -0.047366157 -0.011444305 -0.0743922 0.026936851 0.050801255 0.055803936 -0.082026355
0.104450405 0.19107674 0.07438495 -0.0742704 -0.09449208 -0.038427543 0.10992766 0.18466018
0.017292298 -0.0021135972 -0.014118348 -0.0717977 0.059677374 -0.0780296 -0.080642745 0.13211803
-0.013591693 -0.04844752 0.16105784 0.06478008 0.0340163 -0.027897205 0.14538403 -0.04075437
0.083684795 -0.118606865 0.11431471 -0.043486286 0.07308068 0.10946389 0.044092193 0.082756825
-0.027817229 -0.012858589 -0.093746714 -0.069801085 0.06745298 -0.023233155 0.1084952 -0.040478904
-0.048880316 -0.12360555 0.039021973 0.117090344 -0.012431912 -0.060060665 -0.02420583 -0.119521305
-0.1628181 -0.022242649 -0.0038331354 -0.069536455 0.005764299 0.10934196 0.010682205 0.023710579
-0.026734635 -0.12788987 -0.15240793 -0.028759867 -0.21696047 -0.22768086 0.026849804 -0.19895048
-0.0152652785 0.025836334 0.07061778 -0.06890204 0.14715639 -0.07435857 -0.06856227 -0.20738637
-0.024356076 -0.12279201 0.24155971 0.26371992 0.21406037 -0.15029784 -0.052121602 0.124341674
-0.028152347 -0.16924836 -0.17935029 0.19546315 -0.17881107 -0.19045426 -0.18061952 0.013220148
-0.02572022 0.10912096 0.018393949 0.12711959 0.21847081 0.09119058 -0.22994338 -0.23293667
0.18159612 0.122069165 0.014755323 0.061239302 -0.17298284 0.013816204 0.033818934 -0.24793437
-0.20381346 0.14666964 -0.07115452 -0.03786565 -0.02679522 -0.027349845 -0.08925701 0.014765652
-0.1559872 0.11176142 -0.061946075 -0.22308694 0.112963356 0.041757967 0.15749942 -0.036735594
-0.032250118 0.06337547 -0.1358112 -0.24103098 -0.14295425 -0.21671087 -0.10074615 -0.09142984
0.01463704 0.0910403 0.23755312 -0.1942496 0.12589705 -0.14807443 -0.13851319 -0.242517
-0.07502245 0.21160728 0.018770592 0.18507355 0.12120361 -0.048501637 -0.04856039 0.1935683
-0.24234971 -0.0763319 -0.058803562 0.16273919 -0.107383676 -0.049578115 -0.26192397 0.13638526
0.04380205 0.07528862 0.21491398 0.19899863 0.1516726 0.16148655 -0.1617175 -0.2702046
0.24467874 0.039634608 -0.2211866 -0.101156 -0.08243079 -0.046698637 0.05587085 -0.2298083
-0.041591715 0.22690308 -0.102241956 -0.018931946 -0.1838121 -0.06418361 0.056060586 -0.19331998
-0.19635348 -0.17897266 -0.16826847 -0.17407219 -0.05371443 0.094464466 -0.059859995 0.25669152
0.018869134 -0.0053495276 -0.017792318 -0.049047694 -0.07802397 0.024125133 0.08675149 -0.012568822
0.026000619 -0.06224278 0.053735726 -0.047086462 -0.04232295 -0.05994145 -0.15128256 0.065655924
-0.028116578 -0.064950265 0.027080087 0.11119559 -0.121530965 -0.10816115 0.024995495 -0.017703237
-0.045788735 0.032972634 -0.023738343 0.11757627 -0.07790256 -0.044375274 0.06329362 0.16157278
0.0758002 0.017426515 0.028206691 0.019702746 0.014228935 0.053461693 0.13413958 0.031420466
0.0432123 0.09561278 -0.07571426 -0.11849195 0.057487324 -0.017029088 -0.035121653 -0.04502964
0.014759596 0.12778462 -0.07648422 0.07226452 -0.0013469815 0.06611344 0.05578626 -0.11718939
-0.07004208 -0.025845379 -0.008007118 -0.018057598 -0.16106269 0.098221704 -0.12132255 0.10651153
00000000: 2c72 18bd 0403 42bd e580 3bbc f05a 98bd
00000010: acaa dc3c fa14 503d ab92 643d 6ffd a7bd
00000020: 18ea d53d 9fa9 433e 2357 983d 141b 98bd
00000030: 1085 c1bd 3366 1dbd c121 e13d 8f17 3d3e
00000040: 94a8 8d3c 4784 0abb a550 67bc ac0a 93bd
00000050: 4370 743d fccd 9fbd 0628 a5bd f349 073e
00000060: b1af 5ebc e870 46bd 59ec 243e 6bab 843d
00000070: ad54 0b3d ae88 e4bc 8ddf 143e 0eee 26bd
00000080: ef62 ab3d 28e8 f2bd d51d ea3d ad1e 32bd
00000090: 53ab 953d 9b2e e03d 049a 343d 697c a93d
000000a0: f5e0 e3bc d5ac 52bc 47fe bfbd dff3 8ebd
000000b0: ca24 8a3d 7553 bebc bb32 de3d 35cd 25bd
000000c0: ba36 48bd e824 fdbd 81d5 1f3d 10cd ef3d
000000d0: 38af 4bbc 2c02 76bd 4e4b c6bc 96c7 f4bd
000000e0: cab9 26be 3736 b6bc 5735 7bbb 2169 8ebd
000000f0: 72e2 bc3b adee df3d 6a04 2f3c b03c c23c
00000100: 9802 dbbc 90f5 02be d310 1cbe d099 ebbc
00000110: e32a 5ebe 2c25 69be 1ff4 db3c adb9 4bbe
00000120: 381b 7abc b8a6 d33c 0ea0 903d 831c 8dbd
00000130: 2ab0 163e 4e49 98bd 606a 8cbd 185d 54be
00000140: 6586 c7bc 617a fbbd 6e5b 773e 4c06 873e
00000150: a432 5b3e ade7 19be 767d 55bd d9a6 fe3d
00000160: c09f e6bc 714f 2dbe 9aa7 37be 7e27 483e
00000170: 401a 37be 7106 43be 53f4 38be 5299 583c
00000180: 36b3 d2bc cf7a df3d e8ae 963c a32b 023e
00000190: d0b6 5f3e 20c2 ba3d 4776 6bbe f386 6ebe
000001a0: 55f4 393e 66ff f93d 4fc0 713c 10d6 7a3d
000001b0: 6a22 31be 5c5d 623c b985 0a3d 82e2 7dbe
000001c0: 7ab4 50be 9130 163e 76b9 91bd 0319 1bbd
000001d0: a681 dbbc c80c e0bc 61cc b6bd a2eb 713c
000001e0: 1cbb 1fbe 2ce3 e43d 2bbb 7dbd e770 64be
000001f0: 5559 e73d 670a 2b3d 8747 213e 1078 16bd
00000200: b318 04bd 00cb 813d 1712 0bbe d3d0 76be
00000210: 9962 12be 74e9 5dbe ff53 cebd 913f bbbd
00000220: 32d0 6f3c 5673 ba3d 2041 733e 5ee9 46be
00000230: 28eb 003e d3a0 17be 67d6 0dbe 6056 78be
00000240: 5fa5 99bd 94af 583e c9c4 993c ec83 3d3e
00000250: 9939 f83d a7a9 46bd 42e7 46bd c536 463e
00000260: 862a 78be e653 9cbd 01dc 70bd 1aa5 263e
00000270: f9eb dbbd 6c12 4bbd e61a 86be 94a8 0b3e
00000280: c769 333d ec30 9a3d 6912 5c3e 4cc6 4b3e
00000290: 1050 1b3e bb5c 253e 4699 25be 4258 8abe
000002a0: 108d 7a3e e657 223d bd7e 62be e02a cfbd
000002b0: 79d1 a8bd 1247 3fbd d5d8 643d de52 6bbe
000002c0: 135c 2abd 4859 683e 3b64 d1bd 2b17 9bbc
000002d0: 3d39 3cbe b272 83bd c99f 653d acf5 45be
000002e0: e310 49be 9c44 37be 924e 2cbe fb3f 32be
000002f0: aa03 5cbd 9676 c13d c12f 75bd 126d 833e
00000300: 7193 9a3c 174b afbb 32c1 91bc 3ce6 48bd
00000310: 08cb 9fbd 12a2 c53c c4aa b13d 76ed 4dbc
00000320: 40ff d43c 49f2 7ebd fe19 5c3d bcdd 40bd
00000330: d45a 2dbd 2a85 75bd d1e9 1abe 9d76 863d
00000340: bd54 e6bc a504 85bd 0fd7 dd3c 83ba e33d
00000350: 3ae5 f8bd 9883 ddbd 5ac3 cc3c 6106 91bc
00000360: f88c 3bbd 500e 073d ea76 c2bc d4cb f03d
00000370: 618b 9fbd d9c2 35bd 16a0 813d 5673 253e
00000380: 233d 9b3d 0dc2 8e3c b811 e73c a767 a13c
00000390: 7b20 693c a6fa 5a3d e35b 093e bfb2 003d
000003a0: 61ff 303d a2d0 c33d 1410 9bbd e8ab f2bd
000003b0: d477 6b3d 9680 8bbc b9db 0fbd 0071 38bd
000003c0: 3cd2 713c f9d9 023e c2a3 9cbd 6cff 933d
000003d0: 338d b0ba 7c66 873d 2280 643d fe00 f0bd
000003e0: 3972 8fbd b0b9 d3bc 4930 03bc 87ed 93bc
000003f0: 9eed 24be 7628 c93d f577 f8bd b822 da3d

GRU.weight_hh_l1 f4 [192, 64]
0.14990701 0.06882433 0.11342615 0.14809546 0.19883293 0.29265183 0.18347172 -0.08592717
-0.003807123 0.10337992 0.15277803 -0.09130346 0.08686223 0.2105486 -0.07211943 -0.12865594
0.06167059 -0.06247074 0.1989293 -0.08898173 0.19439796 -0.11786186 -0.11682088 -0.010790322
0.20191832 -0.08945331 0.05880335 -0.04650731 0.057132784 0.14339153 -0.20116635 0.2610238
-0.34817442 -0.0014456916 -0.011706125 0.26082593 0.2894133 -0.09887564 -0.23659594 0.07201618
-0.2503893 0.06554366 -0.07241257 -0.25788212 0.033591803 -0.22146416 -0.13429901 0.21368617
0.24895604 0.032555804 0.19061896 0.03081483 -0.26496726 0.11488024 0.16728604 0.2022602
-0.03284248 -0.24897353 0.09721193 -0.24013056 0.082228646 -0.10675511 -0.093591064 -0.20684913
-0.038422685 0.043826647 0.072371244 0.12072861 0.22881563 0.16074355 0.08769653 -0.06505023
-0.13621962 0.0151168 0.11611388 0.10047405 0.14790097 0.13608918 -0.059542798 -0.07380324
0.17374212 -0.0015149763 0.0926254 -0.14198196 0.020552248 -0.028214369 -0.005464585 -0.07629606
0.1328222 0.02186332 -0.079325795 -0.017550308 0.094857395 0.14253692 0.00872299 0.106793
-0.0030193366 0.08458939 -0.05938206 -0.0026111077 0.076947 -0.13891466 -0.06478533 0.0019853031
-0.18847223 0.10467432 -0.019876553 0.03710856 -0.13337481 -0.05216158 0.016283585 0.16245973
0.08720874 0.12762406 0.20755242 0.20136467 -0.17224102 -0.025362419 -0.090135865 0.09125224
0.09820947 -0.08187584 0.09508597 -0.11261099 0.038361985 -0.15912277 -0.022705654 -0.16016023
0.15336782 0.18226086 0.15162958 -0.037122324 0.0433414 0.09223766 0.025161466 -0.046781577
-0.12650558 0.06432256 0.13162957 -0.057301864 0.059783462 0.023516024 -0.19188648 -0.23540705
0.1717101 0.05051575 0.31070837 -0.08810678 0.13830055 -0.124267966 -0.1670912 -0.08447289
0.018712938 0.111114025 -0.0012827701 -0.22798735 0.0017199265 0.2702094 -0.28413266 0.21455093
-0.088455826 0.019031914 -0.123264514 0.29124054 0.27354014 -0.12415591 -0.09981656 0.18866645
-0.28281206 0.0035721185 -0.13346817 -0.0918547 -0.03129422 -0.22440398 -0.041822437 0.14179412
0.29945737 0.008540666 0.291451 -0.004123029 -0.105755866 -0.10747919 0.07714109 0.20801158
-0.0016843507 -0.1660427 0.26590192 -0.2101035 0.121634774 -0.23466522 -0.054457687 -0.25680366
0.1190521 0.16913415 0.15376863 0.118762136 -0.0174707 0.17896906 -0.013392846 -0.0049780607
-0.0001177945 0.018648624 0.020335294 -0.05261476 0.11316843 0.0071464987 -0.10844307 -0.16133007
0.12237026 0.036936767 0.27511454 0.025988061 -0.045713935 0.016545117 -0.18223694 0.015347755
-0.07443822 -0.063708626 -0.017565275 -0.21701762 0.008467291 0.18941197 -0.18545945 0.2768404
-0.09074248 0.15810104 -0.07156314 0.11577335 0.017080596 -0.085248426 -0.031156227 0.054905515
-0.098249294 0.15689127 -0.010455121 -0.10428431 -0.1173057 -0.11324922 -0.09200645 -0.06986689
0.055938788 0.053211592 0.2253581 0.057854634 -0.14788772 -0.041963 -0.018892951 0.06458052
-0.048496053 -0.09190275 0.18749678 -0.21019742 0.08110027 -0.02502221 0.031279314 -0.12441601
00000000: 3981 193e c5f3 8c3d f84b e83d 56a6 173e
00000010: dc9a 4b3e 76d6 953e 03e0 3b3e 96fa afbd
00000020: ed80 79bb dab8 d33d d871 1c3e 4ffd babd
00000030: d3e4 b13d 0d9a 573e 5ab3 93bd 62be 03be
00000040: 4d9a 7c3d 52e1 7fbd 1fb4 4b3e 0e3c b6bd
00000050: 4210 473e 8f61 f1bd c93f efbd e4c9 30bc
00000060: adc3 4e3e 4c33 b7bd c8db 703d 737e 3ebd
00000070: 1104 6a3d 3bd5 123e 8dfe 4dbe e9a4 853e
00000080: eb43 b2be 5c7d bdba 0ccb 3fbc fa8a 853e
00000090: fb2d 943e 507f cabd 3546 72be 387d 933d
000000a0: 0733 80be c13b 863d 0b4d 94bd 2009 84be
000000b0: 8f97 093d 80c7 62be ae85 09be 8cd0 5a3e
000000c0: 55ee 7e3e 3c59 053d 9e31 433e 626f fc3c
000000d0: caa9 87be 5546 eb3d 084d 2b3e 4c1d 4f3e
000000e0: d685 06bd ebf2 7ebe 0c17 c73d c9e4 75be
000000f0: 7e67 a83d 6ca2 dabd acac bfbd 42d0 53be
00000100: 1b61 1dbd 9283 333d 6037 943d 9040 f73d
00000110: a54e 6a3e f599 243e 3d9a b33d 0e39 85bd
00000120: 287d 0bbe 74ac 773c 1dcd ed3d 57c5 cd3d
00000130: 5a73 173e f65a 0b3e 26e3 73bd 2726 97bd
00000140: 74e9 313e 2b92 c6ba 63b2 bd3d b863 11be
00000150: 305d a83c d221 e7bc 4310 b3bb 1c41 9cbd
00000160: 8b02 083e b51a b33c 9075 a2bd aac5 8fbc
00000170: 9844 c23d 33f5 113e dfea 0e3c 4ab6 da3d
00000180: 10e0 45bb 343d ad3d 9a3a 73bd 1e1f 2bbb
00000190: 6496 9d3d a53f 0ebe 2cae 84bd dc1b 023b
000001a0: ddfe 40be 7d5f d63d 27d4 a2bc 25ff 173d
000001b0: 6893 08be 62a7 55bd 2765 853c d85b 263e
000001c0: 7f9a b23d e2af 023e 9f88 543e 8a32 4e3e
000001d0: f35f 30be d9c4 cfbc 2799 b8bd 74e2 ba3d
000001e0: 0c22 c93d 85ae a7bd 6fbc c23d 97a0 e6bd
000001f0: 7521 1d3d 14f1 22be 3501 babc 0b01 24be
00000200: 740c 1d3e 97a2 3a3e c944 1b3e 940d 18bd
00000210: c086 313d 19e7 bc3d 6b1f ce3c 0a9e 3fbd
00000220: ae8a 01be 8cbb 833d e7c9 063e 5cb5 6abd
00000230: 81df 743d ada4 c03c e47d 44be 8c0e 71be
00000240: c6d4 2f3e 9ae9 4e3d 2b15 9f3e 5471 b4bd
00000250: a99e 0d3e 3480 febd f519 2bbe 1f00 adbd
00000260: e04b 993c c08f e33d 9f22 a8ba 8475 69be
00000270: 286f e13a e358 8a3e d679 91be 3db3 5b3e
00000280: 5428 b5bd d1e8 9b3c 1b72 fcbd 7b1d 953e
00000290: 740d 8c3e 7445 febd a06c ccbd c731 413e
000002a0: becc 90be 341a 6a3b e1ab 08be 511e bcbd
000002b0: 5e2e 00bd 28ca 65be 014e 2bbd 7a32 113e
000002c0: 7a52 993e 26ee 0b3c 1139 953e 791a 87bb
000002d0: 8896 d8bd 0d1e dcbd 26fc 9d3d fd00 553e
000002e0: 6ec5 dcba 1907 2abe 4c24 883e 5f25 57be
000002f0: a71b f93d 144c 70be 060f 5fbd c57b 83be
00000300: 96d1 f33d 8131 2d3e 8675 1d3e 9039 f33d
00000310: b71e 8fbc aa43 373e ab6d 5bbc 001f a3bb
00000320: 7108 f7b8 00c5 983c 3496 a63c 9382 57bd
00000330: dac4 e73d 2d2d ea3b 6617 debd b633 25be
00000340: 429d fa3d 024b 173d d0db 8c3e eae4 d43c
00000350: 893e 3bbd a089 873c 529c 3abe 2675 7b3c
00000360: 1173 98bd ab79 82bd 0de5 8fbc de39 5ebe
00000370: 64ba 0a3c 36f5 413e 15e9 3dbe 06be 8d3e
00000380: 31d7 b9bd 3de5 213e b28f 92bd 941a ed3d
00000390: 9bec 8b3c ba96 aebd 583b ffbc 9be4 603d
000003a0: ed36 c9bd 1ba8 203e f54b 2bbc 0393 d5bd
000003b0: f93d f0bd 35ef e7bd e16d bcbd 5f16 8fbd
000003c0: 1220 653d 66f4 593d 46c4 663e fbf8 6c3d
000003d0: e16f 17be 65e1 2bbd 64c5 9abc cb42 843d
000003e0: cca3 46bd 8237 bcbd 28ff 3f3e fe3d 57be
000003f0: e617 a63d 61fb ccbc bd1e 003d d2cd febd

GRU.bias_ih_l1 f4 [192]
-0.17549054 0.010020545 -0.1340999 -0.09713496 -0.018547367 -0.08076446 0.007917796 -0.16818956
-0.06614364 0.0077394852 0.024056457 -0.21600662 -0.077209435 -0.15050374 -0.06942391 -0.13772649
0.0467383 -0.023630444 -0.028647408 -0.15402293 -0.15223344 -0.019742576 -0.05524302 0.023057612
-0.13664533 0.006686194 -0.008309888 0.0027480419 -0.07013336 0.00499215 -0.0027970409 0.0018798613
-0.16681516 0.02899086 0.00271685 0.050189253 -0.16682737 -0.17790648 -0.08635001 -0.16593154
-0.2148957 -0.16043471 -0.081856415 -0.074098125 -0.21646598 -0.06204219 0.098878466 -0.16528392
0.0017935488 0.029522344 -0.06602272 0.11941105 0.054870486 0.011322721 -0.15479745 -0.12766322
-0.060589503 -0.048482597 -0.14611275 -0.53887355 -0.07659126 -0.10818913 0.022929655 0.008427341
0.20592651 -0.18984401 0.025266062 0.0897435 -0.06395761 -0.2125064 -0.20824271 -0.0040817484
0.15875904 -0.071732976 -0.08503575 0.26940498 0.010352651 -0.13587497 0.054445323 0.025785651
0.024262052 0.11918232 0.09859812 -0.009939059 -0.10796389 0.15463346 0.58568734 0.3770197
-0.12541364 -0.12547207 0.23433119 -0.093998276 -0.032586053 -0.10530176 0.0021221868 -0.10181036
-0.088935874 -0.06295024 -0.066152595 -0.075999945 -0.1774932 0.2874755 0.02239893 -0.07645423
-0.108839124 0.1014943 0.21769084 -0.08758013 0.10210782 0.22235124 0.00226124 -0.08887088
0.06356382 -0.09422385 -0.1698028 0.02874578 -0.19844049 0.20754224 0.011443805 -0.19213946
0.07471201 0.060136653 -0.16908635 -0.12547374 0.026739119 -0.2010613 0.23217285 0.09471408
0.0044764043 -0.015800038 -0.10624877 -0.024952423 -0.012158143 -0.019271443 -0.017920326 -0.0037572782
0.00090692815 -0.14293182 -0.12033049 -0.023080278 -0.0034785816 0.0031634795 0.03955779 0.012548667
0.014531594 -0.0067458246 -0.1402709 0.0680981 -0.020075137 0.07075989 0.124589145 0.12092405
-0.056677803 0.06083084 -0.04006883 0.008987415 -0.018035987 -0.08294562 0.048580896 -0.13676025
0.064440675 -0.028294915 0.006700204 -0.15355311 -0.10280797 0.1416141 0.06521687 -0.17262037
0.04313352 -0.05945206 -0.014915425 0.08652315 -0.009876257 0.10222101 -0.00045871324 0.0093763815
-0.15875943 -0.01793973 -0.13874958 0.0138423275 0.064270094 0.0420131 -0.020461287 -0.037540995
0.06939049 0.047832027 -0.10232096 0.11074193 -0.027396258 0.14376178 0.07424941 0.14328675
00000000: cbb3 33be 362d 243c 7c51 09be b2ee c6bd
00000010: a6f0 97bc d667 a5bd a5b9 013c e239 2cbe
00000020: 5176 87bd 829b fd3b 0c12 c53c d730 5dbe
00000030: fb1f 9ebd a71d 1abe 1f2e 8ebd 2c08 0dbe
00000040: a970 3f3d a294 c1bc f8ad eabc 30b8 1dbe
00000050: 15e3 1bbe 2fbb a1bc 8146 62bd 51e3 bc3c
00000060: c1ec 0bbe dc17 db3b 3226 08bc 7e18 343b
00000070: 14a2 8fbd 3095 a33b 8f4e 37bb ae65 f63a
00000080: 98d1 2abe 3d7e ed3c 2e0d 323b 3f93 4d3d
00000090: cbd4 2abe 1e2d 36be 46d8 b0bd f5e9 29be
000000a0: 9e0d 5cbe ff48 24be 56a4 a7bd c2c0 97bd
000000b0: 42a9 5dbe f41f 7ebd cb80 ca3d 3040 29be
000000c0: 8315 eb3a d8d8 f13c eb36 87bd c88d f43d
000000d0: e0bf 603d ef82 393c 3983 1ebe 26ba 02be
000000e0: b32c 78bd b095 46bd 959e 15be 9ef3 09bf
000000f0: e1db 9cbd 4392 ddbd f9d6 bb3c d412 0a3c
00000100: 66de 523e 7866 42be c6fa ce3c 71cb b73d
00000110: 35fc 82bd 479b 59be 943d 55be 30c0 85bb
00000120: bb91 223e bde8 92bd 3927 aebd 73ef 893e
00000130: 2a9e 293c cf22 0bbe 0f02 5f3d 6e3c d33c
00000140: 36c1 c63c dc15 f43d d0ed c93d 6fd7 22bc
00000150: 2c1c ddbd 3c58 1e3e 9bef 153f ba08 c13e
00000160: 6f6c 00be c07b 00be 84f4 6f3e 2b82 c0bd
00000170: f478 05bd 73a8 d7bd 6314 0b3b f381 d0bd
00000180: 0324 b6bd 0eec 80bd 037b 87bd dca5 9bbd
00000190: c7c0 35be fd2f 933e f67d b73c 0994 9cbd
000001a0: 0ce7 debd 3edc cf3d 59ea 5e3e 365d b3bd
000001b0: e81d d13d 0bb0 633e 5031 143b f001 b6bd
000001c0: c02d 823d 6ff8 c0bd c9e0 2dbe 457c eb3c
000001d0: fc33 4bbe f485 543e cc7e 3b3c 35c0 44be
000001e0: 9c02 993d da51 763d f924 2dbe 307c 00be
000001f0: ff0b db3c 03e3 4dbe b8be 6d3e 75f9 c13d
00000200: cdae 923b 156f 81bc f598 d9bd 0669 ccbc
00000210: f332 47bc 25df 9dbc a6cd 92bc ab3c 76bb
00000220: ebbe 6d3a b85c 12be d56f f6bd da12 bdbc
00000230: eaf8 63bb 6152 4f3b 5907 223d ed98 4d3c
00000240: ec15 6e3c 140c ddbb 2da3 0fbe 0477 8b3d
00000250: 9d74 a4bc 90ea 903d 9828 ff3d 07a7 f73d
00000260: fc26 68bd c229 793d 371f 24bd f33f 133c
00000270: 35c0 93bc 65df a9bd c3fc 463d e10a 0cbe
00000280: 79f9 833d bdca e7bc 638d db3b 073d 1dbe
00000290: fc8c d2bd 4903 113e 6c90 853d 65c3 30be
000002a0: c6ac 303d 0184 73bd d45f 74bc 0d33 b13d
000002b0: 06d0 21bc 4059 d13d 737f f0b9 659f 193c
000002c0: d591 22be 57f6 92bc 5f14 0ebe eeca 623c
000002d0: 0aa0 833d ee15 2c3d 6e9e a7bc 96c4 19bd
000002e0: 9a1c 8e3d 84eb 433d a78d d1bd aacc e23d
000002f0: 1e6e e0bc 4a36 133e 1310 983d c3b9 123e

GRU.bias_hh_l1 f4 [192]
-0.10950854 -0.12523493 -0.1517155 -0.11625388 -0.18115589 -0.051678333 -0.02309603 -0.069407634
-0.25066417 -0.105242796 -0.02177616 -0.14208023 0.060770296 0.055734564 -0.0533024 -0.12226271
0.111269645 0.03144321 -0.13253672 -0.18113346 -0.15238185 -0.08117979 -0.115484 -0.09329905
-0.076654665 0.035111398 -0.06601248 -0.02048701 0.086407036 0.025965182 -0.12337274 -0.1778228
-0.1633516 -0.039107095 -0.15592773 0.04449844 -0.04319798 -0.15946083 0.031306025 -0.16418351
-0.18308303 -0.17973423 -0.03702445 -0.1260523 -0.27090722 -0.08660814 0.035107184 -0.1703639
-0.13987911 -0.024954395 -0.025797997 0.09150511 -0.088808775 -0.07300639 -0.049366917 0.060551006
-0.11065684 -0.019493967 -0.13268594 -0.51723987 -0.1286006 -0.049712047 -0.04734958 -0.11547834
0.11867012 -0.20381753 0.06524259 0.127416 0.067788035 -0.06853658 -0.20056923 -0.0027605107
-0.034708574 -0.22710793 -0.15212397 0.15327962 -0.1128294 0.015748812 0.01439891 0.07938236
-0.07647879 0.2141058 -0.041120496 -0.13596965 -0.025568193 0.28085503 0.5872378 0.38758126
-0.05895303 -0.104815565 0.17502432 -0.15230396 0.12504733 -0.09267977 0.040147275 -0.029562514
-0.32495087 0.02321826 0.048333913 -0.07925349 -0.0006339833 0.27812102 -0.032497466 -0.26515538
-0.07586831 0.05593699 0.031721823 -0.14479156 0.13974206 0.09480653 -0.023325749 0.0012718198
-0.04161627 0.028675143 -0.26355684 0.16961776 -0.12956017 0.11837577 0.07100488 -0.013956148
0.14241843 0.046320062 -0.13889216 -0.015186448 0.07589411 -0.048357274 0.17745322 0.0058387844
0.09449428 -0.12469482 -0.06289154 0.075525954 -0.053087443 -0.17109007 -0.1507312 0.0440401
-0.020835552 0.048861444 -0.13481075 0.01357645 -0.116942614 -0.12880673 0.04938257 8.214198e-05
-0.10441547 -0.069465935 -0.09249269 -0.032666933 -0.09306751 -0.0049564647 0.00040628857 -0.088675
0.00070936314 -0.11881413 -0.06773803 0.14618869 0.052024666 -0.11295552 0.17160408 -0.04761431
0.037176464 -0.010277501 0.040782887 -0.13749535 0.061519396 -0.08180937 0.10493887 -0.10583707
0.0070399395 0.07384607 0.09130457 0.00635175 -0.02234021 0.11461414 0.10282459 -0.10382808
-0.11559358 -0.10038754 -0.07154889 -0.054635882 0.15568107 -0.027373673 -0.043615423 -0.13321479
-0.1447304 0.115461014 -0.115177095 -0.004578975 -0.03424961 -0.014616762 0.025634546 -0.000798061
00000000: 0346 e0bd 963d 00be 4f5b 1bbe 8416 eebd
00000010: ee80 39be a9ac 53bd e333 bdbc 9725 8ebd
00000020: 0e57 80be 8989 d7bd eb63 b2bc 7b7d 11be
00000030: 46ea 783d ed49 643d 9e53 5abd df64 fabd
00000040: 57e1 e33d 98ca 003d b5b7 07be 0d7b 39be
00000050: fd09 1cbe 9741 a6bd e082 ecbd 9313 bfbd
00000060: 1ffd 9cbd f8d0 0f3d 8d31 87bd 60d4 a7bc
00000070: 2cf6 b03d efb4 d43c d9aa fcbd 2e17 36be
00000080: a445 27be c32e 20bd 85ab 1fbe ff43 363d
00000090: 5df0 30bd b349 23be bf3a 003d b91f 28be
000000a0: 1e7a 3bbe 400c 38be f3a6 17bd db13 01be
000000b0: 5ab4 8abe 9c5f b1bd 8dcc 0f3d e073 2ebe
000000c0: 783c 0fbe 296d ccbc 5256 d3bc 0867 bb3d
000000d0: 60e1 b5bd 6084 95bd f734 4abd 5504 783d
000000e0: 0ea0 e2bd d0b1 9fbc d3de 07be d569 04bf
000000f0: e0af 03be dc9e 4bbd a2f1 41bd e87f ecbd
00000100: 5209 f33d 8bb5 50be e89d 853d 5779 023e
00000110: 74d4 8a3d e85c 8cbd 0562 4dbe afe9 34bb
00000120: 942a 0ebd fb8e 68be 63c6 1bbe 55f5 1c3e
00000130: 1a13 e7bd a703 813c 68e9 6b3c 3893 a23d
00000140: e9a0 9cbd 8d3e 5b3e f76d 28bd a13b 0bbe
00000150: 6374 d1bc 3bcc 8f3e 3755 163f 0d71 c63e
00000160: bb78 71bd 8ba9 d6bd 9339 333e 92f5 1bbe
00000170: 680c 003e e4ce bdbd 7871 243d 162d f2bc
00000180: f65f a6be 3834 be3c c8f9 453d a74f a2bd
00000190: e631 26ba e165 8e3e 101c 05bd 72c2 87be
000001a0: d860 9bbd 2f1e 653d beee 013d 3d44 14be
000001b0: 8b18 0f3e ed29 c23d a415 bfbc 31b3 a63a
000001c0: d275 2abd 22e8 ea3c ecf0 86be 47b0 2d3e
000001d0: 6cab 04be ff6e f23d 026b 913d 54a8 64bc
000001e0: 23d6 113e 1bba 3d3d bf39 0ebe 94d0 78bc
000001f0: 5f6e 9b3d 4712 46bd 4cb6 353e 4653 bf3b
00000200: 3886 c13d ff5f ffbd 48cd 80bd 5aad 9a3d
00000210: 3872 59bd 3c32 2fbe 4859 1abe 6463 343d
00000220: 52af aabc f022 483d d40b 0abe c26f 5e3c
00000230: 9c7f efbd e9e5 03be 6145 4a3d a443 ac38
00000240: c7d7 d5bd 2844 8ebd cf6c bdbd c3cd 05bd
00000250: 2e9a bebd d769 a2bb 2103 d539 3d9b b5bd
00000260: 8ef4 393a d354 f3bd 3cba 8abd 7db2 153e
00000270: d117 553d 3955 e7bd fbb8 2f3e 3907 43bd
00000280: 5946 183d f762 28bc f50b 273d 95cb 0cbe
00000290: c3fb 7b3d ac8b a7bd 31ea d63d 1bc1 d8bd
000002a0: 4baf e63b 9c3c 973d e4fd ba3d 5722 d03b
000002b0: d102 b7bc d1ba ea3d b395 d23d d1a3 d4bd
000002c0: 54bc ecbd fc97 cdbd 3988 92bd e0c9 5fbd
000002d0: dc6a 1f3e c13e e0bc 16a6 32bd 7569 08be
000002e0: 3534 14be d376 ec3d f8e1 ebbd 3a0b 96bb
000002f0: 5249 0cbd 257b 6fbc 8aff d13c f834 51ba

linear.weight f4 [1, 64]
-0.013557301 -0.11780518 -0.08726732 -0.0530473 -0.08172296 -0.096557796 -0.08518646 0.034306705
0.041751277 -0.09309237 -0.061911765 -0.0032578697 -0.066840746 -0.045012627 0.025630444 -0.0034277209
-0.08923352 -0.004792335 -0.10122243 0.06561241 -0.048967842 0.0065688407 0.13085057 0.01225946
-0.044023056 -0.0034604487 -0.019660138 0.050979942 -0.003748146 -0.14289376 0.12920122 -0.13680215
0.13062932 0.024028795 0.032872546 -0.12108681 -0.06827431 0.044660434 0.08439445 -0.13340339
0.07156625 -0.027102293 0.0042319046 0.1227027 0.032437827 0.045723494 0.071343094 -0.061679102
-0.08682932 -0.019280244 -0.12210676 -0.024210578 0.13954201 0.0004863538 -0.019447654 -0.0634503
-0.008334833 0.10719783 -0.14354 0.1073661 -0.062332932 0.08782292 0.006618033 0.093303
00000000: 711f 5ebc d843 f1bd 35b9 b2bd 2048 59bd
00000010: 5e5e a7bd 18c0 c5bd 3d76 aebd 3085 0c3d
00000020: 6303 2b3d 36a7 bebd 3197 7dbd fc81 55bb
00000030: cde3 88bd 295f 38bd f0f6 d13c 9da3 60bb
00000040: 10c0 b6bd 0509 9dbb b54d cfbd cd5f 863d
00000050: 8192 48bd 6e3f d73b b1fd 053e e7db 483c
00000060: 8551 34bd b2c8 62bb 4c0e a1bc 58d0 503d
00000070: 74a3 75bb be52 12be 534d 043e dd15 0cbe
00000080: b1c3 053e 09d8 c43c 5da5 063d 5dfc f7bd
00000090: 67d3 8bbd dced 363d ffd6 ac3d e69a 08be
000000a0: 5391 923d a105 debc caab 8a3b 8e4b fb3d
000000b0: 87dd 043d 8f48 3b3d 541c 923d 3aa3 7cbd
000000c0: 92d3 b1bd 9af1 9dbc 1c13 fabd 4355 c6bc
000000d0: 1ae4 0e3e 4dfd fe39 b050 9fbc 3bf2 81bd
000000e0: d38e 08bc 898a db3d 26fc 12be c2e2 db3d
000000f0: d150 7fbd 81dc b33d 16dc d83b a515 bf3d
